mediapipe2/modules/selfie_segmentation/selfie_segmentation.tflite (tflite, 249024 bytes, 109 tensors)

conv2d/Kernel f2 [16, 3, 3, 3]
0	0xcad0	-13.625
1	0x42f2	3.473
2	0x490e	10.11
3	0xc431	-4.19
4	0x402c	2.086
5	0x3063	0.1371
6	0x381c	0.5137
7	0xc0af	-2.342
8	0xc646	-6.273
9	0xccc2	-19.03
10	0xc928	-10.31
11	0xc322	-3.566
12	0x4e5b	25.42
13	0x4d07	20.11
14	0x4be9	15.82
15	0x41d7	2.92
16	0xc5b3	-5.7
17	0xc9d4	-11.66
18	0x3fff	1.999
19	0x401d	2.057
20	0x47e0	7.875
21	0xc1c2	-2.879
22	0xc886	-9.05
23	0xc81e	-8.234
24	0x48d8	9.69
25	0xbe76	-1.615
26	0xc345	-3.635
27	0xc89c	-9.22
28	0xcd32	-20.78
29	0xceee	-27.72
30	0x4fcc	31.19
31	0x4d83	22.05
32	0x4cfc	19.94
33	0xc60e	-6.055
34	0xc667	-6.402
35	0xc8cd	-9.6
36	0x4c2f	16.73
37	0x4a4a	12.58
38	0x4af8	13.94
39	0xc90f	-10.12
40	0xc8fe	-9.984
41	0xbd62	-1.346
42	0xc92f	-10.37
43	0xc424	-4.14
44	0xbbee	-0.991
45	0x44e7	4.902
46	0x451a	5.1
47	0x4563	5.387
48	0xcdd0	-23.25
49	0xcc7d	-17.95
50	0xcaef	-13.87
51	0x470b	7.043
52	0x4c0b	16.17
53	0x4c27	16.61
54	0x34a2	0.2896
55	0x3356	0.2292
56	0x2ec6	0.10583
57	0x359c	0.3506
58	0x30c0	0.1484
59	0xae85	-0.10187
60	0x36b6	0.4194
61	0x3437	0.2634
62	0x33f4	0.2485
63	0x398a	0.6924
64	0x3806	0.503
65	0x2d63	0.08417
66	0x38a2	0.579
67	0x337e	0.2341
68	0xb4fd	-0.3118
69	0x3533	0.325
70	0x3517	0.318
71	0x30c3	0.1488
72	0xa316	-0.01384
73	0x2f90	0.11816
74	0x2205	0.01176
75	0x339f	0.2382
76	0x3631	0.387
77	0x2b42	0.0567
78	0xb658	-0.3965
79	0xb1e1	-0.1837
80	0xacc1	-0.0743
81	0xb668	-0.4004
82	0xb4e0	-0.3047
83	0xb0ec	-0.1538
84	0xb67f	-0.406
85	0xb561	-0.3362
86	0x24e1	0.01906
87	0xb53d	-0.3274
88	0xb3af	-0.2401
89	0xb0bf	-0.1483
90	0xb654	-0.3955
91	0xb5c3	-0.36
92	0xae07	-0.0942
93	0xb81b	-0.513
94	0xb4ec	-0.3076
95	0x35c1	0.3596
96	0xb7fd	-0.4993
97	0xb4a0	-0.289
98	0xa8ee	-0.0385
99	0xac16	-0.06384
100	0xacad	-0.07306
101	0xb087	-0.1415
102	0xb10d	-0.1578
103	0xa648	-0.02454
104	0x312d	0.1617
105	0xb0c0	-0.1484
106	0x2e41	0.0977
107	0x2fdf	0.123
108	0xc00c	-2.023
109	0xc082	-2.254
110	0xc14b	-2.646
111	0x4116	2.543
112	0x402f	2.092
113	0x3ec3	1.69
114	0x456b	5.418
115	0x44fc	4.984
116	0x4419	4.098
117	0xc5c8	-5.78
118	0xc5ea	-5.914
119	0xc54e	-5.305
120	0xbb52	-0.915
121	0xbc48	-1.07
122	0xaffb	-0.1247
123	0x460c	6.047
124	0x45c2	5.758
125	0x45ce	5.805
126	0xc538	-5.22
127	0xc4d8	-4.844
128	0xc494	-4.58
129	0xc039	-2.111
130	0xbe9e	-1.654
131	0xbbe4	-0.9863
132	0x4057	2.17
133	0x4095	2.291
134	0x4033	2.1
135	0xb5e4	-0.3682
136	0x37bf	0.4841
137	0x36f4	0.4346
138	0xba0e	-0.757
139	0x391a	0.6377
140	0x394a	0.661
141	0xb3ed	-0.2477
142	0x37d0	0.4883
143	0x3410	0.254
144	0xbc85	-1.13
145	0x33fe	0.2498
146	0x3a11	0.7583
147	0xbeb2	-1.674
148	0x39e4	0.7363
149	0x3d6e	1.357
150	0xb967	-0.6753
151	0x3773	0.4656
152	0x380a	0.505
153	0xb44e	-0.269
154	0x2b89	0.05887
155	0x3720	0.4453
156	0xbb10	-0.883
157	0x3242	0.1956
158	0x3a38	0.7773
159	0xac60	-0.06836
160	0x3675	0.4036
161	0x3521	0.3206
162	0xc2c6	-3.387
163	0xc370	-3.719
164	0xc41a	-4.1
165	0x3fb9	1.931
166	0x4433	4.2
167	0x4127	2.576
168	0xc29f	-3.31
169	0xc219	-3.049
170	0xc05b	-2.178
171	0xb531	-0.3245
172	0x3d28	1.289
173	0x3d64	1.348
174	0x44c6	4.773
175	0x48e3	9.77
176	0x4834	8.41
177	0xbb0a	-0.88
178	0x3855	0.5415
179	0x3aed	0.8657
180	0xc051	-2.158
181	0xc175	-2.729
182	0xbf12	-1.768
183	0x33b2	0.2405
184	0x3908	0.629
185	0x3dcf	1.452
186	0xc0b3	-2.35
187	0xc22d	-3.088
188	0xbf74	-1.863
189	0x41ae	2.84
190	0xbfe1	-1.97
191	0xbe90	-1.641
192	0x44cf	4.81
193	0xbfb7	-1.929
194	0xbd9e	-1.404
195	0x399a	0.7
196	0xbcd0	-1.203
197	0xb344	-0.227
198	0x4190	2.781
199	0xbfa6	-1.912
200	0xc003	-2.006
201	0x45ab	5.668
202	0xbd85	-1.38
203	0xbce2	-1.221
204	0x3d36	1.303
205	0xbbdf	-0.984
206	0xb643	-0.3914
207	0x391f	0.64
208	0xb689	-0.4084
209	0xbb11	-0.8833
210	0x3cdf	1.218
211	0xb98d	-0.694
212	0xba33	-0.775
213	0xb025	-0.1295
214	0x149d	0.001126
215	0x1ddb	0.00572
216	0x334c	0.228
217	0xb2a4	-0.2075
218	0xb1f3	-0.1859
219	0x3019	0.128
220	0xb814	-0.51
221	0xb8bf	-0.5933
222	0xa63d	-0.02437
223	0xb43d	-0.265
224	0x153e	0.00128
225	0x36df	0.4294
226	0xb459	-0.2717
227	0xb860	-0.547
228	0x3546	0.3296
229	0xbb18	-0.8867
230	0xbe44	-1.566
231	0x363d	0.39
232	0xb1d9	-0.1827
233	0xb14d	-0.1656
234	0x30dd	0.152
235	0xb105	-0.1569
236	0xb0d9	-0.1515
237	0x31e3	0.184
238	0xb535	-0.3254
239	0xb817	-0.511
240	0x2c9c	0.072
241	0xb490	-0.2852
242	0xb50e	-0.316
243	0xbbdd	-0.983
244	0xa54c	-0.02069
245	0x391f	0.64
246	0xbd2e	-1.295
247	0x383b	0.529
248	0x3d7e	1.373
249	0xbafb	-0.8726
250	0x2c0c	0.06323
251	0x3860	0.547
252	0xbe39	-1.556
253	0x3624	0.3838
254	0x3ce1	1.22
255	0xc122	-2.566

conv2d/Bias f2 [16]
0	0xbbd4	-0.9785
1	0xb772	-0.4653
2	0xbf7c	-1.871
3	0x415a	2.676
4	0x4082	2.254
5	0xb13f	-0.164
6	0x3b9d	0.9517
7	0x34ef	0.3083
8	0x4180	2.75
9	0x408f	2.28
10	0xb359	-0.2296
11	0x4154	2.664
12	0x4120	2.562
13	0x3ce7	1.226
14	0x3cfd	1.247
15	0x41c8	2.89

conv2d_1/Kernel f2 [16, 1, 1, 16]
0	0xa8f0	-0.03857
1	0x2989	0.04324
2	0x39d0	0.7266
3	0x366b	0.4011
4	0xa1d9	-0.01142
5	0xb1a3	-0.1761
6	0x2d29	0.0806
7	0x26e6	0.02695
8	0x39eb	0.7397
9	0xb8b0	-0.586
10	0x29fa	0.0467
11	0x34c6	0.2983
12	0xbd83	-1.378
13	0x25c6	0.02255
14	0xb264	-0.1997
15	0x32fc	0.2183
16	0x3526	0.3218
17	0x373f	0.453
18	0xb658	-0.3965
19	0xb104	-0.1567
20	0xb1ef	-0.1854
21	0xb028	-0.1299
22	0xb057	-0.1356
23	0xafa8	-0.1196
24	0xb820	-0.5156
25	0xaca0	-0.07227
26	0x30a8	0.1455
27	0x3608	0.377
28	0xb046	-0.1335
29	0xaa34	-0.04846
30	0xb353	-0.2289
31	0x23b2	0.01503
32	0xb1ae	-0.1775
33	0xb14d	-0.1656
34	0x2e23	0.0959
35	0x3614	0.38
36	0xbf3a	-1.807
37	0x3146	0.1648
38	0xaedb	-0.1071
39	0x2a62	0.04987
40	0xa041	-0.00831
41	0xa5e5	-0.02303
42	0xa76b	-0.02898
43	0xb8d4	-0.6035
44	0xa855	-0.03384
45	0x352e	0.3237
46	0xa96b	-0.04233
47	0x2e68	0.1001
48	0xad59	-0.08356
49	0xaccd	-0.075
50	0xac69	-0.0689
51	0x34df	0.3044
52	0x2d2e	0.08093
53	0x3281	0.2032
54	0xae32	-0.0968
55	0x361d	0.382
56	0xb047	-0.1337
57	0x3c37	1.054
58	0xa6fd	-0.0273
59	0xb6da	-0.4282
60	0x3d04	1.254
61	0x294e	0.04144
62	0xac7e	-0.0702
63	0xbbbb	-0.9663
64	0x26be	0.02634
65	0xb2e3	-0.2152
66	0x220d	0.01182
67	0x333c	0.2261
68	0x3ff6	1.99
69	0x2872	0.03473
70	0x2e83	0.10175
71	0xaf48	-0.1138
72	0xb1e0	-0.1836
73	0xac92	-0.0714
74	0x2aef	0.05417
75	0xbd81	-1.376
76	0xad45	-0.08234
77	0xbedc	-1.715
78	0xb41a	-0.2563
79	0x36b7	0.4197
80	0x256e	0.02121
81	0x2498	0.01794
82	0x386f	0.554
83	0x3521	0.3206
84	0x1fed	0.00774
85	0xa87a	-0.03497
86	0x2002	0.00783
87	0x30ac	0.146
88	0x315e	0.1677
89	0xae20	-0.0957
90	0x2438	0.01648
91	0xab93	-0.05917
92	0x35ea	0.3696
93	0xa283	-0.01272
94	0xb465	-0.2747
95	0xb52f	-0.324
96	0xacd2	-0.0753
97	0xa670	-0.02515
98	0xa19b	-0.01095
99	0x2c08	0.063
100	0x156d	0.001325
101	0xb687	-0.408
102	0x0966	0.0001647
103	0xb820	-0.5156
104	0xafb9	-0.12067
105	0xb7fd	-0.4993
106	0x2a33	0.04843
107	0x3171	0.17
108	0xb314	-0.2212
109	0x279b	0.02971
110	0xc14c	-2.648
111	0xaf16	-0.1107
112	0x2f70	0.1162
113	0x2e91	0.1026
114	0x3a02	0.751
115	0x232a	0.01399
116	0xab8a	-0.0589
117	0x336e	0.2322
118	0xa999	-0.04373
119	0x2d8a	0.08655
120	0x2e1b	0.0954
121	0xa441	-0.01662
122	0x2288	0.01276
123	0x34eb	0.3074
124	0x264c	0.0246
125	0x2a25	0.048
126	0x2f5e	0.1151
127	0xab2b	-0.056
128	0x2856	0.03387
129	0x1c68	0.004303
130	0x340d	0.2532
131	0x388a	0.5674
132	0xb23f	-0.1952
133	0x2e8f	0.1025
134	0xa691	-0.02565
135	0xab2d	-0.05606
136	0xb37c	-0.2339
137	0xb0ce	-0.1501
138	0x2782	0.02933
139	0xbac9	-0.848
140	0xab67	-0.05783
141	0x3193	0.1742
142	0x28a3	0.03622
143	0x31f5	0.1862
144	0xae3b	-0.09735
145	0xad4f	-0.08295
146	0xafb0	-0.1201
147	0xb6ec	-0.4326
148	0x245b	0.01701
149	0xa86e	-0.0346
150	0x2ad9	0.0535
151	0xac62	-0.0685
152	0xb7bf	-0.4841
153	0xa3f1	-0.01551
154	0xa744	-0.02838
155	0x2409	0.01576
156	0xafcf	-0.122
157	0x2416	0.01596
158	0xb057	-0.1356
159	0xaf0f	-0.1103
160	0x2743	0.02837
161	0x29f9	0.04666
162	0x35ce	0.3628
163	0x30de	0.1521
164	0x3167	0.1688
165	0xaf8f	-0.1181
166	0x34a0	0.289
167	0x25d0	0.0227
168	0x3848	0.535
169	0xafce	-0.12195
170	0x2589	0.02162
171	0x40c7	2.389
172	0x2bf5	0.06216
173	0x1c20	0.00403
174	0x30cb	0.1498
175	0xba94	-0.8223
176	0xb1e4	-0.1841
177	0xb2a5	-0.2076
178	0x3875	0.557
179	0x3043	0.1332
180	0x2ada	0.05353
181	0xb689	-0.4084
182	0x1da3	0.005505
183	0x3505	0.3137
184	0x35a4	0.3525
185	0xba11	-0.7583
186	0xae2c	-0.09644
187	0xb335	-0.2252
188	0xb50a	-0.315
189	0x24f0	0.01929
190	0xb414	-0.255
191	0xab7d	-0.0585
192	0xb248	-0.1963
193	0x266c	0.02509
194	0xb251	-0.1974
195	0xa737	-0.02818
196	0xb166	-0.1687
197	0xb5aa	-0.354
198	0xb3a3	-0.2386
199	0xb3ec	-0.2476
200	0xb024	-0.1294
201	0x26c5	0.02644
202	0xb330	-0.2246
203	0x3a44	0.783
204	0xace5	-0.0765
205	0xa940	-0.04102
206	0xb916	-0.6357
207	0x356a	0.3384
208	0x15a7	0.00138
209	0x053d	7.993e-05
210	0x3652	0.395
211	0xb873	-0.556
212	0x9dd1	-0.00568
213	0x33a5	0.2389
214	0x2031	0.00819
215	0x23b7	0.01507
216	0xb132	-0.1624
217	0xaa14	-0.0475
218	0x9008	-0.000492
219	0xaf1f	-0.11127
220	0x18bf	0.002317
221	0xa1dd	-0.01145
222	0x25e1	0.02296
223	0xabca	-0.06085
224	0x9948	-0.002579
225	0x96bd	-0.001645
226	0xb459	-0.2717
227	0x397f	0.687
228	0x91d4	-0.0007114
229	0xb3a8	-0.2393
230	0x1b2a	0.003498
231	0x9c4b	-0.004192
232	0x32ce	0.2126
233	0x2c14	0.0637
234	0x174e	0.001783
235	0x3019	0.128
236	0x267b	0.02531
237	0x229d	0.01292
238	0xa329	-0.013985
239	0x2ba2	0.05963
240	0x2d90	0.0869
241	0x2b36	0.05634
242	0x3a0a	0.755
243	0x39b1	0.7114
244	0xa61c	-0.02386
245	0xb842	-0.532
246	0x293b	0.04086
247	0xbc13	-1.019
248	0xb756	-0.4585
249	0x3ba0	0.953
250	0x2820	0.03223
251	0x3409	0.2522
252	0xb682	-0.4067
253	0x101c	0.0005016
254	0xb61e	-0.3823
255	0x34af	0.2927

conv2d_1/Bias f2 [16]
0	0x4018	2.047
1	0x40f9	2.486
2	0x452a	5.164
3	0xb6b4	-0.419
4	0x31e8	0.1846
5	0x402d	2.088
6	0x4567	5.402
7	0x3ac9	0.848
8	0x4399	3.799
9	0x43fb	3.99
10	0xc4b6	-4.71
11	0x418d	2.775
12	0x3e86	1.631
13	0x41e6	2.95
14	0x3e5b	1.589
15	0xb832	-0.5244

depthwise_conv2d/Kernel f2 [1, 3, 3, 16]
0	0xa6a4	-0.02594
1	0x28cc	0.03748
2	0x26f8	0.02722
3	0x24fe	0.0195
4	0x9bfd	-0.0039
5	0xabcd	-0.06094
6	0x263d	0.02437
7	0x23a4	0.01492
8	0x17ce	0.001905
9	0xa8c4	-0.03723
10	0x2e3b	0.09735
11	0x26b0	0.02612
12	0x2ba3	0.05966
13	0xb8d2	-0.6025
14	0xb89e	-0.577
15	0xa8e0	-0.0381
16	0xa7a0	-0.02979
17	0x2be8	0.06177
18	0x267f	0.02538
19	0x272a	0.02798
20	0xa26e	-0.01256
21	0xacd0	-0.0752
22	0x26ea	0.02701
23	0x2c8e	0.07117
24	0x2e53	0.0988
25	0xaf19	-0.1109
26	0x2da9	0.08844
27	0x29b5	0.0446
28	0x2055	0.00846
29	0xb331	-0.2247
30	0xbc0a	-1.01
31	0xaa3f	-0.0488
32	0xa361	-0.01441
33	0x2841	0.03323
34	0x175a	0.001795
35	0x2513	0.01982
36	0xa044	-0.00833
37	0x1ae6	0.003368
38	0x2804	0.03137
39	0x2b8b	0.05893
40	0x2dae	0.08875
41	0xaabf	-0.0527
42	0x24b2	0.01834
43	0x23ec	0.01547
44	0xa909	-0.03934
45	0x3711	0.4417
46	0xb52f	-0.324
47	0xa81d	-0.03214
48	0xa76c	-0.02899
49	0x2c2b	0.0651
50	0x2868	0.03442
51	0x27c1	0.03029
52	0xa503	-0.01958
53	0xaccd	-0.075
54	0x26f7	0.0272
55	0x2b64	0.05774
56	0xad52	-0.0831
57	0xae4e	-0.0985
58	0x2bc9	0.06082
59	0x2923	0.04013
60	0x2ccb	0.0749
61	0xbc7f	-1.124
62	0x20d7	0.00945
63	0xaa55	-0.04947
64	0xa968	-0.04224
65	0x2d82	0.08606
66	0x2a73	0.05038
67	0x28df	0.03806
68	0xa78b	-0.02946
69	0xae96	-0.1029
70	0x2560	0.021
71	0x2f54	0.1145
72	0x1fd0	0.00763
73	0xb0de	-0.1521
74	0x2ad7	0.05344
75	0x2be1	0.06155
76	0x2c9e	0.07214
77	0x2ce0	0.0762
78	0x2cc1	0.0743
79	0xac15	-0.0638
80	0xa60b	-0.0236
81	0x28ec	0.03845
82	0x263f	0.0244
83	0x24dc	0.01898
84	0xa531	-0.02028
85	0xa40a	-0.01578
86	0x266d	0.0251
87	0x2c3e	0.0663
88	0x2cba	0.07385
89	0xab29	-0.05594
90	0x9793	-0.001849
91	0x2619	0.02382
92	0x11dc	0.0007153
93	0x3cba	1.182
94	0x2c08	0.063
95	0xa87d	-0.03506
96	0xa240	-0.01221
97	0x28d4	0.03772
98	0x2001	0.00782
99	0x2456	0.01694
100	0xa418	-0.01599
101	0x9abf	-0.003294
102	0x2611	0.0237
103	0x2a33	0.04843
104	0xade1	-0.09186
105	0xabf3	-0.0621
106	0xb01e	-0.1287
107	0x219b	0.01095
108	0x1133	0.0006347
109	0xb418	-0.2559
110	0x37e4	0.4932
111	0xa648	-0.02454
112	0xa560	-0.021
113	0x28eb	0.03842
114	0x26c4	0.02643
115	0x22c1	0.01319
116	0xa4db	-0.01897
117	0xa66a	-0.02505
118	0x22ac	0.01303
119	0x2a34	0.04846
120	0xacc3	-0.0744
121	0xab50	-0.05713
122	0xb0e0	-0.1523
123	0x25fb	0.02336
124	0x2981	0.043
125	0x32a9	0.2081
126	0x3c1d	1.028
127	0xa6c9	-0.0265
128	0xa30c	-0.01376
129	0x239a	0.01485
130	0x24ee	0.01926
131	0x1a26	0.003002
132	0x9ed5	-0.00667
133	0x9137	-0.0006366
134	0x2423	0.01616
135	0x22c1	0.01319
136	0x9d57	-0.005215
137	0x9dfe	-0.00585
138	0xa937	-0.04074
139	0x2041	0.00831
140	0x2571	0.02126
141	0x34e3	0.3054
142	0x347d	0.2805
143	0xa386	-0.014694

depthwise_conv2d/Bias f2 [16]
0	0x3d95	1.3955
1	0x28a9	0.0364
2	0x27d4	0.03058
3	0xa7e2	-0.03079
4	0x366f	0.402
5	0x3f25	1.786
6	0xa495	-0.0179
7	0xb411	-0.2542
8	0x3bfa	0.997
9	0x4205	3.01
10	0x2aa8	0.052
11	0xaf35	-0.1126
12	0x361f	0.3826
13	0x3420	0.2578
14	0x33bc	0.2417
15	0x3c63	1.097

conv2d_2/Kernel f2 [8, 1, 1, 16]
0	0x38ab	0.5835
1	0xaf6b	-0.1159
2	0x3962	0.673
3	0xb9e5	-0.737
4	0xba1c	-0.7637
5	0xba1f	-0.765
6	0xae6b	-0.1003
7	0x1ebf	0.006588
8	0x2f60	0.11523
9	0xb55b	-0.3347
10	0x3a09	0.7544
11	0xb59a	-0.35
12	0x3d19	1.274
13	0x3a90	0.8203
14	0x331d	0.2223
15	0x360e	0.3784
16	0x258e	0.0217
17	0x2e45	0.09796
18	0x33ca	0.2434
19	0xa83e	-0.03314
20	0x3509	0.3147
21	0xb88d	-0.569
22	0xa54b	-0.02068
23	0xad05	-0.0784
24	0xb856	-0.542
25	0xb84e	-0.538
26	0xb71c	-0.4443
27	0xb91e	-0.6396
28	0x20f6	0.00969
29	0xb820	-0.5156
30	0xaf35	-0.1126
31	0xb40d	-0.2532
32	0x3a9d	0.8267
33	0x39ab	0.7085
34	0xb9ed	-0.7407
35	0x30c1	0.1486
36	0x382d	0.522
37	0x30dd	0.152
38	0x30fa	0.1555
39	0x32f3	0.2172
40	0x2e4e	0.0985
41	0xbac5	-0.846
42	0x2561	0.02101
43	0x38e2	0.6104
44	0x3264	0.1997
45	0xbc72	-1.111
46	0xbed5	-1.708
47	0x39f4	0.744
48	0x3873	0.556
49	0xbca8	-1.164
50	0x39b6	0.714
51	0x3447	0.2673
52	0x386d	0.553
53	0x380b	0.5054
54	0x30e0	0.1523
55	0xb990	-0.6953
56	0x2df2	0.0929
57	0xb899	-0.5747
58	0xb090	-0.1426
59	0x3886	0.5654
60	0x3be1	0.985
61	0x31be	0.1794
62	0xb61a	-0.3813
63	0xae5d	-0.0994
64	0xbb31	-0.899
65	0xb767	-0.4626
66	0x2edd	0.10724
67	0x2fdf	0.123
68	0x37d3	0.489
69	0x3355	0.2291
70	0x3609	0.3772
71	0xb088	-0.1416
72	0x30d9	0.1515
73	0xb58a	-0.3462
74	0x2a15	0.04752
75	0x3c6f	1.108
76	0x35e5	0.3684
77	0x2a57	0.04953
78	0x2a54	0.04944
79	0x36f5	0.4348
80	0xb16b	-0.1693
81	0x3045	0.1334
82	0xb26d	-0.2008
83	0x3a40	0.7812
84	0x3083	0.141
85	0xb1c0	-0.1797
86	0x3d52	1.33
87	0x37e1	0.4924
88	0x3012	0.1272
89	0x33f9	0.2491
90	0x2cd2	0.0753
91	0x2f6a	0.11584
92	0xafac	-0.1199
93	0xb6e8	-0.4316
94	0x326b	0.2006
95	0xb58a	-0.3462
96	0x3304	0.2192
97	0x3970	0.6797
98	0xb788	-0.4707
99	0xac77	-0.06976
100	0xa9ab	-0.04428
101	0x377c	0.4678
102	0x359e	0.351
103	0xbdcd	-1.45
104	0xb0b2	-0.1467
105	0x36ad	0.4172
106	0xbac3	-0.845
107	0xaf6b	-0.1159
108	0x2898	0.0359
109	0xbc6b	-1.1045
110	0xbb9c	-0.951
111	0x3b9c	0.951
112	0xb925	-0.643
113	0xb5d2	-0.3638
114	0xad8f	-0.08685
115	0xad73	-0.08514
116	0x30e7	0.1532
117	0xb6ef	-0.4333
118	0x35fb	0.3738
119	0xabef	-0.06198
120	0x283b	0.03305
121	0xb7c4	-0.4854
122	0x31d0	0.1816
123	0xb6ee	-0.433
124	0x2c6f	0.0693
125	0xb1bc	-0.1792
126	0xb550	-0.332
127	0x306c	0.1382

conv2d_2/Bias f2 [8]
0	0xb536	-0.3257
1	0xae88	-0.10205
2	0x30ca	0.1497
3	0x3602	0.3755
4	0x3aa5	0.8306
5	0x36e8	0.4316
6	0x376f	0.4646
7	0xb174	-0.1704

conv2d_3/Kernel f2 [16, 1, 1, 8]
0	0x349f	0.2888
1	0xb1b8	-0.1787
2	0x3584	0.3447
3	0xb537	-0.326
4	0x3877	0.558
5	0xba88	-0.8164
6	0x3730	0.4492
7	0x3436	0.2632
8	0x2525	0.0201
9	0xb42a	-0.2603
10	0x3188	0.1729
11	0x3ae0	0.8594
12	0x34cc	0.2998
13	0xb5f0	-0.371
14	0x25d2	0.02274
15	0xb42c	-0.2607
16	0xb382	-0.2346
17	0xb4d3	-0.3015
18	0x35fb	0.3738
19	0xac30	-0.0654
20	0xadb0	-0.08887
21	0xb0d6	-0.1511
22	0x3574	0.3408
23	0xb45e	-0.273
24	0x3a2a	0.7705
25	0xb4e9	-0.307
26	0x33e8	0.2471
27	0x3492	0.2856
28	0xb7df	-0.492
29	0xb917	-0.636
30	0x0f7f	0.0004575
31	0x3617	0.3806
32	0x2c7a	0.06995
33	0xb576	-0.3413
34	0x2ed5	0.10675
35	0x30f9	0.1554
36	0xac94	-0.07153
37	0x330e	0.2205
38	0x3a03	0.7515
39	0xa70f	-0.02757
40	0x3a72	0.8057
41	0xb049	-0.1339
42	0x371a	0.4438
43	0x2969	0.04227
44	0x3332	0.2249
45	0x3408	0.252
46	0x3475	0.2786
47	0xb44c	-0.2686
48	0x3790	0.4727
49	0x2d67	0.0844
50	0xb1d8	-0.1826
51	0x3672	0.4028
52	0xb850	-0.539
53	0xbd73	-1.362
54	0xb369	-0.2316
55	0xb583	-0.3445
56	0x29a2	0.044
57	0x34af	0.2927
58	0x2d8c	0.0867
59	0x3255	0.1979
60	0xa837	-0.03293
61	0xafaa	-0.11975
62	0x3934	0.6504
63	0x9c0c	-0.003952
64	0xb406	-0.2515
65	0xac18	-0.06396
66	0x347c	0.2803
67	0x3955	0.6665
68	0x2d65	0.0843
69	0xb38e	-0.2361
70	0x3353	0.2289
71	0xb14a	-0.1653
72	0x2b4e	0.05707
73	0x8f96	-0.000463
74	0x38c9	0.598
75	0x3331	0.2247
76	0xa42e	-0.01633
77	0xb2db	-0.2142
78	0x9ec8	-0.006622
79	0x3388	0.2354
80	0xb624	-0.3838
81	0xb742	-0.4536
82	0x35a6	0.353
83	0x3967	0.6753
84	0xa8b6	-0.0368
85	0xb55b	-0.3347
86	0x3586	0.3452
87	0xb0fe	-0.156
88	0x3340	0.2266
89	0x3268	0.2002
90	0x3521	0.3206
91	0x9eb8	-0.00656
92	0xb1e4	-0.1841
93	0xb6b9	-0.4202
94	0x3642	0.391
95	0x2d8c	0.0867
96	0xb992	-0.6963
97	0xb165	-0.1686
98	0x39c3	0.72
99	0xab42	-0.0567
100	0xb304	-0.2192
101	0xb461	-0.2737
102	0x33fd	0.2496
103	0xb30a	-0.22
104	0xb670	-0.4023
105	0xb0e2	-0.1526
106	0x37ae	0.48
107	0x3573	0.3406
108	0x271f	0.02782
109	0xb266	-0.2
110	0x364f	0.3943
111	0xb0fe	-0.156
112	0xb13a	-0.1633
113	0x3235	0.194
114	0x3811	0.5083
115	0x303c	0.1323
116	0x28e6	0.03827
117	0xb287	-0.204
118	0x3432	0.2622
119	0xb618	-0.3809
120	0x37c9	0.4866
121	0xac5e	-0.06824
122	0x3584	0.3447
123	0x34c6	0.2983
124	0xbc00	-1.0
125	0xb6b6	-0.4194
126	0x34f8	0.3105
127	0x2c73	0.0695

conv2d_3/Bias f2 [16]
0	0xbd97	-1.397
1	0xba46	-0.784
2	0x3b04	0.877
3	0xb6fd	-0.4368
4	0x3da9	1.415
5	0xc075	-2.229
6	0x3927	0.644
7	0xbc4a	-1.072
8	0xbc9a	-1.15
9	0xb940	-0.6562
10	0x31d0	0.1816
11	0xb152	-0.1663
12	0xa95e	-0.04193
13	0xb886	-0.5654
14	0xb6dc	-0.4287
15	0xbbe1	-0.985

conv2d_4/Kernel f2 [16, 1, 1, 16]
0	0x4719	7.098
1	0x3e32	1.549
2	0x36c2	0.4224
3	0x4076	2.23
4	0xc0b9	-2.361
5	0xcc16	-16.34
6	0x48dc	9.72
7	0x4528	5.156
8	0x3c75	1.114
9	0xc55a	-5.35
10	0x34dc	0.3037
11	0x480c	8.09
12	0x3f5b	1.839
13	0xb4e4	-0.3057
14	0xb8df	-0.609
15	0x4015	2.041
16	0x43eb	3.959
17	0x43b8	3.86
18	0x3fbf	1.937
19	0xb2ad	-0.2086
20	0x390f	0.6323
21	0xa02b	-0.00814
22	0x328e	0.2048
23	0xc24e	-3.152
24	0x47e4	7.89
25	0xc96f	-10.87
26	0x3282	0.2034
27	0xbe0a	-1.51
28	0xc556	-5.336
29	0x3bea	0.9893
30	0x4111	2.533
31	0xc0d1	-2.408
32	0x4230	3.094
33	0xc6d2	-6.82
34	0x420e	3.027
35	0x44bf	4.746
36	0x4504	5.016
37	0xbce6	-1.225
38	0x3df6	1.49
39	0x4296	3.293
40	0xc024	-2.07
41	0xbc89	-1.134
42	0x3bf9	0.9966
43	0x42ea	3.457
44	0x39b8	0.715
45	0xb804	-0.502
46	0x4642	6.258
47	0xb771	-0.465
48	0x3fe1	1.97
49	0xbd9d	-1.403
50	0x4582	5.508
51	0xb672	-0.4028
52	0x36f4	0.4346
53	0x3e39	1.556
54	0x3d1d	1.278
55	0xc04a	-2.145
56	0x419f	2.81
57	0x4741	7.254
58	0x3879	0.559
59	0xb41b	-0.2566
60	0x3f0f	1.765
61	0xc565	-5.395
62	0xc4d3	-4.824
63	0xc41b	-4.105
64	0xb89e	-0.577
65	0x41c2	2.879
66	0x42fc	3.492
67	0xc285	-3.26
68	0xc2fb	-3.49
69	0x41f4	2.977
70	0x3bb2	0.962
71	0xc224	-3.07
72	0xa77d	-0.02925
73	0x439d	3.807
74	0x42a8	3.328
75	0xc13a	-2.613
76	0xc82f	-8.37
77	0x43da	3.926
78	0x447a	4.477
79	0xbe2a	-1.541
80	0xcc1c	-16.44
81	0x42d4	3.414
82	0x3a0b	0.7554
83	0xc506	-5.023
84	0x3af6	0.87
85	0xa4ce	-0.01877
86	0x3d37	1.304
87	0xbd33	-1.3
88	0xc1a5	-2.822
89	0x3eea	1.729
90	0xbe8c	-1.637
91	0x48ad	9.35
92	0x3c08	1.008
93	0x3868	0.551
94	0x35dc	0.3662
95	0x4b5b	14.71
96	0x496c	10.84
97	0x3db4	1.426
98	0xbcaf	-1.171
99	0x46bc	6.734
100	0x3d7c	1.371
101	0xc854	-8.66
102	0x4a57	12.68
103	0xbfd8	-1.961
104	0xc505	-5.02
105	0x4216	3.043
106	0xb84c	-0.537
107	0x390b	0.6304
108	0x39fa	0.747
109	0xaab5	-0.0524
110	0xb527	-0.322
111	0x380d	0.5063
112	0xc43a	-4.227
113	0x40ae	2.34
114	0x3cae	1.17
115	0xc592	-5.57
116	0x438f	3.78
117	0xc2a2	-3.316
118	0xa885	-0.0353
119	0xbcd6	-1.209
120	0x3ae4	0.8613
121	0xc26f	-3.217
122	0x43ee	3.965
123	0xbe4e	-1.576
124	0xbee1	-1.72
125	0xc80f	-8.12
126	0x3e39	1.556
127	0x454c	5.297
128	0xbfb1	-1.923
129	0x40de	2.434
130	0xaae2	-0.05377
131	0x3b0f	0.8823
132	0xc0ab	-2.334
133	0xc0d6	-2.418
134	0x3a26	0.7686
135	0x4cf2	19.78
136	0xb964	-0.674
137	0x38bc	0.592
138	0xb9cf	-0.726
139	0xc1d7	-2.92
140	0xc5b6	-5.71
141	0xb99b	-0.7007
142	0x3c2f	1.046
143	0x38c7	0.597
144	0xb903	-0.6265
145	0x4137	2.607
146	0xbf98	-1.898
147	0xb6d7	-0.4275
148	0x44f4	4.953
149	0xbbd7	-0.98
150	0xb43d	-0.265
151	0x4171	2.72
152	0xb4e2	-0.3052
153	0xbf1a	-1.775
154	0x40f5	2.479
155	0x3c79	1.118
156	0xc506	-5.023
157	0x42e1	3.44
158	0xc633	-6.2
159	0x3c07	1.007
160	0xc392	-3.785
161	0x3de3	1.472
162	0xc59c	-5.61
163	0xc04f	-2.154
164	0x40b1	2.346
165	0xc16b	-2.709
166	0xb812	-0.509
167	0x3c6b	1.1045
168	0x46d9	6.848
169	0x43cf	3.904
170	0x408b	2.271
171	0x409c	2.305
172	0xb32b	-0.224
173	0xbb20	-0.8906
174	0x449f	4.62
175	0x39e3	0.736
176	0x3005	0.1256
177	0xbe0f	-1.515
178	0x3d64	1.348
179	0x203b	0.00826
180	0x31cb	0.181
181	0x218c	0.01083
182	0xb0a8	-0.1455
183	0xb77a	-0.4673
184	0x3a37	0.777
185	0xba87	-0.816
186	0x47f7	7.965
187	0x2c03	0.0627
188	0x3e5f	1.593
189	0x417f	2.748
190	0xbc07	-1.007
191	0x3877	0.558
192	0xbe72	-1.611
193	0x438c	3.773
194	0x4549	5.285
195	0x3795	0.4739
196	0xc3bc	-3.867
197	0xc5ad	-5.676
198	0x31f6	0.1863
199	0x3e11	1.517
200	0x4574	5.453
201	0x3ec7	1.694
202	0xb652	-0.395
203	0x3438	0.2637
204	0xc1f4	-2.977
205	0x43e8	3.953
206	0xa4c0	-0.01855
207	0x4109	2.518
208	0xb30b	-0.2201
209	0xc1eb	-2.959
210	0x3aa1	0.8286
211	0xc845	-8.54
212	0x2cc2	0.07434
213	0xc31d	-3.557
214	0x4243	3.13
215	0xbe3a	-1.557
216	0xb1a0	-0.1758
217	0xc436	-4.21
218	0xbf5c	-1.84
219	0xb6c0	-0.4219
220	0x43d3	3.912
221	0x4462	4.383
222	0xb395	-0.2369
223	0x420e	3.027
224	0x44ba	4.727
225	0x3a75	0.807
226	0xb925	-0.643
227	0x4153	2.662
228	0x3f36	1.803
229	0xc585	-5.52
230	0x4237	3.107
231	0xc2a2	-3.316
232	0x2ec6	0.10583
233	0x46af	6.684
234	0xb365	-0.2311
235	0xc201	-3.002
236	0x4166	2.7
237	0x3d2a	1.291
238	0xb76d	-0.464
239	0xc52f	-5.184
240	0xc1d0	-2.906
241	0xc712	-7.07
242	0xba23	-0.767
243	0x3fb1	1.923
244	0xb6e9	-0.432
245	0xbc83	-1.128
246	0x40ab	2.334
247	0x4055	2.166
248	0x47ca	7.79
249	0xb406	-0.2515
250	0xb7b7	-0.4822
251	0x4310	3.531
252	0xc51a	-5.1
253	0x3c50	1.078
254	0xbfdd	-1.966
255	0x46b4	6.703

conv2d_4/Bias f2 [16]
0	0x40d0	2.406
1	0x4379	3.736
2	0xbe0e	-1.514
3	0xc84a	-8.58
4	0xc315	-3.541
5	0x3b33	0.9
6	0xc0de	-2.434
7	0x3f2f	1.796
8	0xc477	-4.465
9	0xc93a	-10.45
10	0xc3af	-3.842
11	0xc81b	-8.21
12	0xc7e4	-7.89
13	0x3d80	1.375
14	0xbeed	-1.731
15	0x3be8	0.9883

conv2d_5/Kernel f2 [72, 1, 1, 16]
0	0xac4b	-0.0671
1	0x310d	0.1578
2	0xa4cc	-0.01874
3	0x32a1	0.2072
4	0x2773	0.0291
5	0x2acf	0.0532
6	0x212b	0.01009
7	0x300e	0.1267
8	0xa73d	-0.02827
9	0x2c71	0.0694
10	0xb106	-0.157
11	0xb072	-0.1389
12	0x3205	0.1881
13	0x9fec	-0.007736
14	0x2e55	0.09894
15	0x3010	0.127
16	0x230e	0.01378
17	0xabb0	-0.06006
18	0xb06a	-0.138
19	0x9f84	-0.00734
20	0x2a6d	0.0502
21	0x2612	0.02371
22	0xa48c	-0.01776
23	0xad15	-0.0794
24	0xb13b	-0.1635
25	0x2ae3	0.0538
26	0xa95f	-0.04196
27	0x2c9c	0.072
28	0x26ff	0.02733
29	0xa0a3	-0.009056
30	0x2b29	0.05594
31	0x2de0	0.0918
32	0xa9d6	-0.0456
33	0x33a5	0.2389
34	0xad17	-0.0795
35	0x3422	0.2583
36	0xa25a	-0.012405
37	0x2c54	0.0676
38	0x91bf	-0.0007014
39	0xa56d	-0.0212
40	0xa5c5	-0.02254
41	0x3387	0.2352
42	0xad39	-0.0816
43	0xadda	-0.09143
44	0x335d	0.2301
45	0x2ce9	0.0767
46	0x2c0c	0.06323
47	0x2e52	0.09875
48	0x30e9	0.1534
49	0x345c	0.2725
50	0xae0d	-0.09454
51	0x3c45	1.067
52	0xb7c9	-0.4866
53	0xa8cf	-0.03757
54	0x2c1d	0.0643
55	0x3a4b	0.7866
56	0x2cd4	0.07544
57	0xb927	-0.644
58	0xb2ac	-0.2085
59	0xb586	-0.3452
60	0xaa81	-0.0508
61	0xb83e	-0.5303
62	0xb7d7	-0.49
63	0x287f	0.03513
64	0x2c15	0.0638
65	0xa8ed	-0.03848
66	0x3339	0.2257
67	0x359d	0.3508
68	0xb30e	-0.2205
69	0x2c7f	0.07025
70	0xa064	-0.008575
71	0x377d	0.468
72	0x2a5e	0.04974
73	0xb113	-0.1586
74	0xadb3	-0.08905
75	0xb0cc	-0.1499
76	0xad92	-0.08704
77	0xb1e7	-0.1844
78	0xb05d	-0.1364
79	0xb5f5	-0.3723
80	0x308e	0.1423
81	0x341f	0.2576
82	0x343c	0.2646
83	0x320d	0.1891
84	0x33f1	0.2482
85	0xae49	-0.0982
86	0xafda	-0.1227
87	0x2dfc	0.0935
88	0x3717	0.443
89	0x3400	0.25
90	0x37ca	0.4868
91	0x2b54	0.05725
92	0x2b0e	0.0551
93	0x3105	0.1569
94	0xb56b	-0.3386
95	0x38d8	0.6055
96	0x2d10	0.0791
97	0xb0b3	-0.1469
98	0x2c5d	0.0682
99	0x24f8	0.01941
100	0xaa25	-0.048
101	0x3426	0.2593
102	0xa98d	-0.04337
103	0x2239	0.01215
104	0x2864	0.0343
105	0x2a2b	0.0482
106	0x2cbf	0.07416
107	0x26f9	0.02724
108	0x9ae5	-0.003366
109	0x2af2	0.05426
110	0x20c3	0.0093
111	0x2cea	0.0768
112	0xb65f	-0.3982
113	0x26c6	0.02646
114	0x2e9f	0.10345
115	0x2b99	0.05936
116	0x2fa5	0.11945
117	0xa48d	-0.01778
118	0xb5c6	-0.3608
119	0xb493	-0.286
120	0x2d78	0.08545
121	0x2242	0.01222
122	0x2852	0.03375
123	0xa61b	-0.02385
124	0xaa69	-0.05008
125	0xb480	-0.2812
126	0xb56f	-0.3396
127	0x97d8	-0.001915
128	0x3443	0.2664
129	0xb5c3	-0.36
130	0xb901	-0.6255
131	0x30fe	0.156
132	0xb403	-0.2507
133	0x3189	0.173
134	0x2ad3	0.0533
135	0xb6ba	-0.4204
136	0xb453	-0.2703
137	0x3a55	0.7915
138	0xb8b2	-0.587
139	0xad65	-0.0843
140	0xb47a	-0.2798
141	0xae0e	-0.0946
142	0xacba	-0.07385
143	0x348f	0.285
144	0x300e	0.1267
145	0xa81d	-0.03214
146	0xa724	-0.0279
147	0xabf5	-0.06216
148	0xa356	-0.01433
149	0x3069	0.1378
150	0xa236	-0.01213
151	0x2ec6	0.10583
152	0x2778	0.02917
153	0x1fef	0.007748
154	0x9fd1	-0.007633
155	0x1d99	0.005466
156	0x28b5	0.03677
157	0x2f80	0.1172
158	0xaae5	-0.05386
159	0x2af3	0.0543
160	0x2540	0.02051
161	0x333a	0.2258
162	0xac02	-0.0626
163	0x2ce5	0.0765
164	0x2688	0.02551
165	0xb009	-0.1261
166	0xabbb	-0.0604
167	0x2e82	0.1017
168	0x2f38	0.1128
169	0x25a4	0.02203
170	0x29c6	0.0451
171	0xac04	-0.06274
172	0x2f5f	0.1152
173	0x2bc3	0.06064
174	0xa085	-0.00883
175	0x309d	0.1442
176	0xa503	-0.01958
177	0x27d9	0.03065
178	0x3030	0.1309
179	0x2678	0.02527
180	0xaa75	-0.05045
181	0xa0c7	-0.00933
182	0x26c6	0.02646
183	0x2d10	0.0791
184	0x3044	0.1333
185	0xa6a7	-0.02599
186	0x29b6	0.04462
187	0xac75	-0.06964
188	0xa8ef	-0.03854
189	0x26e0	0.02686
190	0xaa51	-0.04935
191	0xab5c	-0.0575
192	0xb5b8	-0.3574
193	0x2ee2	0.10754
194	0x31b4	0.1782
195	0x317c	0.1714
196	0xb1cc	-0.1812
197	0xb556	-0.3335
198	0xac92	-0.0714
199	0xb531	-0.3245
200	0x30cc	0.1499
201	0x3252	0.1975
202	0xa7a1	-0.0298
203	0x32aa	0.2083
204	0x9d6e	-0.005302
205	0xb4f9	-0.3108
206	0x3035	0.1315
207	0x2af3	0.0543
208	0x33a7	0.2391
209	0xb4c1	-0.297
210	0x2e41	0.0977
211	0x2583	0.02153
212	0x38de	0.6084
213	0xb236	-0.1941
214	0x2fcf	0.122
215	0x3a64	0.799
216	0xa820	-0.03223
217	0x38ca	0.5986
218	0x354f	0.3318
219	0x42e3	3.443
220	0xba1f	-0.765
221	0xb8d9	-0.606
222	0xafa4	-0.1194
223	0xb00e	-0.1267
224	0xae6e	-0.10046
225	0x2e2c	0.09644
226	0xb0b2	-0.1467
227	0xa9c5	-0.04507
228	0x19d2	0.002842
229	0x2a72	0.05035
230	0xa0be	-0.00926
231	0x2e5c	0.09937
232	0xb207	-0.1884
233	0xae74	-0.1008
234	0xa85a	-0.034
235	0x224a	0.01228
236	0x2550	0.02075
237	0x2ef6	0.10876
238	0xa752	-0.0286
239	0xaec7	-0.1059
240	0xad00	-0.0781
241	0xab65	-0.05777
242	0x2c3a	0.06604
243	0x279d	0.02974
244	0x2f2b	0.112
245	0x2422	0.01614
246	0x29ef	0.04636
247	0x2ac5	0.0529
248	0x376d	0.464
249	0xae52	-0.09875
250	0x2209	0.01179
251	0x20ea	0.0096
252	0x358f	0.3474
253	0x2d97	0.08734
254	0x2de9	0.09235
255	0xb3f6	-0.2488

conv2d_5/Bias f2 [72]
0	0x43a3	3.818
1	0x438b	3.771
2	0x4647	6.277
3	0xc719	-7.098
4	0xbc01	-1.001
5	0x46cf	6.81
6	0x4197	2.795
7	0x3c3e	1.061
8	0x4788	7.53
9	0x4105	2.51
10	0x43b9	3.861
11	0x3fe9	1.978
12	0x45e7	5.902
13	0x4f8c	30.19
14	0x3fb3	1.925
15	0x43e7	3.951
16	0xc6c5	-6.77
17	0x4347	3.639
18	0x429d	3.307
19	0x41c0	2.875
20	0x40cb	2.396
21	0x423a	3.113
22	0xc801	-8.01
23	0x3d42	1.314
24	0x4247	3.139
25	0xb0bb	-0.1478
26	0xb41c	-0.2568
27	0x45d8	5.844
28	0xa708	-0.02747
29	0x4019	2.049
30	0x4151	2.658
31	0x3fea	1.979
32	0x42af	3.342
33	0x40b9	2.361
34	0xb5aa	-0.354
35	0xcc6e	-17.72
36	0x432a	3.582
37	0x4025	2.072
38	0x4195	2.791
39	0x4971	10.88
40	0x4581	5.504
41	0x4050	2.156
42	0x4080	2.25
43	0x4243	3.13
44	0x3a8c	0.8184
45	0x4081	2.252
46	0xbf3e	-1.811
47	0x40e0	2.438
48	0x4028	2.078
49	0x4234	3.102
50	0x41e0	2.938
51	0x48b0	9.375
52	0xbf16	-1.771
53	0x457c	5.484
54	0x3ca7	1.163
55	0xc5b1	-5.69
56	0xbcf9	-1.243
57	0x41db	2.928
58	0x43e3	3.943
59	0x45ec	5.92
60	0x4572	5.445
61	0xb1af	-0.1776
62	0x4177	2.732
63	0xcc2a	-16.66
64	0x4151	2.658
65	0xb711	-0.4417
66	0x3f2d	1.794
67	0xb4b1	-0.2932
68	0x4066	2.2
69	0xc8ec	-9.84
70	0x4012	2.035
71	0xc832	-8.39

depthwise_conv2d_1/Kernel f2 [1, 3, 3, 72]
0	0x3d4d	1.325
1	0xb712	-0.442
2	0xb8ef	-0.6167
3	0xb70d	-0.4407
4	0xb863	-0.5483
5	0xaf9e	-0.119
6	0xb468	-0.2754
7	0xa36b	-0.01449
8	0x28ae	0.03656
9	0xc036	-2.105
10	0x3b0c	0.881
11	0xbcaf	-1.171
12	0xae77	-0.101
13	0xab46	-0.05682
14	0xbcd9	-1.212
15	0xb90d	-0.6313
16	0x3047	0.1337
17	0x3929	0.645
18	0xb6e0	-0.4297
19	0xbd9e	-1.404
20	0xbc2f	-1.046
21	0xbd80	-1.375
22	0xb374	-0.2329
23	0xad00	-0.0781
24	0xbe44	-1.566
25	0xbdd5	-1.458
26	0xafee	-0.1239
27	0xa6db	-0.02678
28	0xbcc6	-1.193
29	0xbc42	-1.064
30	0xc204	-3.008
31	0xb04b	-0.1342
32	0xbf38	-1.805
33	0xbcd3	-1.206
34	0xbcc4	-1.191
35	0xb413	-0.2546
36	0xc076	-2.23
37	0x3db9	1.431
38	0x430a	3.52
39	0xb4de	-0.3042
40	0xb00b	-0.1263
41	0xc203	-3.006
42	0xbe0f	-1.515
43	0xbd03	-1.253
44	0x301e	0.1287
45	0x31c2	0.1799
46	0x3807	0.5034
47	0x4056	2.168
48	0xba70	-0.8047
49	0xbc4a	-1.072
50	0xae08	-0.09424
51	0xb735	-0.4504
52	0xae81	-0.1016
53	0x339d	0.2379
54	0xb42f	-0.2615
55	0xa8c1	-0.03714
56	0x31a1	0.1759
57	0x2e46	0.098
58	0xb9c5	-0.721
59	0x3242	0.1956
60	0x39e6	0.7373
61	0xb4fb	-0.3113
62	0xb4bf	-0.2966
63	0xadf3	-0.09296
64	0x340c	0.253
65	0x2cc0	0.0742
66	0x34dd	0.304
67	0xb1bf	-0.1796
68	0xb062	-0.137
69	0x3a9d	0.8267
70	0xbad2	-0.8525
71	0xabd9	-0.0613
72	0xc0cf	-2.404
73	0x4143	2.63
74	0xba04	-0.752
75	0xb7d9	-0.4905
76	0xb199	-0.1749
77	0xb1d4	-0.1821
78	0x3f1d	1.778
79	0xb520	-0.3203
80	0x2c78	0.0698
81	0x3556	0.3335
82	0xbf18	-1.773
83	0x3bc0	0.9688
84	0xaa38	-0.04858
85	0xb06b	-0.1381
86	0xab69	-0.0579
87	0x353a	0.3267
88	0x3546	0.3296
89	0xbc68	-1.102
90	0xbc48	-1.07
91	0xc272	-3.223
92	0xc1b1	-2.846
93	0x3f0a	1.76
94	0xb493	-0.286
95	0xb10a	-0.1575
96	0xb200	-0.1875
97	0xb8e2	-0.6104
98	0xb1c4	-0.1802
99	0xacbe	-0.0741
100	0xbe79	-1.618
101	0x3bd4	0.9785
102	0xb7fd	-0.4993
103	0xb8b8	-0.59
104	0xc0c0	-2.375
105	0xc281	-3.252
106	0x3db7	1.429
107	0xb60b	-0.3777
108	0xb867	-0.5503
109	0xc2e3	-3.443
110	0x3cde	1.217
111	0xb40a	-0.2524
112	0x3850	0.539
113	0xbea6	-1.662
114	0x35b7	0.3572
115	0xadc0	-0.08984
116	0x2f07	0.1098
117	0xbe75	-1.614
118	0x3964	0.674
119	0xc0b9	-2.361
120	0x3d05	1.255
121	0x3e4c	1.574
122	0xb71a	-0.4438
123	0xb536	-0.3257
124	0xb050	-0.1348
125	0x3ab5	0.8384
126	0xb547	-0.3298
127	0xb00d	-0.1266
128	0x34c7	0.2986
129	0x2ffd	0.1248
130	0xbbdd	-0.983
131	0x32af	0.2089
132	0xbcd4	-1.207
133	0xb883	-0.564
134	0x3cc9	1.196
135	0xa8b1	-0.03665
136	0x3f14	1.77
137	0x2fc7	0.1215
138	0x3d47	1.319
139	0xb7d0	-0.4883
140	0xb46c	-0.2764
141	0x3b17	0.886
142	0xc10b	-2.521
143	0xac07	-0.0629
144	0x3c39	1.056
145	0xc010	-2.031
146	0xaef7	-0.1088
147	0xaea5	-0.1038
148	0x3854	0.541
149	0xac6a	-0.069
150	0x3eb2	1.674
151	0xaf30	-0.1123
152	0x2db1	0.0889
153	0x3f3e	1.811
154	0x39da	0.7314
155	0x345a	0.272
156	0xafd4	-0.1223
157	0xac85	-0.0706
158	0x3d65	1.349
159	0xa234	-0.012115
160	0x3107	0.1571
161	0x37fb	0.4988
162	0x3a6f	0.804
163	0x31b0	0.1777
164	0xb645	-0.3918
165	0xb71f	-0.445
166	0xb087	-0.1415
167	0x1c86	0.004417
168	0x402e	2.09
169	0xb114	-0.1587
170	0x2e3a	0.0973
171	0xa9c8	-0.04517
172	0xba35	-0.776
173	0x2c56	0.06775
174	0xaefe	-0.10925
175	0x3095	0.1432
176	0xbbde	-0.9834
177	0xb756	-0.4585
178	0xb686	-0.4077
179	0xabc3	-0.06064
180	0x3a77	0.808
181	0x3fa7	1.913
182	0x34f0	0.3086
183	0xaf42	-0.1134
184	0x3cf8	1.242
185	0x3047	0.1337
186	0x3cde	1.217
187	0x3da5	1.411
188	0xa5a4	-0.02203
189	0x3281	0.2032
190	0x2acd	0.05313
191	0x2a69	0.05008
192	0x2b71	0.05814
193	0xb8fe	-0.624
194	0xb6b7	-0.4197
195	0x22b0	0.01306
196	0xa9ff	-0.04684
197	0xbc02	-1.002
198	0x2edf	0.10736
199	0xb155	-0.1666
200	0xad4a	-0.08264
201	0x1d32	0.005074
202	0xb646	-0.392
203	0x28d8	0.03784
204	0xb9a1	-0.7036
205	0xad5a	-0.0836
206	0x3937	0.652
207	0xa461	-0.0171
208	0x3bd1	0.977
209	0x2c6d	0.06915
210	0x38d9	0.606
211	0xb7fb	-0.4988
212	0x2e6d	0.1004
213	0xa594	-0.02179
214	0xb84d	-0.5376
215	0x1f8d	0.007374
216	0xbc9e	-1.154
217	0x3913	0.6343
218	0x3c5d	1.091
219	0xb817	-0.511
220	0xba44	-0.783
221	0xae81	-0.1016
222	0xbe28	-1.539
223	0xb01f	-0.1288
224	0x331d	0.2223
225	0xc234	-3.102
226	0x3f18	1.773
227	0x433c	3.617
228	0xaf2a	-0.11194
229	0xb05d	-0.1364
230	0xbfb5	-1.927
231	0x3501	0.3127
232	0x37b7	0.4822
233	0x3cfd	1.247
234	0xb87a	-0.5596
235	0x3c88	1.133
236	0x3c76	1.115
237	0x3fc2	1.939
238	0xb546	-0.3296
239	0xaf08	-0.10986
240	0xc174	-2.727
241	0xbb18	-0.8867
242	0xb04a	-0.134
243	0xa825	-0.03238
244	0x3c91	1.142
245	0x3b24	0.8926
246	0xb892	-0.5713
247	0xb84c	-0.537
248	0x33cd	0.2438
249	0x3e3d	1.56
250	0x36d8	0.4277
251	0xb369	-0.2316
252	0x39d3	0.728
253	0x416e	2.715
254	0x3b02	0.876
255	0xb689	-0.4084

depthwise_conv2d_1/Bias f2 [72]
0	0xb179	-0.171
1	0xb4f4	-0.3096
2	0x2c7b	0.07
3	0x424a	3.145
4	0x352e	0.3237
5	0x42c3	3.38
6	0xad5f	-0.0839
7	0x4396	3.793
8	0x316b	0.1693
9	0x370c	0.4404
10	0xb7ef	-0.4958
11	0xaa03	-0.04697
12	0x41cb	2.896
13	0x4467	4.402
14	0x342f	0.2615
15	0x2c63	0.06854
16	0x1c7b	0.004375
17	0xb937	-0.652
18	0x3911	0.6333
19	0xb2a5	-0.2076
20	0xaf9a	-0.1188
21	0x2e99	0.1031
22	0x477b	7.48
23	0x454a	5.29
24	0x2718	0.02771
25	0xb8de	-0.6084
26	0x4311	3.533
27	0x4295	3.291
28	0x3450	0.2695
29	0xa782	-0.02933
30	0xb95b	-0.6694
31	0x4246	3.137
32	0x2219	0.01191
33	0x9ca8	-0.004547
34	0xae74	-0.1008
35	0x41e5	2.947
36	0xb709	-0.4397
37	0xaa32	-0.0484
38	0x258c	0.02167
39	0x451b	5.105
40	0x3e7b	1.62
41	0xb76d	-0.464
42	0x2c9d	0.0721
43	0xae41	-0.0977
44	0x3bfd	0.9985
45	0x33a2	0.2385
46	0x36eb	0.4324
47	0xaae2	-0.05377
48	0xb97e	-0.6865
49	0xb333	-0.225
50	0x45c4	5.766
51	0x4646	6.273
52	0x41ab	2.834
53	0xac48	-0.0669
54	0x4548	5.28
55	0x43b1	3.846
56	0xbce7	-1.226
57	0x3268	0.2002
58	0x31d4	0.1821
59	0x35d3	0.364
60	0x3222	0.1917
61	0x467e	6.492
62	0xad0a	-0.07874
63	0x404d	2.15
64	0xb848	-0.535
65	0xb109	-0.1573
66	0xb329	-0.2238
67	0x4901	10.01
68	0x4228	3.078
69	0x3257	0.1981
70	0x290a	0.03937
71	0x4588	5.53

conv2d_6/Kernel f2 [24, 1, 1, 72]
0	0xb11c	-0.1597
1	0xb1c0	-0.1797
2	0xad5c	-0.08374
3	0xb584	-0.3447
4	0x2fa5	0.11945
5	0xaf00	-0.1094
6	0x3102	0.1565
7	0xb343	-0.2269
8	0x1a25	0.003
9	0xb06b	-0.1381
10	0x2c78	0.0698
11	0xb1e6	-0.1843
12	0xab01	-0.05472
13	0x308b	0.142
14	0x2839	0.033
15	0xa51a	-0.01993
16	0xae65	-0.0999
17	0x308f	0.1425
18	0x2898	0.0359
19	0x2c54	0.0676
20	0x2f75	0.1165
21	0xb1b1	-0.1779
22	0xad7f	-0.0859
23	0xb047	-0.1337
24	0x9c51	-0.004215
25	0xb008	-0.126
26	0x2e85	0.10187
27	0x2d2c	0.0808
28	0xa6b7	-0.02623
29	0x269c	0.02582
30	0xa551	-0.02077
31	0x28c0	0.0371
32	0xb179	-0.171
33	0xb01b	-0.1283
34	0xafc0	-0.1211
35	0x3471	0.2776
36	0xadff	-0.0937
37	0x3173	0.1703
38	0xaffe	-0.1249
39	0x9a5b	-0.003103
40	0xafe0	-0.12305
41	0xadff	-0.0937
42	0xa129	-0.01008
43	0xa7e3	-0.0308
44	0xa0a2	-0.00905
45	0x2732	0.0281
46	0xac61	-0.0684
47	0xb157	-0.1669
48	0x2197	0.01092
49	0x2a42	0.0489
50	0xac49	-0.06696
51	0x28f0	0.03857
52	0xa544	-0.02057
53	0xaf47	-0.1137
54	0x2ed7	0.1069
55	0xb1dd	-0.1832
56	0xae60	-0.0996
57	0xaaf5	-0.05435
58	0xae5f	-0.09955
59	0x2f74	0.11646
60	0x3166	0.1687
61	0x3225	0.192
62	0xb1df	-0.1835
63	0x281d	0.03214
64	0x9d4c	-0.005173
65	0x2c79	0.0699
66	0xb09b	-0.1439
67	0xb392	-0.2366
68	0x1d7c	0.005356
69	0xaf57	-0.1147
70	0xad9b	-0.0876
71	0x275d	0.02876
72	0x2cac	0.073
73	0xa873	-0.03476
74	0x327d	0.2028
75	0x295f	0.04196
76	0x2f43	0.11346
77	0xaef7	-0.1088
78	0x2e0a	0.09436
79	0xaca9	-0.0728
80	0xad4a	-0.08264
81	0x30c1	0.1486
82	0xaf75	-0.1165
83	0xa4ab	-0.01823
84	0xb212	-0.1897
85	0xb48a	-0.2837
86	0x311c	0.1597
87	0x2ebb	0.10516
88	0x300d	0.1266
89	0xb220	-0.1914
90	0x2ea3	0.1037
91	0xac96	-0.07166
92	0x2817	0.03195
93	0x2c07	0.0629
94	0x2726	0.02792
95	0x3358	0.2295
96	0x302f	0.1307
97	0xa329	-0.013985
98	0x28e9	0.03836
99	0x368f	0.41
100	0x3261	0.1993
101	0x8c73	-0.0002716
102	0x9c98	-0.004486
103	0xab3f	-0.0566
104	0xa940	-0.04102
105	0x2de5	0.0921
106	0xa121	-0.01002
107	0x3085	0.1412
108	0x2c0d	0.0633
109	0xac03	-0.0627
110	0x1e56	0.006187
111	0xb6c6	-0.4233
112	0x3142	0.1643
113	0x28e6	0.03827
114	0x31d1	0.1818
115	0x2f35	0.1126
116	0xb3a4	-0.2388
117	0x3268	0.2002
118	0xb135	-0.1627
119	0x2d06	0.0785
120	0x2cce	0.0751
121	0xb173	-0.1703
122	0x2438	0.01648
123	0xb293	-0.2054
124	0x28a7	0.03635
125	0x330f	0.2206
126	0xb3f8	-0.249
127	0x3174	0.1704
128	0xb292	-0.2053
129	0xb19c	-0.1753
130	0x31fa	0.1868
131	0xb0e2	-0.1526
132	0x2980	0.04297
133	0x2d7a	0.0856
134	0x2858	0.03394
135	0xaa05	-0.04703
136	0x348b	0.284
137	0xae9f	-0.10345
138	0x27c0	0.03027
139	0xaec5	-0.1058
140	0xb3c9	-0.2433
141	0x2f9a	0.1188
142	0xad4b	-0.0827
143	0x3434	0.2627
144	0xb1cb	-0.181
145	0xaf4d	-0.1141
146	0xac43	-0.0666
147	0x2078	0.00873
148	0x9f67	-0.00723
149	0x30d6	0.1511
150	0xb221	-0.1915
151	0x2e47	0.0981
152	0xafc6	-0.12146
153	0xa53b	-0.02043
154	0x2e21	0.09576
155	0xade4	-0.09204
156	0xae3c	-0.0974
157	0xab8e	-0.05902
158	0xab96	-0.05927
159	0xa7a7	-0.02989
160	0x28f6	0.03876
161	0x2ee2	0.10754
162	0x27bc	0.03021
163	0x2db0	0.08887
164	0xae68	-0.1001
165	0xb2e9	-0.216
166	0xaa39	-0.0486
167	0xb2c6	-0.2117
168	0x9cb2	-0.004585
169	0xa6a4	-0.02594
170	0xb576	-0.3413
171	0x2c95	0.0716
172	0xb036	-0.1316
173	0x29c1	0.04495
174	0x2311	0.0138
175	0xac1e	-0.06433
176	0x2f7a	0.1168
177	0x32b1	0.2091
178	0xa304	-0.0137
179	0xa8b8	-0.03687
180	0x232c	0.01401
181	0x2fb6	0.1205
182	0x2b01	0.05472
183	0xad79	-0.0855
184	0xafe5	-0.12335
185	0x35a0	0.3516
186	0xb348	-0.2275
187	0xa8e6	-0.03827
188	0x2bd2	0.0611
189	0x2476	0.01743
190	0x3120	0.1602
191	0xb230	-0.1934
192	0x3415	0.2551
193	0x29ff	0.04684
194	0xb0f4	-0.1548
195	0xb405	-0.2512
196	0x305f	0.1366
197	0xb173	-0.1703
198	0x2a11	0.0474
199	0xaf4e	-0.11414
200	0xa924	-0.04016
201	0x31f7	0.1864
202	0xadf9	-0.0933
203	0x3003	0.1254
204	0xb0de	-0.1521
205	0xae4b	-0.0983
206	0xaec0	-0.10547
207	0xa959	-0.04178
208	0xacf7	-0.0776
209	0x3476	0.2788
210	0x30fe	0.156
211	0x2ca4	0.0725
212	0xb174	-0.1704
213	0xa6e3	-0.0269
214	0xa7a5	-0.02986
215	0x2fe3	0.1232
216	0x3575	0.341
217	0x3489	0.2834
218	0xb46c	-0.2764
219	0xb1af	-0.1776
220	0x2cc9	0.07477
221	0xb020	-0.1289
222	0xac51	-0.06744
223	0xa2c1	-0.01319
224	0xac92	-0.0714
225	0x2daf	0.0888
226	0xacd2	-0.0753
227	0x3475	0.2786
228	0xb052	-0.135
229	0x327d	0.2028
230	0xb0cb	-0.1498
231	0x2e09	0.0943
232	0xb1a7	-0.1766
233	0xa216	-0.01189
234	0xb08e	-0.1423
235	0xa0cf	-0.00939
236	0xb2ba	-0.2102
237	0x352b	0.323
238	0xb2cd	-0.2125
239	0xb077	-0.1395
240	0x2d43	0.0822
241	0x2d75	0.08527
242	0x2cab	0.07294
243	0xa3e3	-0.0154
244	0xb5b4	-0.3564
245	0xac5f	-0.0683
246	0xb338	-0.2256
247	0x2b5a	0.05743
248	0xa44f	-0.01683
249	0xaa65	-0.04996
250	0x35c5	0.3606
251	0xb1c0	-0.1797
252	0x32d6	0.2136
253	0x2255	0.01237
254	0xb0b6	-0.1472
255	0x2141	0.01026

conv2d_6/Bias f2 [24]
0	0x4187	2.764
1	0x3a12	0.759
2	0x4404	4.016
3	0xbbc8	-0.9727
4	0x40be	2.371
5	0x4462	4.383
6	0xb9a0	-0.703
7	0x4583	5.51
8	0xc49d	-4.613
9	0x426d	3.213
10	0x4461	4.38
11	0x3d20	1.281
12	0x43a7	3.826
13	0xc29d	-3.307
14	0xae9f	-0.10345
15	0x3fce	1.951
16	0x39b8	0.715
17	0xc4ed	-4.926
18	0xc1d1	-2.908
19	0xb64d	-0.3938
20	0xc1f2	-2.973
21	0xb448	-0.2676
22	0x421f	3.06
23	0xbdf5	-1.489

conv2d_7/Kernel f2 [88, 1, 1, 24]
0	0x3249	0.1964
1	0x3422	0.2583
2	0xba15	-0.7603
3	0xb378	-0.2334
4	0xb3ff	-0.2499
5	0xb83e	-0.5303
6	0x3b24	0.8926
7	0xb929	-0.645
8	0xb04c	-0.1343
9	0xb506	-0.314
10	0xb14a	-0.1653
11	0xbe3b	-1.558
12	0xba33	-0.775
13	0x37a1	0.4768
14	0xb225	-0.192
15	0x2cc9	0.07477
16	0x38d3	0.603
17	0x33bb	0.2416
18	0x3955	0.6665
19	0x3643	0.3914
20	0xb560	-0.336
21	0xb629	-0.385
22	0xb00a	-0.1262
23	0xb7fd	-0.4993
24	0x9306	-0.0008574
25	0xa267	-0.012505
26	0x2e3e	0.09753
27	0xafee	-0.1239
28	0xb0f1	-0.1544
29	0x2993	0.04355
30	0x2cc6	0.0746
31	0x290a	0.03937
32	0xb6b4	-0.419
33	0x38e3	0.611
34	0x2d46	0.0824
35	0xb1dc	-0.1831
36	0x2455	0.01692
37	0x27f5	0.03108
38	0x32fb	0.2181
39	0x2ea1	0.1036
40	0x3068	0.1377
41	0xb0bd	-0.1481
42	0xad81	-0.086
43	0xaa7d	-0.0507
44	0xac38	-0.0659
45	0x20a7	0.00909
46	0xb397	-0.2372
47	0xa715	-0.02766
48	0x3b87	0.941
49	0xb9bb	-0.7163
50	0x3493	0.286
51	0x30b4	0.147
52	0xba13	-0.7593
53	0x337b	0.2338
54	0xb31c	-0.2222
55	0xbd08	-1.258
56	0xbebc	-1.684
57	0x37f2	0.4966
58	0x3669	0.4006
59	0xb8c6	-0.5967
60	0xb93b	-0.654
61	0x3f93	1.894
62	0x38d1	0.602
63	0x3cf9	1.243
64	0x3806	0.503
65	0xb9af	-0.7104
66	0x3ab8	0.84
67	0xb4e2	-0.3052
68	0xb6b3	-0.4187
69	0x3ab7	0.8394
70	0xbb3d	-0.905
71	0xa701	-0.02736
72	0x3174	0.1704
73	0xacf8	-0.07764
74	0x24c5	0.01863
75	0x2b40	0.05664
76	0x2fa5	0.11945
77	0xaf35	-0.1126
78	0x31ef	0.1854
79	0xafd2	-0.1222
80	0x2a07	0.0471
81	0xb87e	-0.5615
82	0x2763	0.02885
83	0x3002	0.1252
84	0x253c	0.02045
85	0xad91	-0.087
86	0xb594	-0.3486
87	0xb121	-0.1603
88	0x32ac	0.2085
89	0xa0ad	-0.00913
90	0x1fc2	0.007576
91	0x2c49	0.06696
92	0x3025	0.1295
93	0xa0ea	-0.0096
94	0x2531	0.02028
95	0x3489	0.2834
96	0xa754	-0.02863
97	0x2d06	0.0785
98	0x3200	0.1875
99	0x29f8	0.04663
100	0x2d83	0.0861
101	0xa904	-0.03918
102	0xa21d	-0.01194
103	0x300a	0.1262
104	0x2c96	0.07166
105	0x31aa	0.177
106	0xaf60	-0.11523
107	0xa7a7	-0.02989
108	0x2807	0.03146
109	0x3001	0.1251
110	0x31c7	0.1805
111	0x2888	0.0354
112	0xb11f	-0.16
113	0x30da	0.1516
114	0x209b	0.008995
115	0x2e1b	0.0954
116	0x2c14	0.0637
117	0x2147	0.01031
118	0x3085	0.1412
119	0xa4ea	-0.0192
120	0x3b3e	0.9053
121	0xb42d	-0.261
122	0x3842	0.532
123	0x32ea	0.2161
124	0xb6e7	-0.4314
125	0x3cf1	1.235
126	0x2ea2	0.10364
127	0x3beb	0.9897
128	0xb49c	-0.288
129	0x344c	0.2686
130	0xa200	-0.01172
131	0x3ba9	0.9575
132	0x2b2d	0.05606
133	0xb36e	-0.2322
134	0xb12a	-0.1614
135	0x3157	0.1669
136	0xb971	-0.68
137	0xb80e	-0.507
138	0xb366	-0.2312
139	0xa828	-0.03247
140	0xb565	-0.3372
141	0x3067	0.1376
142	0xb760	-0.461
143	0xb32b	-0.224
144	0x348d	0.2844
145	0xb11c	-0.1597
146	0xa8c5	-0.03726
147	0x31ac	0.1772
148	0x327f	0.203
149	0xb411	-0.2542
150	0xb256	-0.198
151	0x2e29	0.09625
152	0x369e	0.4136
153	0xb578	-0.3418
154	0x3085	0.1412
155	0x2dda	0.09143
156	0x2e8f	0.1025
157	0xaca8	-0.07275
158	0xb0e2	-0.1526
159	0x2acf	0.0532
160	0x31f4	0.186
161	0xaff1	-0.1241
162	0x315a	0.1672
163	0xaa11	-0.0474
164	0xb0ba	-0.1477
165	0xafec	-0.1238
166	0x28ce	0.03754
167	0xaaa5	-0.0519
168	0x2db9	0.0894
169	0x2a49	0.0491
170	0x2f7a	0.1168
171	0xb752	-0.4575
172	0xb2e6	-0.2156
173	0x2cef	0.0771
174	0x2b50	0.05713
175	0xac7e	-0.0702
176	0x3220	0.1914
177	0xafcb	-0.12177
178	0x341f	0.2576
179	0xb029	-0.13
180	0xace8	-0.07666
181	0x27b6	0.03012
182	0xabec	-0.0619
183	0xa014	-0.007965
184	0x3380	0.2344
185	0xb72c	-0.4482
186	0xb64c	-0.3936
187	0x9fb9	-0.00754
188	0xb5da	-0.3657
189	0x2aef	0.05417
190	0xb432	-0.2622
191	0xb0a9	-0.1456
192	0x302d	0.1305
193	0xafc8	-0.1216
194	0x317b	0.1713
195	0x3075	0.1393
196	0x32a5	0.2076
197	0x33b7	0.2411
198	0x2cbf	0.07416
199	0xa1d5	-0.01139
200	0x2453	0.01689
201	0xb12a	-0.1614
202	0xa135	-0.01017
203	0xa850	-0.0337
204	0xb7e7	-0.494
205	0x2942	0.04108
206	0x3081	0.1407
207	0x181e	0.00201
208	0xa99d	-0.04385
209	0xad62	-0.0841
210	0x2ca6	0.07263
211	0x2e40	0.09766
212	0x1af6	0.003399
213	0xad4d	-0.0828
214	0x27b8	0.03015
215	0x2edb	0.1071
216	0xa1b4	-0.01114
217	0x2ec2	0.1056
218	0xb05e	-0.1365
219	0x2995	0.0436
220	0xb4fa	-0.311
221	0xb281	-0.2032
222	0xb37c	-0.2339
223	0xa869	-0.03445
224	0xaefc	-0.10913
225	0x3317	0.2216
226	0xa985	-0.04312
227	0x337d	0.234
228	0x3588	0.3457
229	0x2fa3	0.1193
230	0xa628	-0.02405
231	0xaf6e	-0.1161
232	0x2c77	0.06976
233	0xb0f3	-0.1547
234	0xac69	-0.0689
235	0x2a9e	0.0517
236	0xb43c	-0.2646
237	0x294e	0.04144
238	0x3258	0.1982
239	0x308d	0.1422
240	0x33a9	0.2394
241	0x3051	0.1349
242	0x2cd5	0.0755
243	0x2fd9	0.1226
244	0xace1	-0.07623
245	0xb0e8	-0.1533
246	0x3378	0.2334
247	0xafd3	-0.12225
248	0xa972	-0.04254
249	0xae52	-0.09875
250	0xb0f9	-0.1554
251	0x2e9f	0.10345
252	0x186e	0.002163
253	0xb362	-0.2307
254	0x3071	0.1388
255	0xaeb8	-0.105

conv2d_7/Bias f2 [88]
0	0xb7d6	-0.4897
1	0x3d12	1.268
2	0x43a5	3.822
3	0x3f80	1.875
4	0x3e89	1.634
5	0x343e	0.2651
6	0x3a5f	0.7964
7	0x3a58	0.793
8	0x41bb	2.865
9	0x4077	2.232
10	0x40c3	2.38
11	0x41f3	2.975
12	0x3f50	1.828
13	0x3f7b	1.87
14	0x4044	2.133
15	0x4075	2.229
16	0x3ba8	0.957
17	0x40cb	2.396
18	0x4006	2.012
19	0x3b1f	0.89
20	0x3ec4	1.691
21	0xb89e	-0.577
22	0x40cd	2.4
23	0x40a8	2.328
24	0x400f	2.03
25	0x3811	0.5083
26	0xbbd5	-0.979
27	0x403e	2.121
28	0xb017	-0.1278
29	0x3e6a	1.604
30	0x3fd2	1.955
31	0xbcc2	-1.189
32	0x4046	2.137
33	0xb6ee	-0.433
34	0x3e3f	1.562
35	0xbafd	-0.8735
36	0x3e25	1.536
37	0x2580	0.02148
38	0x4036	2.105
39	0x3d97	1.397
40	0x3c3b	1.058
41	0x4043	2.13
42	0x4529	5.16
43	0x3f3a	1.807
44	0x2508	0.01965
45	0x3b4c	0.912
46	0x40a7	2.326
47	0x41dd	2.932
48	0x40f1	2.47
49	0x4035	2.104
50	0x3d47	1.319
51	0x3c11	1.017
52	0xbc06	-1.006
53	0x3d88	1.383
54	0x4143	2.63
55	0x4497	4.59
56	0xbc9a	-1.15
57	0x4034	2.102
58	0x41f7	2.982
59	0xb92a	-0.6455
60	0x357e	0.3433
61	0x3db0	1.422
62	0x4206	3.012
63	0x3e72	1.611
64	0xaf66	-0.1156
65	0x3b9b	0.9507
66	0x3d3b	1.308
67	0x3f21	1.782
68	0xbcae	-1.17
69	0x2f2f	0.11224
70	0x3e9b	1.651
71	0x3f65	1.849
72	0x3ebc	1.684
73	0xbc1f	-1.03
74	0x380f	0.5073
75	0x3d1f	1.28
76	0x405e	2.184
77	0x4156	2.668
78	0x411a	2.55
79	0x404b	2.146
80	0x3dbd	1.435
81	0x423f	3.123
82	0x3ee1	1.72
83	0x3b5b	0.9194
84	0x3fe4	1.973
85	0x415f	2.686
86	0x3ee4	1.723
87	0xb896	-0.573

depthwise_conv2d_2/Kernel f2 [1, 3, 3, 88]
0	0xb677	-0.404
1	0x35da	0.3657
2	0xadd7	-0.09125
3	0xb139	-0.1632
4	0xb830	-0.5234
5	0xb4ab	-0.2917
6	0xb214	-0.19
7	0x2cc3	0.0744
8	0x3449	0.2678
9	0xb606	-0.3765
10	0x390c	0.631
11	0x2e75	0.1009
12	0xb666	-0.4
13	0x386f	0.554
14	0xbbba	-0.966
15	0xb1c4	-0.1802
16	0xb984	-0.6895
17	0x3649	0.3928
18	0x3981	0.688
19	0xb6fd	-0.4368
20	0x2709	0.02748
21	0xaede	-0.1073
22	0x3282	0.2034
23	0x3490	0.2852
24	0x3670	0.4023
25	0x3240	0.1953
26	0xae00	-0.09375
27	0x3731	0.4495
28	0xb413	-0.2546
29	0xb829	-0.52
30	0x288e	0.03558
31	0xae09	-0.0943
32	0x3d7d	1.372
33	0xb038	-0.1318
34	0xbcbf	-1.187
35	0x2f2b	0.112
36	0x3b6c	0.9277
37	0xa330	-0.01404
38	0x2882	0.03522
39	0xafd6	-0.12244
40	0x3439	0.264
41	0xa9a9	-0.04422
42	0x2891	0.03568
43	0xb5be	-0.359
44	0x2e92	0.10266
45	0xb216	-0.1902
46	0x3003	0.1254
47	0x2184	0.01077
48	0xbd91	-1.392
49	0xa953	-0.0416
50	0xb88d	-0.569
51	0xb5a2	-0.352
52	0xb17a	-0.1711
53	0xa8ce	-0.03754
54	0x3217	0.1903
55	0xb52c	-0.3232
56	0xb5d1	-0.3635
57	0x3101	0.1564
58	0x39b0	0.711
59	0x99f5	-0.002909
60	0x30cb	0.1498
61	0xadb4	-0.0891
62	0x2f3b	0.113
63	0x36a7	0.4158
64	0x3b2d	0.897
65	0xa7cd	-0.03047
66	0xaa96	-0.05145
67	0xb799	-0.4749
68	0xab5a	-0.05743
69	0xaa79	-0.05057
70	0x387e	0.5615
71	0xb628	-0.3848
72	0x26e1	0.02687
73	0xbc76	-1.115
74	0xb39d	-0.2379
75	0xb8ef	-0.6167
76	0x363d	0.39
77	0x20d4	0.00943
78	0xb0c7	-0.1493
79	0x337a	0.2336
80	0xb882	-0.5635
81	0x382d	0.522
82	0xb1fb	-0.1869
83	0xb3db	-0.2455
84	0x36fd	0.4368
85	0xab54	-0.05725
86	0xb8b8	-0.59
87	0x39bb	0.7163
88	0x34de	0.3042
89	0xa98b	-0.0433
90	0xa9ea	-0.0462
91	0xb76a	-0.4634
92	0x3c32	1.049
93	0xb72f	-0.449
94	0xb062	-0.137
95	0xb939	-0.653
96	0x3f95	1.8955
97	0x32c3	0.2113
98	0xb7b0	-0.4805
99	0x3494	0.2861
100	0xb54b	-0.3308
101	0x36d2	0.4263
102	0xbc6e	-1.107
103	0xbb08	-0.879
104	0xbaae	-0.835
105	0xb226	-0.1921
106	0xb57b	-0.3425
107	0xb432	-0.2622
108	0xb891	-0.571
109	0x3479	0.2795
110	0x3505	0.3137
111	0xb77e	-0.4683
112	0x3f05	1.755
113	0x380c	0.506
114	0x2b32	0.0562
115	0x3f7d	1.872
116	0xb10b	-0.1576
117	0xbba5	-0.9556
118	0xbad5	-0.854
119	0xbd3e	-1.311
120	0xbdcf	-1.452
121	0xb087	-0.1415
122	0x3c46	1.068
123	0x35bc	0.3584
124	0x3f5b	1.839
125	0x3660	0.3984
126	0x35f6	0.3726
127	0x2bd0	0.06104
128	0x3e05	1.505
129	0xbbca	-0.9736
130	0x28ad	0.03653
131	0xb08d	-0.1422
132	0xbc16	-1.021
133	0xbd31	-1.298
134	0xb100	-0.1562
135	0x3105	0.1569
136	0x35b7	0.3572
137	0xbae1	-0.86
138	0x3c51	1.079
139	0xb593	-0.3484
140	0x36d2	0.4263
141	0xa859	-0.03397
142	0xb93d	-0.655
143	0xbb94	-0.9473
144	0xb9ab	-0.7085
145	0x3824	0.5176
146	0xbd85	-1.38
147	0x329b	0.2064
148	0xb826	-0.5186
149	0xb069	-0.1378
150	0x3111	0.1583
151	0xb0a1	-0.1447
152	0xa846	-0.0334
153	0xb53e	-0.3276
154	0xbaea	-0.8643
155	0x3c3d	1.06
156	0x2395	0.01481
157	0xbaa3	-0.8296
158	0x4057	2.17
159	0xbaa5	-0.8306
160	0x2d56	0.0834
161	0x376e	0.4644
162	0x385d	0.5454
163	0xb793	-0.4734
164	0x3f38	1.805
165	0xb691	-0.4104
166	0xb414	-0.255
167	0x2137	0.010185
168	0xba0c	-0.756
169	0x410e	2.527
170	0x3f97	1.897
171	0xb6dc	-0.4287
172	0xb6a1	-0.4143
173	0xbc7b	-1.12
174	0xb58d	-0.347
175	0xb912	-0.634
176	0x31d4	0.1821
177	0x95ea	-0.001444
178	0xac3f	-0.06635
179	0xb076	-0.1394
180	0x2935	0.04068
181	0x30aa	0.1458
182	0xa9e8	-0.04614
183	0xaff9	-0.1246
184	0x3485	0.2825
185	0x347a	0.2798
186	0xb66c	-0.4014
187	0xac07	-0.0629
188	0x34b2	0.2935
189	0xb62e	-0.3862
190	0x3137	0.163
191	0xa99e	-0.04388
192	0xb918	-0.6367
193	0xb79f	-0.4763
194	0xb407	-0.2517
195	0xaf74	-0.11646
196	0x2fde	0.1229
197	0xb1af	-0.1776
198	0x2981	0.043
199	0x3483	0.282
200	0x34f6	0.31
201	0x9aa2	-0.003239
202	0x29ad	0.04434
203	0x33d0	0.2441
204	0xb293	-0.2054
205	0xb704	-0.4385
206	0x3dca	1.447
207	0x3888	0.5664
208	0xb5b4	-0.3564
209	0xb015	-0.1276
210	0x3066	0.1375
211	0x2eb1	0.10455
212	0x38e1	0.61
213	0x3730	0.4492
214	0xb6e0	-0.4297
215	0xb422	-0.2583
216	0x318a	0.1731
217	0x33b8	0.2412
218	0x222e	0.01207
219	0x2bf8	0.06226
220	0x327c	0.2026
221	0xaf2c	-0.11206
222	0x305e	0.1365
223	0xb2b6	-0.2097
224	0x39c7	0.722
225	0x3546	0.3296
226	0x2e56	0.099
227	0xb6c6	-0.4233
228	0x34e2	0.3052
229	0xa5f9	-0.02333
230	0xabe1	-0.06155
231	0xb9b5	-0.7134
232	0x2ccc	0.07495
233	0xade2	-0.0919
234	0x3362	0.2307
235	0xa915	-0.0397
236	0xb149	-0.1652
237	0x3620	0.3828
238	0xacd5	-0.0755
239	0xb6c9	-0.424
240	0xb84e	-0.538
241	0x9ee9	-0.00675
242	0xb424	-0.2588
243	0x34d3	0.3015
244	0x19e1	0.00287
245	0xb24a	-0.1965
246	0xaa2c	-0.04822
247	0xb78d	-0.472
248	0xaa87	-0.051
249	0xbb83	-0.939
250	0x3397	0.2372
251	0xae46	-0.098
252	0x35d3	0.364
253	0xabdd	-0.06143
254	0x3209	0.1886
255	0xb300	-0.2188
