mediapipe/tasks/testdata/text/stablelm_3b_4e1t_test_weight.safetensors (safetensors, 13432 bytes, 15 tensors)

lm_head.weight f4 [10, 20]
000000 72 a9 55 3f 13 94 79 3f 8b a0 9c 3e de 7c 52 3f
       0.8346168 0.9749157 0.30591235 0.8222178
000010 1c b7 12 3f 92 3b cb 3e 34 ec c5 3d 98 ef bb 3e
       0.5731065 0.39693886 0.09664193 0.36706233
000020 cb e4 cc 3e 12 92 c7 3d f1 53 72 3f 81 6c b9 3c
       0.40018305 0.097446576 0.94659334 0.022634747
000030 5d d0 3f 3e b1 9d f1 3d 64 bc 0d 3f 92 a1 01 3f
       0.18731828 0.117976554 0.55365586 0.5063716
000040 d1 07 9a 3e f9 5b 65 3f b7 61 54 3f 02 b3 05 3f
       0.30084088 0.89593464 0.829616 0.5222627
000050 ce ae 6d 3f 52 fe 4e 3f a4 6b 63 3f fe b8 ca 3d
       0.92844856 0.8085681 0.8883612 0.09898566
000060 5c 6c f3 3e 9a 85 31 3f 34 18 e0 3e 1a 4d 3d 3f
       0.4754361 0.69344485 0.43768466 0.7394577
000070 bb 7e 2b 3d 90 e9 61 3f 8f 55 66 3f 30 a7 f7 3e
       0.041868906 0.88247013 0.899743 0.4836974
000080 ab 01 fd 3e 21 1e 3f 3f 07 af 2c 3f ba 1c 37 3e
       0.49415335 0.7465535 0.6745457 0.17882052
000090 d0 0d 82 3e 14 81 7a 3f 50 63 ec 3e f6 15 35 3f
       0.25401163 0.9785321 0.4616952 0.70736635
0000a0 89 d9 bb 3e b5 05 0e 3d f9 b2 30 3e 0d 5b 51 3f
       0.36689404 0.03467341 0.17255773 0.8177956
0000b0 54 79 4c 3f b7 af 5c 3e 52 9b 1d 3f c3 7b 57 3f
       0.7987263 0.21551405 0.61565125 0.8417322
0000c0 1c 82 18 3f e1 3b 8b 3e 28 d5 19 3f ab 48 00 3f
       0.5957353 0.2719412 0.60090876 0.5011088
0000d0 f6 22 35 3e d9 be 95 3e b2 7b 1d 3f b4 09 35 3e
       0.17689118 0.29247168 0.6151687 0.17679483
0000e0 b4 2f 4f 3f 0f 12 4b 3e 2c e7 45 3f ce 50 d9 3d
       0.80932164 0.19831108 0.77305865 0.106111154
0000f0 f0 0e 2c 3f 93 28 ae 3d 94 92 c0 3e a9 43 52 3f
       0.6721029 0.08503833 0.3761183 0.8213449
000100 dc 3c 0e 3f 3e 38 23 3f de b5 de 3d 2b 57 36 3e
       0.55561614 0.63757694 0.10874532 0.1780669
000110 bd 37 72 3f 08 6a 54 3f e7 dd 49 3f 0e 09 4b 3f
       0.946163 0.8297429 0.7885422 0.7931069
000120 1b 7a 6f 3e 08 14 1d 3f af 13 ce 3e 8b cd 93 3e
       0.23386423 0.6135869 0.40249392 0.28867754
000130 8f df 4e 3f d4 9e 07 3f f0 89 03 3e d3 00 77 3f
       0.80809873 0.5297673 0.12845588 0.9648563
000140 2d 35 e6 3c 16 33 3d 3c 83 20 76 3f 05 d1 9e 3e
       0.028101528 0.011547824 0.9614336 0.31018844
000150 77 23 37 3f 62 77 7f 3f bf 73 54 3f a9 ae 8d 3c
       0.7153849 0.9979154 0.82989115 0.017295199
000160 89 71 9c 3e 07 a2 08 3f 54 91 f7 3e 32 b8 60 3e
       0.3055537 0.53372234 0.48353064 0.21945265
000170 88 f3 5b 3d 91 b2 5a 3f 86 42 fe 3d bb 28 cd 3d
       0.053699046 0.8542872 0.12415032 0.10017534
000180 0d 5b a8 3e dd 75 d1 3e 3b 50 03 3f 1f 81 52 3f
       0.32881966 0.40910235 0.51294297 0.82228273
000190 45 5a 5e 3f 88 a7 30 3f bc 1f 7a 3f 25 99 41 3f
       0.8685649 0.6900563 0.9770467 0.75624305
0001a0 1c 5f a1 3b 59 bb 3f 3f 42 d5 76 3f ce 23 71 3f
       0.004924668 0.74895245 0.96419156 0.9419526
0001b0 b5 9a 3a 3f 0f e3 32 3f ed 07 bd 3e 20 e5 4e 3f
       0.72892314 0.69877714 0.3692011 0.80818367
0001c0 c7 1d 25 3f 0b 42 e9 3d fd bb 03 3f 91 29 8f 3e
       0.6449856 0.1138955 0.5145872 0.279614
0001d0 9c 2e 08 3f fe bb d6 3e 9b f4 48 3f 6c e3 ca 3e
       0.5319612 0.41940302 0.7849824 0.39626634
0001e0 74 90 39 3f 1b 40 98 3e c3 59 65 3f 1c fa 4f 3f
       0.7248604 0.2973641 0.8959009 0.8124101
0001f0 a2 b0 6e 3f c6 4a 8e 3d 2d 5f e8 3e 88 0d d2 3e
       0.9323827 0.06947856 0.45385113 0.4102595
000200 e6 12 fe 3b bf dd 7e 3f 06 30 79 3f bd 73 21 3f
       0.0077537177 0.9955711 0.973389 0.6306723
000210 16 55 ea 3e 1d 52 73 3f ab f1 4c 3f 7c 05 38 3f
       0.4576804 0.9504717 0.80056256 0.7188337
000220 6f 96 5b 3f 74 a8 e0 3d 48 2c 02 3f 08 89 41 3f
       0.8577642 0.1096963 0.5084882 0.7559972
000230 21 6c 97 3e 9e 1a 46 3f af 73 93 3e ec c1 00 3f
       0.29574683 0.77384365 0.28799197 0.502959
000240 48 82 45 3e c9 45 6f 3f f7 99 9d 3d 5e 08 3c 3f
       0.1928798 0.9346586 0.07695382 0.7345027
000250 4f e5 9d 3e 3e d4 73 3f 47 bf cb 3e 42 f2 dd 3e
       0.3083901 0.9524573 0.3979437 0.4334889
000260 15 b8 9d 3e 4b 8a a3 3e 75 db 82 3e 0c 97 40 3f
       0.30804506 0.31941447 0.25558057 0.7523048
000270 8a a4 3c 3f 53 09 14 3f 53 02 7d 3f 86 10 03 3f
       0.73688567 0.5782673 0.9883167 0.5119709
000280 02 f7 3e 3e 9e 6b 30 3f 35 23 38 3e 1a 61 13 3f
       0.18648914 0.6891421 0.1798218 0.5757004
000290 42 ce 2c 3e c8 0f 3b 3f db 3c 4d 3e 0b 67 45 3f
       0.16875556 0.73070955 0.20042746 0.77110356
0002a0 e3 b6 db 3e 1a 62 f0 3e ec 40 74 3f 29 27 ca 3d
       0.4291297 0.46949846 0.9541156 0.098707505
0002b0 4b e8 4d 3f b4 66 5a 3d 6e b0 78 3e 72 88 6a 3f
       0.80432576 0.0533206 0.24286053 0.9161445
0002c0 35 05 10 3e 40 e2 ae 3e c1 a0 7a 3f c4 93 2d 3f
       0.14064486 0.3415699 0.9790154 0.678036
0002d0 20 40 61 3f a4 4c 2f 3f ec 46 06 3f 84 8b 06 3f
       0.8798847 0.6847632 0.5245197 0.52556634
0002e0 a5 81 d6 3e e2 9d 17 3f 0a 9c ce 3e 7b 29 02 3e
       0.41895786 0.59225285 0.40353423 0.12711136
0002f0 b2 ac 49 3f e7 6b 62 3f a3 43 99 3d e7 cb 5f 3f
       0.7877914 0.88445896 0.07483604 0.87420505
000300 fd da 73 3f 33 14 15 3e a2 d6 34 3f 40 93 43 3e
       0.95256025 0.14558487 0.70640004 0.1909914
000310 e6 84 d6 3d 68 0a b2 3e 6e a1 5f 3f a5 e1 07 3f
       0.10474567 0.34773564 0.873557 0.5307868

model.embed_tokens.weight f4 [10, 20]
000000 29 06 4e 3f 62 44 60 3f bc dd 0e 3f 07 d7 4f 3f
       0.8047815 0.87604344 0.5580709 0.8118748
000010 34 51 7f 3d 37 fc 0d 3f 72 dd e2 3e b6 5c 20 3f
       0.0623333 0.55462974 0.44309574 0.62641466
000020 ee e9 33 3f 52 44 49 3f 18 90 6b 3e a3 2a 3e 3e
       0.70278823 0.78619874 0.23004186 0.18570952
000030 18 a9 58 3e 7e 91 9e 3e 72 35 b7 3e 6b 2d 60 3f
       0.21158254 0.30970377 0.35782963 0.875693
000040 fb b0 ad 3e f7 8e 5a 3f 7e c2 63 3e cc e0 07 3f
       0.33924088 0.853744 0.22242162 0.5307739
000050 3f cf 40 3f 58 90 55 3f 43 0a 8a 3e f7 04 52 3f
       0.7531623 0.83423376 0.26960954 0.82038826
000060 ad 1e 5d 3f 34 6a 0e 3f 7c 1d 00 3f 52 75 cc 3d
       0.8637493 0.55630803 0.5004499 0.099833146
000070 9e fe 34 3f 84 5e 3c 3f 1d 34 54 3f 9c 49 a0 3e
       0.70701015 0.7358172 0.8289202 0.3130616
000080 ec e2 e2 3e 4a 3a 05 3e c9 75 f4 3e 91 20 77 3f
       0.44313753 0.13010517 0.47746113 0.9653407
000090 47 a7 36 3e 2b 2a 3c 3f 3f 7b 19 3f 2f 3a 5d 3e
       0.17837249 0.73501843 0.59953684 0.21604227
0000a0 5c b2 39 3f 9c 8c 79 3f fc 34 9d 3e 0a c3 58 3f
       0.7253778 0.9748018 0.30704486 0.84672606
0000b0 7d 90 a2 3e 21 ef 92 3e 5d e9 7a 3f ad 77 05 3f
       0.3175086 0.28698066 0.98012334 0.52135736
0000c0 c8 18 f1 3e 73 7e 4e 3f c9 b6 70 3e 42 64 8f 3e
       0.4708922 0.80661696 0.23507227 0.28006178
0000d0 01 3b 18 3f 2d 07 02 3f 2f d9 21 3e 56 d9 a4 3e
       0.5946503 0.507922 0.15805505 0.32197064
0000e0 f9 f9 0b 3f 76 77 52 3f e2 85 b4 3e 02 28 09 3e
       0.54678303 0.8221353 0.35258394 0.13394168
0000f0 7b 06 3c 3f 3d 11 27 3f 38 15 e1 3e 63 39 ad 3e
       0.7344739 0.6526068 0.439615 0.33832845
000100 98 98 7a 3f 50 fd 20 3f c6 b7 79 3f 8c 03 5a 3f
       0.9788909 0.62886524 0.9754604 0.8516166
000110 1f bd 9a 3d d1 de 0b 3f 48 56 4a 3f b5 d9 69 3c
       0.07555603 0.54636866 0.79037905 0.014273097
000120 32 8a ba 3e ed ad 50 3f e2 91 4b 3f ef 07 d9 3d
       0.3643356 0.8151539 0.79519475 0.10597216
000130 b3 79 1a 3f 6c 13 61 3e 3a 28 b8 3e 85 62 15 3f
       0.6034195 0.21980065 0.3596819 0.58353454
000140 29 b8 40 3f 40 74 6e 3f b8 ca c5 3e aa 77 7f 3e
       0.75281006 0.93146133 0.38631225 0.24947992
000150 f4 db 62 3e ad e7 72 3f 79 21 d8 3d d8 31 64 3f
       0.22154218 0.9488476 0.105532594 0.89138556
000160 7d d5 70 3f 48 e1 0d 3f 82 12 3f 3f e3 aa 3c 3f
       0.9407576 0.55421877 0.74637616 0.7369825
000170 4f 32 2c 3e 59 08 f7 3e 67 e4 00 3f 7b a5 e3 3e
       0.16816066 0.48248556 0.50348514 0.4446219
000180 e9 d7 52 3f 0b ed 27 3d e7 13 18 3f b7 ed 5d 3f
       0.823607 0.040997546 0.5940537 0.8669085
000190 c7 2e 26 3f 02 51 88 3e 0d 7f c7 3c 8d 8c 19 3f
       0.64915127 0.26624304 0.024352575 0.5998009
0001a0 b5 c5 e9 3d d6 e8 2f 3f da 25 05 3e aa e6 5c 3e
       0.11414663 0.68714654 0.1300272 0.21572366
0001b0 68 b0 1d 3f 5e ac 1b 3f 56 0b 32 3f ad 97 b7 3e
       0.615973 0.60809886 0.6954855 0.35857907
0001c0 27 42 73 3f ac 88 6b 3f 75 e7 52 3f 01 03 f2 3e
       0.95022815 0.9200542 0.82384425 0.47267917
0001d0 45 e9 19 3f 3f b0 fe 3e e2 55 13 3f 67 a9 20 3f
       0.60121566 0.4974384 0.5755292 0.6275849
0001e0 10 73 54 3f c0 86 c7 3d 9c ec 7a 3e 1b 31 54 3e
       0.8298807 0.097424984 0.24504322 0.20721857
0001f0 d8 08 09 3f 02 01 63 3f f5 90 74 3f 85 6c e6 3e
       0.5352912 0.8867341 0.95533687 0.4500467
000200 ec 81 bc 3e c0 36 74 3f e4 91 e5 3e 4a 21 7a 3f
       0.36817873 0.9539604 0.44837868 0.97707045
000210 12 be eb 3e 79 ef 63 3f 48 11 0d 3f de 7b 78 3f
       0.4604345 0.8903728 0.55104494 0.97064006
000220 0c ee d1 3e 47 e8 2a 3f ef 0f 8a 3e ef 80 f8 3e
       0.41001928 0.6676068 0.2696528 0.4853587
000230 2e 75 ed 3e fb a2 78 3f 9f 89 a8 3d 85 7b ae 3e
       0.46378464 0.9712369 0.08229374 0.34078613
000240 66 16 ad 3e 14 49 48 3f de f8 e1 3e 7c 6d af 3e
       0.3380615 0.7823651 0.44135183 0.34263217
000250 45 80 65 3f b7 ab 35 3f 34 12 26 3f 64 73 33 3f
       0.8964885 0.7096514 0.64871526 0.7009795
000260 c0 be 0b 3f 1b df 8f 3e fb 6a 27 3f 74 0a 4e 3f
       0.54587936 0.28099903 0.65397614 0.804847
000270 a5 ea 20 3f 9b 9b 51 3f 1f a7 00 3f 55 d2 3b 3f
       0.6285804 0.8187806 0.50255007 0.73367816
000280 69 c0 5f 3f 6c f0 89 3c 15 85 f0 3e 79 be 47 3d
       0.8740297 0.016838275 0.46976534 0.048765633
000290 c0 32 7a 3f ea 40 72 3f d7 72 c6 3e 40 0f 89 3e
       0.9773369 0.946303 0.3875949 0.26769447
0002a0 a1 3a 12 3f 97 d0 82 3d a6 a3 87 3e 05 dd 16 3e
       0.5712071 0.063874416 0.2649204 0.1473275
0002b0 93 fe 3d 3e 2e da 67 3f 18 5b 5f 3d df 31 28 3f
       0.18554144 0.9056729 0.054530233 0.657011
0002c0 dc b3 4b 3e bb cf 42 3f af 69 47 3e a5 f3 28 3f
       0.1989283 0.7609822 0.19473909 0.6599677
0002d0 84 25 08 3f 14 67 f6 3e 9b dd 2f 3f 48 9e 76 3f
       0.53182244 0.48125517 0.6869752 0.9633527
0002e0 ad 75 2e 3e 3b c3 31 3e ba 4c 18 3f 16 db 65 3f
       0.17037077 0.17359631 0.59492075 0.89787424
0002f0 c6 c4 f8 3e f0 6d 2b 3e a6 1e a5 3e 68 5d 79 3e
       0.48587626 0.16741157 0.32249945 0.24352038
000300 da df 6a 3f 34 62 fc 3e 0b 7b cd 3e 7f f3 89 3e
       0.9174782 0.49293673 0.40132937 0.26943585
000310 e4 2c b4 3d c1 ef 15 3e 8d 14 4a 3f 2b 28 29 3f
       0.08797625 0.1464224 0.7893761 0.66076916

model.layers.0.input_layernorm.bias f4 [10, 20]
000000 b7 b8 8c 3e b4 ea a8 3e 69 b6 9d 3d 67 18 f0 3e
       0.27484676 0.32991564 0.077008076 0.46893618
000010 ef 6c de 3e af d5 43 3e 91 7a 46 3f e9 45 44 3e
       0.43442485 0.19124483 0.7753077 0.19167294
000020 be 2d 32 3e 74 4e 78 3f 57 3d 66 3e 5a 31 b9 3d
       0.17400262 0.9699471 0.22484337 0.09042616
000030 a7 af 18 3f 27 9e ed 3e 07 3f cc 3e 43 d2 3f 3f
       0.59643024 0.46409723 0.39891836 0.7493021
000040 53 ab a2 3e 4f 6c 1c 3d 08 42 7e 3f d0 8e 01 3f
       0.31771335 0.03818923 0.99319506 0.5060854
000050 d6 1f ce 3e bd 3a 23 3f b8 bb 40 3f f0 b4 3b 3d
       0.40258664 0.637615 0.75286436 0.045826852
000060 14 ed 78 3f 7a a1 5c 3f ae 9b ad 3e c7 67 41 3f
       0.9723675 0.86183894 0.33907837 0.75548977
000070 b0 7b 67 3e 03 a3 af 3e 0e 0e c5 3e 2c 35 29 3f
       0.22605777 0.34304056 0.38487285 0.6609676
000080 72 9c c4 3e 4d 8e 09 3e d0 7f 0f 3f 31 e4 a2 3e
       0.38400608 0.1343319 0.560544 0.3181472
000090 fa 08 c2 3e af b4 72 3f f9 6b d5 3d f6 64 de 3e
       0.37897474 0.9480695 0.10420985 0.43436402
0000a0 7e fb 44 3f 70 fb cd 3e 80 bf 50 3f 24 7b d6 3d
       0.76946247 0.40230894 0.81542206 0.10472706
0000b0 58 c3 09 3f c7 02 58 3f b0 95 2d 3e b3 8a 00 3f
       0.53813696 0.8437924 0.16951632 0.5021164
0000c0 a6 3d ce 3e 0a 0d 7b 3e 8e 5f dc 3e 89 dd 03 3e
       0.4028141 0.24516693 0.43041652 0.12877478
0000d0 2a 8d 75 3f d0 10 17 3d 32 4e 3d 3f e4 dd 73 3f
       0.95918524 0.036881268 0.7394744 0.95260453
0000e0 62 83 4a 3f 39 dd 81 3e f3 b8 b5 3e 0c 71 79 3e
       0.79106724 0.25364092 0.35492668 0.2435953
0000f0 a5 a7 eb 3e e1 e4 2e 3f 12 84 c6 3e e8 ad 36 3f
       0.4602634 0.6831799 0.38772637 0.7135911
000100 5e 92 54 3f e6 bd 62 3f 9d 82 1e 3e 5f ea 13 3c
       0.8303584 0.8857101 0.15479513 0.009028046
000110 c8 41 41 3f af e9 56 3f 31 b3 72 3f 20 6a 21 3e
       0.75491 0.8395032 0.94804674 0.1576314
000120 8f fc 49 3f b6 88 71 3f 1b 22 da 3e c7 79 c8 3e
       0.78901 0.9434923 0.42604145 0.3915541
000130 0d 6c 68 3f d2 a1 68 3f 1f 60 67 3f 3a b0 f7 3e
       0.9078987 0.9087192 0.90381044 0.48376638
000140 e5 1c 19 3f 8b f3 b4 3d 3b c0 77 3e 99 ff 43 3f
       0.59809715 0.08835515 0.24194424 0.76561886
000150 81 02 e2 3e bf c0 d8 3e f5 e5 14 3e e2 f5 11 3f
       0.44142535 0.42334554 0.14540847 0.5701581
000160 50 c9 73 3f cf 50 01 3f e8 1a 27 3f c0 96 4c 3d
       0.95229053 0.5051393 0.6527543 0.049948454
000170 e5 fd 31 3f b2 6b 0d 3f f4 4c dc 3d 82 d1 09 3e
       0.6952804 0.55242455 0.10756865 0.13458827
000180 d7 69 1d 3f 2d 72 79 3f 7c 8d 3a 3f 51 13 90 3e
       0.61489624 0.97439843 0.7287214 0.28139737
000190 21 f0 45 3e 99 2a 2d 3f 5f 9e bb 3d d7 aa aa 3e
       0.19329883 0.67643124 0.09161066 0.33333465
0001a0 fe 66 a0 3e 50 fe 3e 3e 79 b6 f3 3e 55 d1 70 3f
       0.31328577 0.186517 0.47600153 0.94069415
0001b0 2a 7b df 3d 95 5f c6 3d 03 35 c1 3e 85 d5 13 3f
       0.109121636 0.096861996 0.37735757 0.5774768
0001c0 4b b9 11 3e 95 51 c4 3e cf c1 13 3f 8b 14 c1 3e
       0.1423084 0.38343492 0.57717603 0.37710986
0001d0 39 09 45 3f 4a d7 4e 3f 59 10 0e 3f 76 0f a0 3e
       0.769672 0.80797255 0.55493695 0.31261796
0001e0 e9 81 fc 3e 1d 1d 0f 3d 79 e3 4a 3f 46 be 33 3f
       0.49317864 0.034939874 0.79253346 0.7021221
0001f0 2b 29 ad 3e 67 9a 9d 3d ef 04 51 3d 78 a9 6c 3e
       0.3382047 0.076954655 0.051030096 0.23111522
000200 79 3d e3 3e 3b 96 38 3f 2f e4 6a 3f d6 e2 c1 3e
       0.44382837 0.72104234 0.9175443 0.37868375
000210 80 ed 1e 3f 76 a3 29 3f fe ce ba 3d 55 55 a2 3e
       0.62081146 0.66265047 0.09121512 0.31705728
000220 0d 62 12 3f 25 b4 9d 3e cc 4e 1d 3f f9 17 eb 3d
       0.57180864 0.30801502 0.6144836 0.11479182
000230 8d 43 66 3f 19 30 61 3c e5 fc 63 3f 09 40 19 3f
       0.89946824 0.0137443775 0.8905776 0.59863335
000240 c9 a0 0b 3f e8 e5 a1 3e b8 ca 5a 3f f7 b9 71 3f
       0.54542214 0.31620717 0.85465574 0.94424385
000250 b8 4c 3b 3f 0f d4 7d 3f a1 dd 1b 3f ea e5 e4 3e
       0.7316394 0.991517 0.60885054 0.4470666
000260 01 c4 31 3f 44 b4 91 3e 38 c9 3b 3e 95 19 7d 3f
       0.69439703 0.28457844 0.18338478 0.9886716
000270 69 53 66 3f d7 16 4f 3f cc b5 b7 3c 14 ee 52 3f
       0.89971024 0.80894226 0.022425555 0.8239453
000280 71 3a 7d 3f ba a3 a8 3d 2d e2 56 3f 45 39 de 3e
       0.989173 0.08234353 0.83938867 0.43403068
000290 cf e8 db 3e 18 df 5d 3f 70 81 66 3f 03 c7 21 3f
       0.42951056 0.8666854 0.90041256 0.6319429
0002a0 af c6 4b 3e f5 3a 0b 3c e4 e6 09 3f 48 d8 cd 3e
       0.1990001 0.008497943 0.53867936 0.40204072
0002b0 4b d5 95 3e d7 7c 8d 3d 73 66 c2 3d 6f 65 f5 3e
       0.29264292 0.06908577 0.09492197 0.4792895
0002c0 ed 75 c6 3c 4e 3b 5d 3f 0e 88 5f 3f 64 6f 88 3c
       0.024226153 0.86418617 0.8731698 0.016654678
0002d0 e3 00 09 3e d4 c8 82 3e 0a e9 4b 3e ed 20 b1 3e
       0.13379245 0.25543845 0.19913116 0.34595433
0002e0 ed 07 5d 3f 28 01 b7 3d d2 39 0a 3f fa fb 37 3f
       0.8634022 0.089357674 0.53994477 0.7186886
0002f0 14 5d 9b 3e 9b d2 f2 3d 7a 82 8d 3e 03 e4 11 3e
       0.3034445 0.11856576 0.27638608 0.14247136
000300 b3 e8 1d 3e 77 84 fe 3e 1b 52 8d 3e aa 66 94 3b
       0.15420799 0.49710438 0.27601704 0.00452884
000310 4e 7a 1e 3f f3 66 04 3f 92 61 10 3f 7d f7 98 3d
       0.6190537 0.5171959 0.5639888 0.0746908

model.layers.0.input_layernorm.weight f4 [10, 20]
000000 ac a0 ea 3e 73 53 02 3f 09 ee b7 3d ec f3 1c 3e
       0.45825708 0.50908583 0.089809485 0.15327424
000010 08 19 c8 3c 4b 06 dd 3c 8a 26 7d 3f fa a8 15 3f
       0.024425998 0.02698054 0.9888693 0.5846096
000020 c5 8b 35 3f 25 af 36 3f ef 6f cc 3e d5 0d bf 3e
       0.70916396 0.71361 0.3992915 0.3731524
000030 7e 76 d9 3e 89 02 4d 3c 1b 4d de 3e 2a 4d 50 3f
       0.42473215 0.012512811 0.43418202 0.81367743
000040 4a b3 58 3e 77 fc 67 3f b8 f8 e6 3e b0 42 27 3d
       0.21162143 0.90619606 0.45111632 0.040835083
000050 ae b1 74 3f 9a aa 13 3f 7c 20 7e 3f 93 74 9a 3e
       0.9558362 0.5768219 0.9926832 0.30167064
000060 c5 26 dc 3e 13 e7 1c 3f c6 cc a4 3e d0 43 06 3f
       0.4299833 0.6129009 0.3218748 0.52447224
000070 25 82 3e 3f 33 5e 53 3f c3 13 71 3f 3f f4 9e 3e
       0.74417335 0.8256561 0.9417078 0.3104572
000080 c4 4e 3b 3f 1f ac 6c 3f 49 02 3c 3f 5e 6a 24 3f
       0.7316706 0.92450136 0.73440987 0.64224803
000090 c1 1e b3 3e d2 e1 ed 3d fe ad 8a 3e 51 9a 76 3f
       0.349844 0.116153374 0.2708587 0.9632922
0000a0 93 f4 1a 3f 9c 24 20 3f 1b fb 58 3f 48 8b 38 3f
       0.6052944 0.6255586 0.84758157 0.72087526
0000b0 ad ed 7e 3e 04 2c 26 3f 89 bb b7 3e db 82 90 3d
       0.24895354 0.6491091 0.35885265 0.07056209
0000c0 68 f9 4a 3f 83 68 c3 3e a2 2a 6e 3f ca 76 34 3f
       0.79286814 0.38165674 0.930338 0.7049376
0000d0 57 0f 49 3e b3 b6 11 3f 18 ed 78 3f d5 6f 9e 3e
       0.19634758 0.569194 0.97236776 0.30944696
0000e0 3b 95 69 3f be 13 6f 3e 89 9c 8b 3e 49 39 5f 3f
       0.9124333 0.23347375 0.27267864 0.87196785
0000f0 4c 31 66 3f ff 4f cf 3c 26 e7 65 3f 45 52 37 3d
       0.8991897 0.0253067 0.8980583 0.044756193
000100 6c f8 13 3f 6c 54 dc 3e 34 b1 99 3d b1 fc 0a 3f
       0.57800937 0.4303316 0.07504502 0.54291826
000110 4c 56 8e 3e fe b7 01 3f c8 22 11 3f d3 39 1d 3f
       0.27800214 0.50671375 0.56693697 0.6141636
000120 15 56 71 3f 91 3e b2 3e eb e3 20 3f 64 4a 24 3e
       0.94271976 0.3481336 0.62847775 0.16044003
000130 ef 22 22 3e 8c 41 1e 3f 90 86 e2 3e e6 b4 50 3f
       0.15833639 0.61818767 0.44243288 0.8152603
000140 e1 95 6f 3e 93 8e 3b 3e 9f a2 4e 3e 10 d3 00 3f
       0.23397018 0.18316106 0.20179223 0.50322056
000150 76 45 82 3e 9b d3 7f 3f 01 91 ef 3e fb ab 18 3f
       0.2544362 0.9993226 0.46790317 0.5963742
000160 e8 8b 6d 3f 0a e9 14 3f 83 93 3b 3f 21 9a dc 3e
       0.92791605 0.5816809 0.7327196 0.4308634
000170 c2 eb 2e 3f b4 dd e4 3e 9e c3 c0 3e b4 da 30 3e
       0.6832849 0.44700396 0.37649244 0.17270929
000180 b2 cb 0b 3f 8f 51 70 3f d3 9b 18 3f b3 30 62 3e
       0.5460769 0.9387445 0.5961277 0.2208889
000190 1c de 08 3f d8 ae 0b 3f 5e 94 02 3e d4 d6 17 3f
       0.5346391 0.54563665 0.1275191 0.59312177
0001a0 f0 af 4e 3f fd 38 e7 3e c5 bb 32 3f b2 6e 5f 3f
       0.8073721 0.45160666 0.69817764 0.8727828
0001b0 57 c0 08 3f 11 84 72 3f d1 80 01 3f 8e e8 66 3f
       0.5341849 0.9473277 0.50587183 0.901986
0001c0 7c 86 66 3f 3f 34 39 3f 3c 42 83 3b fe 1e e2 3e
       0.90048957 0.72345346 0.0040056985 0.4416427
0001d0 98 ef 74 3f 49 5e 8e 3e a9 04 cf 3e 49 1e 5e 3f
       0.9567809 0.2780631 0.40433243 0.8676496
0001e0 10 91 5e 3e 0e 35 6e 3f 82 35 0a 3f 08 55 95 3e
       0.21735024 0.93049705 0.53987896 0.29166436
0001f0 78 d2 74 3f 8a f2 56 3f 70 e5 4c 3f 41 a0 1e 3f
       0.9563365 0.83963835 0.80037594 0.6196328
000200 53 26 bd 3e ef 3f 57 3e 13 31 58 3f f9 9e a6 3d
       0.36943302 0.21020482 0.8444988 0.081357904
000210 4a ff 47 3f 98 84 e8 3d 84 9e 92 3e 3b 3e 18 3f
       0.78123915 0.11353415 0.28636563 0.59469956
000220 18 b5 52 3e eb 84 76 3e d7 d3 a9 3e 55 93 a2 3e
       0.20576894 0.24074142 0.33169433 0.3175303
000230 c3 a1 cd 3e d8 8a 17 3e 92 9a f5 3d ec 54 7a 3d
       0.40162477 0.14799058 0.119923726 0.061116144
000240 61 7b 11 3f 5a 2d 4c 3e 9b eb 4a 3f 66 f5 b3 3e
       0.56828886 0.19939175 0.79265755 0.35148162
000250 24 d3 e5 3e 13 b0 4d 3f ed c2 75 3f f0 dd 50 3d
       0.4488765 0.8034679 0.9600056 0.050992906
000260 42 08 d1 3e f1 5d 3a 3f ad be 0d 3f c4 d8 1c 3f
       0.40826613 0.72799593 0.55369073 0.6126826
000270 c6 0f 61 3e fb cf d1 3e 34 cf 5c 3f 0e 4f cc 3e
       0.21978673 0.4097899 0.86253667 0.39904064
000280 69 b2 9f 3e a3 9f 77 3e bf 19 1e 3e 61 bb e1 3e
       0.31190804 0.2418199 0.15439509 0.4408827
000290 5d 75 dc 3d 9f 6f 4d 3f 78 38 98 3e c1 a7 11 3f
       0.10764573 0.80248445 0.29730582 0.568966
0002a0 b1 5e 6d 3f c3 7e 34 3b f2 bc 65 3f 73 c8 45 3f
       0.9272261 0.0027541376 0.8974143 0.77258986
0002b0 86 c6 2c 3f d8 a6 b6 3e 2e ef 27 3d a0 97 0e 3f
       0.6749042 0.35674167 0.040999584 0.5570011
0002c0 c6 e5 d3 3d 51 9d cd 3e 3a e4 69 3e ff 0c f2 3e
       0.1034656 0.40159085 0.22840968 0.4727554
0002d0 18 2d 8e 3e f1 7a 2c 3f f7 14 45 3d 5f 1b 8f 3e
       0.2776878 0.67375094 0.048115697 0.2795057
0002e0 88 b8 53 3e a5 f5 76 3f af bb 5c 3f 12 ac ca 3e
       0.20675862 0.96468574 0.8622388 0.39584404
0002f0 f4 1b d4 3d fa 19 90 3e 8f e6 7a 3f fd 4e b7 3e
       0.10356894 0.2814482 0.98008054 0.3580245
000300 3f 8f 66 3f 66 6d 96 3e f1 ab ec 3e 82 75 21 3f
       0.90062326 0.2938034 0.4622493 0.6306993
000310 11 3c b4 3e 66 a0 04 3f 00 7a 4d 3e 06 28 77 3f
       0.35202077 0.5180725 0.2006607 0.96545446

model.layers.0.mlp.down_proj.weight f4 [10, 20]
000000 b3 83 28 3f de d0 27 3e 3b fa 5a 3f 5b af b2 3e
       0.6582596 0.1638827 0.8553807 0.3489941
000010 ec 76 68 3f 85 be 93 3e 21 39 45 3f 79 43 ae 3e
       0.9080646 0.28856292 0.77040297 0.34035853
000020 30 64 8e 3e 45 34 e4 3d fe e3 4c 3e b1 ef b5 3e
       0.27810812 0.11142782 0.20008847 0.35534433
000030 cd f2 83 3e 69 4c 93 3d b8 92 52 3e 1f 2e b8 3e
       0.2577118 0.071923085 0.20563781 0.35972688
000040 92 c2 53 3f 0e 89 f4 3e 14 9d 2d 3f d5 c6 af 3c
       0.82718766 0.47760814 0.6781781 0.021457115
000050 53 e5 b0 3e ea d1 68 3f 52 f6 da 3e da e8 63 3f
       0.3454996 0.90945303 0.42766052 0.8902718
000060 af 30 13 3f b7 dd 7d 3f 4f f4 a0 3e 31 32 fb 3d
       0.5749616 0.99166435 0.31436393 0.122654326
000070 ff f9 43 3f 01 51 5f 3f b7 6c 32 3f 8d 40 46 3e
       0.7655334 0.8723298 0.69697136 0.19360562
000080 82 16 17 3e 78 48 c3 3e f7 bb 8e 3d 91 42 1e 3f
       0.1475468 0.38141227 0.06969445 0.6182032
000090 bb 8b 54 3e 98 01 d1 3e 95 7c 48 3f a8 cd cd 3d
       0.20756428 0.40821528 0.783151 0.100489914
0000a0 c6 aa 70 3d eb 19 e4 3e 10 eb c1 3d 37 96 ef 3e
       0.058756612 0.44551024 0.09468663 0.46794292
0000b0 32 c3 2f 3f 23 82 2b 3f 7c 99 4d 3f 08 a3 28 3f
       0.6865722 0.6699545 0.80312324 0.65873766
0000c0 d1 f3 f7 3e bc 3f cf 3e db 5d 87 3d ab c3 79 3f
       0.48428205 0.40478313 0.066096984 0.9756419
0000d0 b6 2a 20 3f 1c 91 eb 3d 13 c4 61 3e 0b 15 a8 3e
       0.6256517 0.11502287 0.22047453 0.32828555
0000e0 d2 01 e2 3e 68 ae 26 3f 80 f9 73 3f 32 ce 60 3e
       0.44142014 0.6510987 0.9530258 0.21953657
0000f0 e9 02 12 3e 8e bc 78 3e 31 cf 2e 3f 27 0f 02 3c
       0.14258923 0.24290678 0.682849 0.007938183
000100 04 cc b4 3e 8e 87 5f 3f 4b 5a f9 3e 00 3a 40 3e
       0.35311902 0.87316215 0.487017 0.18772125
000110 41 85 4d 3e 20 59 27 3f ab 60 5c 3f 93 bd 73 3f
       0.20070364 0.6537037 0.86085004 0.9521114
000120 70 0f a1 3e 80 54 70 3f af de 43 3f bc b9 b2 3e
       0.3145709 0.93878937 0.76511663 0.3490733
000130 9d 48 b0 3e 3f 96 09 3f 27 0d 5d 3f 8c 5d 3c 3f
       0.344304 0.5374488 0.86348194 0.7358024
000140 c0 e2 5c 3f 39 f4 17 3f 80 fc 34 3f 23 57 61 3f
       0.86283493 0.5935703 0.70697784 0.88023585
000150 79 e1 d1 3d 98 5d 07 3f 8c 3e 9a 3e 47 ed 2c 3e
       0.102480836 0.5287719 0.30125844 0.16887389
000160 cf 69 12 3f 14 6c 7b 3f bb 07 40 3f 13 a2 5c 3f
       0.571927 0.9821179 0.75011796 0.86184806
000170 ab 3e 03 3f 06 e4 39 3f 76 07 41 3f da 1d 38 3f
       0.512675 0.7261356 0.7540201 0.7192055
000180 81 62 14 3e a8 c5 2f 3d bd 84 00 3f fb 63 6f 3f
       0.14490701 0.04291311 0.5020254 0.93511933
000190 87 eb 3e 3f 7b ce 2e 3e c4 cc 32 3e 74 b3 c3 3e
       0.74578136 0.17070954 0.17460924 0.3822285
0001a0 5b d3 09 3f 24 19 46 3f 0b f7 dd 3d 29 9e 3d 3f
       0.5383813 0.7738211 0.10838135 0.7406946
0001b0 2b 98 8a 3e 50 99 48 3f 94 ac f4 3e 49 a9 81 3d
       0.2706922 0.78358936 0.47787917 0.06331117
0001c0 f7 b5 5a 3e ac 8f 35 3e 61 68 93 3e 47 d4 7d 3f
       0.21358477 0.17730588 0.28790572 0.99152035
0001d0 9d 06 2d 3f 47 53 0f 3f 87 ef 4f 3d 2e 53 12 3f
       0.67588216 0.55986446 0.05076554 0.5715817
0001e0 a1 a7 46 3e 10 47 03 3f 28 8c 5c 3e 5a a6 47 3f
       0.19399883 0.5128031 0.2153784 0.7798821
0001f0 bb 0f 6e 3f e4 5e 6d 3f 68 8b 3a 3e 76 a7 15 3e
       0.9299275 0.92722917 0.18217242 0.14614663
000200 b3 84 32 3f b9 73 52 3f 4a 2b 50 3e f9 19 11 3f
       0.6973373 0.8220783 0.20329013 0.56680256
000210 07 14 56 3f 10 b3 28 3f bf a1 7a 3e 6c 76 f0 3e
       0.8362431 0.6589823 0.24475764 0.4696535
000220 25 91 66 3f 4a 7f 4d 3f 15 15 d2 3e 36 05 17 3f
       0.9006522 0.8027235 0.4103171 0.58992326
000230 30 b7 79 3e 4f 3c 0b 3f 83 06 1f 3f 91 99 fc 3d
       0.24386287 0.543889 0.6211931 0.12333978
000240 76 0d 37 3f b3 30 ef 3e 6f d8 d6 3e 90 cc 23 3f
       0.71504915 0.46716842 0.41962 0.6398401
000250 5d 86 b6 3e be 14 34 3f 62 81 0d 3e a5 51 da 3d
       0.35649386 0.7034415 0.13818887 0.10660104
000260 82 37 9f 3e d9 42 e7 3e d2 b5 98 3e b5 96 64 3e
       0.31097037 0.45168188 0.29826218 0.22323115
000270 07 68 08 3f 90 8f 4b 3e 93 d3 49 3f 7e b5 cb 3d
       0.53283733 0.19878983 0.7883846 0.09946726
000280 20 fc 5e 3d dd 11 fb 3d 25 aa 0b 3f f3 3a 8f 3e
       0.054439664 0.122592665 0.54556495 0.27974662
000290 e2 12 29 3f f9 99 c0 3e 2b b2 39 3f c9 6a 0a 3f
       0.6604444 0.37617472 0.7253749 0.5406919
0002a0 7f 9f 8c 3e 36 13 71 3f 0d 55 fe 3c 73 87 1e 3e
       0.27465436 0.9416994 0.031046415 0.15481357
0002b0 13 c1 3e 3f 17 0c 01 3f d9 4f de 3e 7e 8a 79 3c
       0.7451336 0.5040907 0.43420294 0.015230773
0002c0 2b 64 30 3f 87 06 3f 3e 4e 4d 16 3e b7 58 38 3f
       0.68902844 0.18654834 0.14677927 0.7201037
0002d0 06 e3 24 3f b7 01 30 3f 80 67 e0 3e 6e 51 f7 3e
       0.6440891 0.68752617 0.43828964 0.48304313
0002e0 17 74 ab 3e c1 9c 5f 3e 44 c6 ec 3e b2 ad 4b 3f
       0.33487007 0.2183714 0.46245015 0.79561913
0002f0 2a 4b 33 3f cc f9 77 3f 1f ae a7 3e 51 e0 83 3d
       0.70036566 0.96865535 0.3275003 0.06439269
000300 4b 2f 0b 3f 62 88 50 3f cf cf 9f 3e 80 a0 69 3f
       0.5436904 0.81458104 0.31213233 0.9126053
000310 97 a6 90 3c d6 3c 12 3f 9f 29 6c 3f a8 34 6f 3f
       0.017657561 0.5712408 0.9225101 0.9343972

model.layers.0.mlp.gate_proj.weight f4 [10, 20]
000000 4c 20 19 3e 99 40 7b 3f 47 96 25 3f 39 68 99 3e
       0.14953727 0.98145443 0.6468243 0.29962328
000010 6d 20 3d 3f df 39 70 3f 48 21 53 3f bc 10 5c 3f
       0.738776 0.93838304 0.8247266 0.85963035
000020 db 83 1a 3f cb 67 54 3f 0a 6f 2f 3f 8d 04 7f 3f
       0.60357445 0.82970876 0.6852881 0.9961632
000030 19 1d 55 3e 75 d9 19 3f a0 4c cc 3e fb 6c 03 3f
       0.20811881 0.6009744 0.3990221 0.51338166
000040 e6 4b ea 3e 65 1a 29 3f 93 f0 e7 3e f0 c9 23 3e
       0.4576103 0.660559 0.4530073 0.15995002
000050 8f 37 a4 3e ac 5c 17 3f 0c 23 21 3f 7e 9c 10 3e
       0.32073638 0.5912578 0.629441 0.14122197
000060 8b 60 9d 3e 50 86 1e 3d 14 4a 4a 3f 2d 94 39 3f
       0.3073772 0.03870231 0.79019284 0.72491723
000070 df da 18 3e 93 bf 59 3f d0 1f 36 3f 09 da d9 3e
       0.14927243 0.85057944 0.7114229 0.4254916
000080 75 4c 5f 3f 67 47 07 3f d7 47 6b 3e 01 15 14 3f
       0.8722604 0.52843326 0.22976623 0.5784455
000090 21 5e 3c 3f eb a8 11 3f 13 32 83 3e 2d d2 db 3e
       0.7358113 0.56898373 0.2562414 0.4293379
0000a0 8f 02 55 3f 7b ea 8c 3e cb c1 07 3f b0 b8 a7 3e
       0.8320703 0.27522644 0.5303008 0.32758093
0000b0 4d f5 bd 3e 71 95 01 3e d0 4a 29 3f dc 8d 7d 3f
       0.37101212 0.12654664 0.6612978 0.99044585
0000c0 1c 24 b5 3e 3f 25 22 3f fd 7e 3d 3f d1 84 a9 3e
       0.35379112 0.63338083 0.74021894 0.33109143
0000d0 c6 90 2e 3f d3 11 7c 3f 55 87 4d 3e 32 d3 6d 3f
       0.68189657 0.984647 0.20071156 0.92900383
0000e0 68 44 58 3d e4 e8 34 3e fc e0 19 3e 07 e3 9d 3d
       0.052799612 0.17666966 0.15027231 0.07709318
0000f0 d1 70 ef 3c c6 12 7a 3e e1 3e 9a 3e bb ff 21 3e
       0.0292286 0.24421224 0.30126098 0.1582021
000100 bc da 68 3e f4 21 d2 3e e0 6d de 3e 59 7c 76 3f
       0.2273969 0.4104153 0.43443203 0.9628349
000110 7e 6a 20 3f c6 cf 90 3e 58 38 f0 3e 9b 7b 28 3f
       0.62662494 0.2828352 0.46917987 0.65813607
000120 a8 6f f6 3e 8d f1 a6 3d c2 03 14 3e 53 f6 62 3f
       0.48132062 0.08151541 0.14454558 0.8865711
000130 b3 f4 89 3e c3 5e b1 3e 58 49 8f 3e ad a6 76 3f
       0.26944503 0.3464261 0.27985644 0.9634808
000140 77 8f 13 3f 00 36 f7 3e 93 48 f7 3e 85 83 fe 3e
       0.57640785 0.48283386 0.48297557 0.49709716
000150 54 7e a3 3e c6 c0 21 3f 97 e3 4f 3f 92 12 0f 3f
       0.31932318 0.63184774 0.8120665 0.5588771
000160 e4 72 6d 3f 48 62 35 3f 38 a6 f8 3e 41 df 15 3f
       0.92753434 0.7085309 0.48564315 0.58543783
000170 bd 84 42 3d d7 b7 9d 3e 1a 0e 71 3e 5e 82 8a 3e
       0.04748987 0.3080432 0.23540536 0.27052587
000180 fc 9b 7c 3f 15 03 89 3e ef 20 75 3f e6 5a 44 3d
       0.98675513 0.26760164 0.9575338 0.04793825
000190 b1 6b 57 3f 91 2d fc 3e 21 f4 40 3f 48 95 bc 3b
       0.841487 0.49253514 0.7537251 0.0057551004
0001a0 40 c9 e7 3e 34 5b 3f 3e a7 f9 b0 3e 34 1a 7a 3f
       0.4527073 0.18687135 0.3456547 0.9769623
0001b0 c0 49 73 3f 4f a2 44 3f c7 8f 08 3f be 53 47 3e
       0.9503441 0.76810163 0.53344387 0.19465539
0001c0 9a fe a1 3e cd 9c dc 3e 76 c5 67 3f a5 0e f4 3e
       0.31639558 0.4308838 0.90535676 0.47667423
0001d0 3a 74 76 3f 17 c6 31 3f 19 7e 4c 3f e5 48 f2 3e
       0.962711 0.69442886 0.7987991 0.4732124
0001e0 9f c2 20 3f a7 86 09 3f 28 22 24 3f d5 d3 cc 3e
       0.6279697 0.5372109 0.6411462 0.40005365
0001f0 77 30 a1 3e 14 61 25 3f e2 de 26 3f f7 11 ff 3e
       0.31482288 0.64601254 0.6518384 0.49818394
000200 08 57 00 3f f7 27 89 3e e4 69 91 3d d4 24 9e 3e
       0.501328 0.26788303 0.07100275 0.30887473
000210 b9 ae 6c 3e 2f 12 df 3e 9a 0d 57 3f 8f 5b b3 3e
       0.23113526 0.4356856 0.8400513 0.3503079
000220 5a 8e 7c 3e c2 e9 56 3f 4b f7 9d 3c 51 3d 39 3f
       0.24663678 0.83950436 0.019282958 0.72359186
000230 48 36 60 3f c1 f0 1d 3f f6 21 15 3f 74 d9 1a 3f
       0.87582827 0.61695486 0.58254945 0.6048806
000240 ed 11 1a 3f 99 69 42 3f be 37 49 3c 99 a7 fb 3e
       0.601836 0.7594238 0.012281356 0.49151304
000250 fc e2 9e 3e 19 bc d6 3e 78 23 c9 3e da 73 97 3e
       0.3103255 0.41940382 0.39284873 0.29580575
000260 f3 fa 41 3f bc 5d 0a 3f b0 c2 0a 3f dd de c2 3e
       0.75773543 0.5404928 0.5420332 0.38060656
000270 b8 3b d3 3e 04 34 2f 3f 9f c6 47 3e e6 0c 77 3e
       0.412565 0.68438745 0.19509362 0.24126014
000280 8b bd 63 3c b8 15 31 3f a8 f3 1d 3f e4 cf 29 3e
       0.013900171 0.69173765 0.61699915 0.1658321
000290 f0 33 5e 3f 5c 5c 8d 3e 3c 5c 69 3f b6 59 d8 3d
       0.86798 0.27609527 0.91156363 0.10563986
0002a0 ec 02 57 3f 2d c3 49 3f 25 cc 09 3f db 15 91 3e
       0.83988833 0.7881344 0.53827125 0.28336987
0002b0 ce 64 82 3d 76 14 02 3f 3e f5 c9 3e d3 a6 ba 3e
       0.06366883 0.5081247 0.39444917 0.36455402
0002c0 b7 4a 7a 3f bb a2 ec 3e 9b 0c 89 3d ff 55 36 3f
       0.97770256 0.46217903 0.066918574 0.7122497
0002d0 bc cf 64 3f 58 0d 16 3e ee 54 15 3e ce 55 6c 3f
       0.8937948 0.14653528 0.1458318 0.9231843
0002e0 53 55 eb 3e 6c 0d bc 3d a5 49 5e 3f f7 00 21 3f
       0.45963535 0.091822475 0.8683112 0.628921
0002f0 cc 3a 85 3e 6b 4d 25 3f 9e e5 40 3f cd a8 3a 3f
       0.2602142 0.64571255 0.7535037 0.7291382
000300 39 08 12 3e 94 74 29 3f f2 d7 e6 3e 83 71 0b 3d
       0.14260949 0.6619351 0.45086628 0.0340438
000310 f7 e7 cc 3e b7 67 38 3f 6a 90 9e 3e bf 6a 7e 3f
       0.40020725 0.72033256 0.30969554 0.9938163

model.layers.0.mlp.up_proj.weight f4 [10, 20]
000000 13 ce 65 3f a5 98 36 3e d6 b7 6e 3f b0 65 e9 3e
       0.8976757 0.17831667 0.9324926 0.45585394
000010 5f bd 74 3f ee cf 73 3f fc 14 4b 3f 94 61 fa 3e
       0.9560146 0.9523915 0.79328895 0.4890257
000020 50 ca ac 3c 80 e9 48 3e 25 8f 60 3f fd 37 e6 3e
       0.021092564 0.19620323 0.8771842 0.4496459
000030 90 85 49 3e e1 6c 9b 3e 76 c8 3a 3e 26 9d 40 3f
       0.19679856 0.30356506 0.18240532 0.7523979
000040 10 4b 24 3f 88 c5 90 3e d2 5d 35 3f 7d b8 c1 3e
       0.64177036 0.28275704 0.70846283 0.37836066
000050 05 81 71 3f fe 08 49 3f e2 bd 30 3f 97 10 76 3e
       0.94337493 0.78529346 0.6903974 0.24029766
000060 0d 5b 40 3f 7e 4b 4f 3f d2 5a 40 3f 52 48 06 3f
       0.7513893 0.80974567 0.7513858 0.524541
000070 4f f8 20 3f 1a 33 bd 3e db d7 5b 3f ec ca 6f 3d
       0.6287889 0.3695305 0.85876244 0.05854313
000080 c4 2c 00 3f 63 2c 7d 3f 1f ce 65 3f 14 28 51 3f
       0.50068307 0.98895854 0.8976764 0.8170178
000090 f2 44 88 3e 6e aa d2 3d 67 38 80 3e 40 48 19 3f
       0.266151 0.10286413 0.25043032 0.5987587
0000a0 4d fd 12 3d 6c 76 25 3f 0c 0c ad 3e 10 dd b9 3e
       0.035886098 0.6463382 0.33798254 0.3630147
0000b0 06 08 42 3f 75 9e 4b 3e 1c 0c 11 3f 63 f2 5b 3f
       0.7579349 0.19884665 0.566591 0.8591673
0000c0 a1 2d 4f 3f a5 a5 04 3e 52 5c 5a 3f 7f e0 7f 3f
       0.80929 0.12953813 0.8529712 0.9995193
0000d0 97 90 15 3f 00 66 75 3f fa a2 05 3f be 3b 5e 3f
       0.5842375 0.95858765 0.5220181 0.8680991
0000e0 51 87 92 3e 97 d0 7f 3f 72 bd 1a 3f 7c f6 27 3f
       0.28618863 0.9992766 0.6044532 0.6561048
0000f0 20 a4 42 3f 40 c5 74 3f 11 d4 09 3f 99 62 53 3f
       0.76031685 0.9561348 0.5383921 0.82572323
000100 8c 12 34 3f 63 39 25 3f f4 c2 54 3f 59 96 61 3f
       0.703408 0.6454069 0.83109975 0.8812004
000110 bb 23 89 3d 14 d9 c0 3e a9 e1 af 3e 6e ed ed 3d
       0.06696268 0.37665617 0.34351853 0.11617552
000120 f5 19 65 3f 2b 52 7d 3f 29 be 7c 3f c1 41 3e 3f
       0.8949273 0.98953503 0.9872766 0.7431908
000130 4b a7 56 3f bb 7f 88 3e b2 18 1e 3f d0 dd 94 3e
       0.8384902 0.2665995 0.6175643 0.2907548
000140 7c bd 24 3d ff 4e 71 3f 37 cf 53 3f 33 40 98 3d
       0.04021977 0.94261163 0.8273806 0.0743412
000150 29 ab ee 3d de 33 0f 3d 66 2d ed 3e 2d 3d 33 3f
       0.1165374 0.034961574 0.463237 0.7001522
000160 02 27 03 3f 40 17 79 3f 3f 9a 1c 3f 0d fa 01 3d
       0.51231396 0.973011 0.6117286 0.031732608
000170 a6 00 10 3f fa 9f 78 3f e6 ed 7b 3f b1 93 01 3f
       0.5625099 0.97119105 0.9840988 0.50615984
000180 0a fc 50 3f a2 d3 11 3f 15 3c 8f 3e e7 36 ec 3e
       0.8163458 0.5696355 0.27975526 0.46135637
000190 a1 35 12 3f 62 1f 95 3e e4 12 70 3f 6b b4 7e 3f
       0.5711308 0.29125506 0.93778825 0.99494046
0001a0 2f f1 96 3e 51 5e 14 3e a7 2c 14 3f 9b 2f 02 3f
       0.29480883 0.14489104 0.57880634 0.5085389
0001b0 fb 87 f0 3e f2 ff a1 3b 46 b7 54 3f f8 64 41 3f
       0.46978745 0.004943841 0.83092153 0.7554469
0001c0 4a 81 35 3f b3 48 25 3f d1 b8 61 3f 50 80 92 3e
       0.70900404 0.64564055 0.8817263 0.2861352
0001d0 7c 6a 39 3f a1 88 3a 3e 34 49 a1 3e 56 7b ee 3e
       0.7242811 0.18216182 0.31501162 0.46578473
0001e0 43 4a ed 3d fa e2 e4 3e 11 89 2d 3f f3 36 1c 3f
       0.1158643 0.4470442 0.6778727 0.61021346
0001f0 8c 30 09 3f 01 8a b1 3e 17 4a e9 3d ae 0c 0d 3e
       0.535897 0.346756 0.11391085 0.13774368
000200 43 2a e5 3d f7 6b 9e 3e 12 05 68 3d 7c 07 04 3f
       0.111897014 0.30941746 0.05664546 0.5157392
000210 33 75 ca 3e 7c 97 2b 3d d8 0a 3f 3e bb fc 42 3f
       0.3954254 0.041892514 0.1865648 0.76166886
000220 6c a5 c4 3e c1 18 e9 3d 73 8c c0 3e c9 f5 d5 3e
       0.38407457 0.113816746 0.37607154 0.41789082
000230 e2 4e 0f 3e ea 5c 53 3f 65 7a 00 3f 71 66 2d 3e
       0.13994935 0.8256365 0.5018676 0.1693361
000240 c8 ee 4a 3f fe a5 10 3f bc 4b 3a 3f d5 9b 75 3f
       0.792706 0.56503284 0.7277181 0.95940906
000250 d2 2d 0a 3f 2b 24 1a 3e c7 28 07 3f 98 19 06 3f
       0.53976166 0.1505286 0.52796596 0.523828
000260 f0 42 4d 3f a2 53 f8 3e a0 a6 e9 3e 14 93 53 3f
       0.80180264 0.48501307 0.45634937 0.826463
000270 fa 08 0a 3f 13 16 4a 3f df f6 f9 3e 94 d8 4c 3f
       0.5391995 0.7893993 0.4882116 0.8001797
000280 bb bd 68 3f b9 d5 79 3f e7 42 b8 3e 1e 27 56 3f
       0.90914506 0.9759174 0.35988542 0.8365344
000290 e7 ae 1f 3f ec 26 d0 3e 92 62 45 3f 1d 28 78 3f
       0.62376255 0.40654695 0.7710353 0.9693621
0002a0 d9 82 f0 3e 55 6f 53 3f c9 eb d7 3e 1d 9a 60 3f
       0.4697483 0.82591754 0.42172077 0.8773516
0002b0 fd 89 fa 3d 86 8f 6d 3f 05 04 30 3f 8d 9e 55 3f
       0.122333504 0.92797124 0.68756133 0.83445054
0002c0 4e 23 e5 3d b2 7d 84 3e 32 70 29 3e 47 6c 34 3f
       0.111883745 0.25877148 0.16546705 0.7047772
0002d0 40 c8 b6 3e ed 7e 70 3f 6b ff 05 3f b6 53 19 3f
       0.35699654 0.93943673 0.5234286 0.5989336
0002e0 6f d4 71 3f 4b 50 6d 3f 1d 0f 8d 3e 61 8d 71 3f
       0.9446477 0.9270064 0.27550593 0.9435635
0002f0 08 ea 59 3f d2 ca df 3d e3 72 79 3f 76 23 80 3e
       0.8512273 0.10927357 0.9744093 0.25027055
000300 5d ce 23 3f 4b 4c b4 3e 43 a7 87 3d 04 2a 7b 3f
       0.6398676 0.35214457 0.066236995 0.98110986
000310 b0 62 39 3f 37 b1 af 3d e9 4f 6f 3f 58 6b 13 3f
       0.7241621 0.08578723 0.9348131 0.5758567

model.layers.0.post_attention_layernorm.bias f4 [10, 20]
000000 88 34 79 3f bf 68 04 3f f0 b0 31 3e 09 65 7d 3f
       0.9734578 0.5172233 0.17352653 0.9898229
000010 4e cb 67 3f f2 9b 5c 3f 95 74 15 3f a3 1a 07 3f
       0.90544593 0.86175454 0.58381015 0.5277502
000020 d4 80 f3 3e 86 59 3e 3d 68 5f d5 3d 8a a0 02 3f
       0.47559226 0.046472095 0.10418588 0.51026213
000030 f7 cb 43 3f 14 6d 77 3f c6 a0 c0 3c 83 00 61 3f
       0.764831 0.96650815 0.023514163 0.87891406
000040 44 f6 1e 3f 96 90 92 3e b4 31 2b 3f 0f cd e2 3e
       0.6209452 0.28625935 0.66872716 0.44297072
000050 f3 9a ed 3e a6 22 08 3f f6 74 33 3f 9b 63 f7 3e
       0.4640728 0.5317787 0.70100343 0.4831818
000060 5b b0 ce 3d 2c 94 dd 3b ca 2e 22 3d 2d 89 c7 3c
       0.10092231 0.006762048 0.039595403 0.024357403
000070 ec ed a4 3e 9a b3 1f 3f 02 96 60 3f 19 86 59 3f
       0.3221277 0.62383425 0.87728894 0.8497024
000080 63 f5 d8 3e 08 e7 1a 3d d2 38 07 3e 45 d1 39 3d
       0.42374715 0.037817985 0.13205269 0.04536559
000090 56 9b 73 3f 1d e2 7e 3f b1 49 c1 3d 7c c9 40 3f
       0.951589 0.9956377 0.09437884 0.7530744
0000a0 7b 4c 29 3f a9 07 b4 3e ad 15 36 3f 1a 23 fb 3e
       0.66132325 0.35162094 0.71126825 0.49050218
0000b0 18 12 19 3f 53 51 cb 3e 48 ed 62 3e 22 e7 03 3f
       0.59793234 0.39710483 0.22160828 0.51524556
0000c0 cb 97 8b 3e b7 fb 60 3f 59 e8 0a 3f 6a a6 7a 3f
       0.27264246 0.87884086 0.54260784 0.9791018
0000d0 38 36 02 3f 75 b8 48 3f 19 0f 0d 3f 06 24 54 3e
       0.5086398 0.7840646 0.5510116 0.20716867
0000e0 71 f4 35 3f 83 97 48 3f 6a 5a 7b 3f ad 6d a8 3b
       0.71076113 0.7835619 0.98184836 0.0051400275
0000f0 fd 74 be 3e 2a 0c 23 3f 7f ed 24 3f a1 93 0b 3f
       0.3719863 0.63690436 0.6442489 0.5452214
000100 d1 da df 3e c8 1f b6 3e 15 8f ca 3d 66 e6 01 3f
       0.4372163 0.35571122 0.09890572 0.50742185
000110 39 49 82 3e 2a 6c 23 3f ba 06 65 3f e6 92 33 3f
       0.2544649 0.6383692 0.8946339 0.70146024
000120 02 c7 69 3f 3b 41 ed 3e 66 5d bf 3e be 18 40 3e
       0.91319287 0.4633883 0.37375945 0.18759438
000130 5b d6 28 3f 14 d7 42 3d e0 e4 00 3e 0b 5d ed 3e
       0.6595208 0.047568396 0.12587309 0.4636005
000140 f9 1c 72 3f 0b 0c be 3c d2 39 e0 3d fa 4f 30 3f
       0.9457546 0.023199102 0.10948528 0.68872035
000150 4c 24 e0 3e 14 31 8a 3c 8a d8 f3 3c 1b c5 20 3e
       0.43777692 0.016869105 0.02976634 0.1570019
000160 df e4 26 3f de 90 06 3f 45 ad 85 3e c4 9e cd 3e
       0.6519298 0.525648 0.26108757 0.4016019
000170 ef 74 19 3f 44 83 66 3f 47 e2 75 3e ab e1 40 3f
       0.5994405 0.90044045 0.24012099 0.7534434
000180 f0 ca f3 3e 5b 43 9b 3e 91 02 93 3d 27 03 2c 3f
       0.47615767 0.30324826 0.07178224 0.6719231
000190 bd d7 3d 3f ae a7 77 3f e3 d1 1e 3f 74 2f 41 3f
       0.74157315 0.96740234 0.6203901 0.7546303
0001a0 b8 a1 4c 3f fe 4b 40 3d 9a 6c 76 3f b2 20 e6 3e
       0.79934263 0.04694747 0.9625946 0.4494682
0001b0 45 63 b6 3d 13 63 90 3e af 87 6b 3f ea 5a 7a 3f
       0.08905653 0.28200588 0.9200391 0.97794974
0001c0 d1 d2 42 3e b4 3d 02 3f b1 ba 32 3f ab e7 13 3f
       0.19025733 0.508754 0.6981612 0.5777537
0001d0 6a e5 a3 3e 75 8e 42 3e 34 2f e9 3e 9f 6f 5b 3f
       0.32010967 0.18999656 0.45543826 0.85717195
0001e0 28 fa 6c 3f 9a fc 57 3e c5 65 76 3f 0e 79 7f 3e
       0.9256921 0.21092454 0.9624904 0.24948522
0001f0 86 43 42 3f af 6e 67 3f 95 c3 c4 3e 21 c1 58 3f
       0.7588428 0.90403265 0.38430467 0.8466969
000200 ee fd 1c 3e ef 9d 92 3e ec 5a 40 3f b2 3f 5a 3f
       0.15331241 0.2863612 0.75138736 0.8525344
000210 f6 33 20 3f 3f 7e ed 3e 48 90 6e 3f 8c 11 1b 3f
       0.62579286 0.4638538 0.93188906 0.6057365
000220 13 29 a7 3e 6e 16 dc 3e 5a ab 70 3e 87 34 e3 3e
       0.32648525 0.42985862 0.23502865 0.44376013
000230 1a a8 ac 3c a1 d4 63 3f 5d 68 2b 3f 93 75 a2 3d
       0.02107625 0.8899632 0.6695612 0.07932582
000240 c5 de 60 3d c0 52 20 3f ce 36 3a 3d e0 b5 e1 3d
       0.05489995 0.62626266 0.045462422 0.11021018
000250 19 e0 bb 3e f9 a0 61 3f c9 ab 1a 3f b4 22 c6 3e
       0.3669441 0.8813625 0.60418373 0.3869835
000260 97 07 50 3d c7 72 3d 3f a2 f3 5d 3f 25 85 1f 3f
       0.05078849 0.7400326 0.8669988 0.6231254
000270 ca 99 53 3f 40 dd aa 3e 0e 2e 81 3e b5 dd 78 3f
       0.8265654 0.33371925 0.2523045 0.972133
000280 14 9b 5c 3f a2 ea 57 3f 01 f9 c1 3e e4 6e 75 3f
       0.8617413 0.84342396 0.37885287 0.9587233
000290 99 e2 8b 3e 29 5e 38 3f c8 d3 39 3f ce 87 2d 3d
       0.27321318 0.72018677 0.7258878 0.04236584
0002a0 fa f6 0f 3f be 0f 15 3f 4c 3d 61 3f 38 4e 2c 3d
       0.5623623 0.58227146 0.87984157 0.042066783
0002b0 87 17 07 3f 22 e1 73 3f d2 40 b5 3e 38 4a 4d 3f
       0.52770275 0.952654 0.35401016 0.80191374
0002c0 e7 b8 02 3f ed 5b 0d 3f fe ff 69 3f b6 32 30 3f
       0.5106339 0.5521839 0.9140624 0.6882738
0002d0 52 ce 70 3f 1a eb 3a 3f 2f 5e 73 3f 12 a8 0c 3f
       0.9406482 0.73014987 0.9506559 0.54943955
0002e0 7e 01 8a 3e fa b9 4e 3e 15 cb 23 3f 84 09 6e 3f
       0.26954263 0.20188132 0.63981754 0.9298327
0002f0 f1 be 8c 3e 5d 6d 99 3e 74 1d 68 3f 75 be 5e 3d
       0.27489427 0.2996625 0.9066994 0.054380853
000300 d9 62 08 3f 36 66 76 3f f5 ac 64 3f 4a 03 64 3f
       0.5327583 0.9624971 0.8932641 0.8906752
000310 d1 72 7a 3f 54 47 46 3e ff f9 ec 3e d7 3e 52 3f
       0.97831446 0.19363147 0.46284482 0.82127136

model.layers.0.post_attention_layernorm.weight f4 [10, 20]
000000 37 6a 34 3f c7 75 55 3f 7b b7 4a 3f 8d e5 25 3f
       0.7047457 0.8338284 0.7918622 0.6480339
000010 22 7a 57 3d c9 26 78 3f 24 36 2f 3e 8f fc 15 3f
       0.05260671 0.9693418 0.17110497 0.585885
000020 fa c2 46 3f 17 a9 d4 3e 75 43 8e 3e 9c 88 86 3e
       0.7764126 0.41535255 0.2778584 0.262761
000030 49 60 ae 3c 7d 2a 0e 3e bb a1 21 3f 89 b5 01 3f
       0.021286147 0.13883395 0.63137406 0.50667626
000040 a4 fd 79 3f ec a8 44 3e 2b 62 65 3f 99 6b 8c 3d
       0.9765265 0.19205064 0.8960292 0.0685646
000050 22 00 3c 3f 07 bf 04 3e 7c 47 73 3f 3c 2c d2 3e
       0.734377 0.12963496 0.9503095 0.41049373
000060 a3 00 b0 3d 6a ac 37 3f 6a 7e f0 3e 0b 3a 36 3f
       0.085938714 0.7174746 0.46971446 0.71182317
000070 50 6a cd 3e 1b b3 34 3f 0b 5a 44 3e b6 ed fe 3e
       0.40120173 0.70585793 0.19174974 0.49790734
000080 8a 32 5d 3e cd 81 56 3f 4b cf 83 3e de 84 32 3f
       0.2160131 0.8379181 0.2574409 0.6973399
000090 b7 44 38 3f 7c 9b 82 3e 1c 69 f2 3e 4d 1a 70 3f
       0.7197985 0.2550925 0.47345817 0.9379013
0000a0 8d dd 36 3f aa cc f8 3e 2a d7 2a 3d 6b 98 05 3e
       0.7143181 0.48593646 0.041709103 0.13046424
0000b0 01 de 51 3f ef 25 5c 3f 11 0c eb 3d 0d 77 7e 3f
       0.81979376 0.8599538 0.11476911 0.9940041
0000c0 6c 4a 79 3f 95 86 b6 3e f2 39 35 3f 64 ac 84 3e
       0.97379184 0.35649553 0.7079154 0.25912774
0000d0 1d 09 b3 3e 0f 3e bb 3d e0 ad 06 3f a5 d4 eb 3c
       0.3496789 0.09142696 0.5260906 0.02878792
0000e0 f6 25 0e 3e eb be 6a 3f 51 a3 5a 3f 36 93 18 3d
       0.13881668 0.9169757 0.8540545 0.037249766
0000f0 a9 b5 45 3f 8c fd 5b 3f 06 4b b0 3e aa 1f 32 3f
       0.77230316 0.85933757 0.34432238 0.69579566
000100 86 05 33 3e 6f 1d 23 3f 48 40 68 3e 0c da 44 3f
       0.17482576 0.6371679 0.22680771 0.76895213
000110 81 e0 bc 3e 84 88 42 3f b9 a1 b4 3d 88 b9 2f 3f
       0.36890033 0.75989556 0.08819909 0.68642473
000120 53 f0 14 3f 58 84 2a 3f db 7c b9 3d e8 0c 4e 3f
       0.58179206 0.6660819 0.090570174 0.80488443
000130 e9 1f ae 3e 2d 2b b0 3e 58 0c 94 3d fb a4 49 3f
       0.3400872 0.3440794 0.07228917 0.78767365
000140 32 03 5b 3f 7b 5a 8f 3e 80 11 19 3f 90 cf 16 3e
       0.8555175 0.2799872 0.5979233 0.14727616
000150 2d 54 f1 3e ab 65 73 3f cc fa 3d 3f a7 eb 7b 3f
       0.47134534 0.9507701 0.7421081 0.9840645
000160 5a 7f ad 3e 4b 13 10 3f 38 8d 94 3e 12 18 0c 3f
       0.33886224 0.5627944 0.2901399 0.5472423
000170 b7 23 89 3e 85 4a 5c 3f c3 86 7d 3e 67 06 b0 3e
       0.2678506 0.8605121 0.24758439 0.34379885
000180 11 3c 37 3d 04 49 5b 3f be dd 0b 3f 42 b8 87 3e
       0.04473502 0.8565829 0.54635227 0.26507765
000190 ef c5 17 3f 83 23 eb 3e 2f 86 fd 3e 5b 31 1c 3f
       0.592864 0.4592553 0.49516436 0.6101281
0001a0 29 69 b1 3d 11 8a 64 3f 9b c7 15 3e a5 b4 a4 3e
       0.08662636 0.8927317 0.14626925 0.3216907
0001b0 1c 98 c6 3e 2e c1 6e 3f f5 00 18 3e aa 1b 19 3f
       0.38787925 0.9326352 0.14844115 0.59807837
0001c0 54 72 2b 3e 0c ab b0 3e 69 95 4b 3e 7f 13 b2 3d
       0.16742831 0.34505498 0.19881214 0.08695125
0001d0 f8 11 be 3c 12 83 cb 3e c4 3b 16 3e 4e cc 94 3e
       0.023201928 0.39748436 0.14671236 0.29062122
0001e0 28 8a 22 3f 7c ec a0 3e ca f3 6e 3f b5 98 22 3f
       0.6349206 0.31430423 0.9334074 0.6351426
0001f0 14 41 61 3e 3e bf de 3e e8 a3 0f 3f 60 9e f1 3e
       0.21997482 0.4350528 0.56109476 0.47191143
000200 b7 11 78 3e e9 32 d6 3e 3b 96 11 3f ca 57 59 3f
       0.24225508 0.41835716 0.5686986 0.8489958
000210 5d 84 2b 3f fa 03 23 3f 4a f1 b5 3e 4e 0d e1 3e
       0.66998845 0.6367794 0.3553565 0.43955463
000220 28 b2 87 3e 4f 27 59 3e 67 15 61 3f 4c ea 46 3f
       0.2650311 0.21206401 0.8792328 0.7770126
000230 22 07 06 3f 63 0d 0c 3f 2d e1 a4 3e 7c f4 1a 3f
       0.52354634 0.54707927 0.32203045 0.60529304
000240 48 8a 06 3f a2 05 11 3f 3f 65 f0 3e ee 08 36 3f
       0.5255475 0.5664922 0.46952245 0.71107376
000250 67 36 b8 3e 70 d9 56 3f 6e 22 c3 3e 0a 8b 50 3f
       0.35979006 0.83925533 0.38112205 0.81462157
000260 4a 4d 27 3f e6 74 0f 3f 3f fd a0 3e a5 db 2f 3f
       0.6535231 0.5603775 0.3144321 0.68694526
000270 07 bb 3d 3f 84 fc 67 3f 08 9b 58 3f ba 53 33 3d
       0.74113506 0.90619683 0.8461156 0.04378102
000280 d3 bf a4 3e a9 00 b5 3d cf 48 03 3e 7e 61 70 3f
       0.321776 0.088380165 0.12820743 0.9389876
000290 34 0b 3c 3f c8 06 b3 3e c3 88 ea 3c 4c 23 37 3f
       0.73454595 0.3496611 0.028629666 0.71538234
0002a0 5f ea 08 3f ae 47 5a 3f 08 54 9e 3e 77 c0 db 3e
       0.5348262 0.85265625 0.30923486 0.42920277
0002b0 bc 91 38 3f be b3 5b 3f b8 f5 4c 3f 99 79 2f 3f
       0.72097373 0.8582114 0.8006244 0.6854492
0002c0 e0 c7 57 3f f8 01 7d 3f 2d 2a 5c 3e eb 67 53 3f
       0.8428936 0.9883113 0.21500464 0.8258044
0002d0 4d 84 0a 3f 17 29 18 3f 76 48 60 3f cb da a6 3c
       0.54108125 0.594377 0.87610567 0.020368
0002e0 59 f1 57 3f fb 34 53 3b f7 7e a0 3e 0b 91 8b 3e
       0.8435264 0.0032227624 0.31346866 0.27259097
0002f0 7f f3 2c 3f 07 1a 49 3e 80 e6 53 3f de 5f 1a 3e
       0.67559046 0.19638835 0.8277359 0.15075633
000300 ab ba 7c 3f 5b 1f 28 3f 04 f4 6e 3e 7b fb de 3e
       0.9872233 0.65672845 0.23335272 0.4355124
000310 6c a0 24 3f 1c 29 2f 3d 80 d2 11 3e 3a f7 b4 3e
       0.64307284 0.042763814 0.14240456 0.3534487
