mediapipe/modules/holistic_landmark/hand_recrop.tflite (tflite, 123792 bytes, 79 tensors)

conv2d/Kernel f4 [8, 3, 3, 3]
0	0x3e33534e	0.17512247
1	0xbdf925c5	-0.12165407
2	0xbddec7cb	-0.10877951
3	0xbd09ca75	-0.033640344
4	0x3df5b3a5	0.11997155
5	0xbe008b13	-0.12553053
6	0xbe922322	-0.2854243
7	0x3e336b88	0.17521489
8	0xbe54eb10	-0.20792794
9	0x3de69d79	0.11260504
10	0x3e39ffec	0.18164033
11	0x3d9284c5	0.0715423
12	0x3e74534d	0.23859902
13	0x3d81914b	0.063265406
14	0xbe10273f	-0.14077471
15	0xbd69ad1f	-0.057049867
16	0x3e52f8a8	0.20602667
17	0x3e79aacb	0.24381559
18	0xbd97a863	-0.07405164
19	0xbe547b59	-0.20750178
20	0xbe6f0a85	-0.23343857
21	0xbde777e5	-0.11302165
22	0xbd231a00	-0.039819717
23	0xbc20eded	-0.009822351
24	0xbf77e665	-0.9683593
25	0xbe81ebda	-0.25375253
26	0xbd88d0f2	-0.06680478
27	0x3ec14558	0.37748218
28	0x3e3eca40	0.1863184
29	0x3d817ec7	0.06323009
30	0x3ef0e15d	0.4704694
31	0xbe3fb024	-0.18719536
32	0xbd47cf59	-0.048781727
33	0xba313814	-0.00067603705
34	0x3cc2efc6	0.023795974
35	0xbdaab47b	-0.08335205
36	0x3ebeada2	0.37241846
37	0x3dabcc20	0.08388543
38	0x3b72d1f3	0.003705141
39	0xbc0e4273	-0.008682835
40	0x3dab59ba	0.08366723
41	0x3d2a254f	0.041539486
42	0xbe008bf9	-0.12553395
43	0xbe8b99dd	-0.27265826
44	0xbde29a6d	-0.11064611
45	0x3e97498c	0.295483
46	0xbe2b5a15	-0.16733582
47	0xbd25f42d	-0.040516067
48	0x3d80a387	0.0628119
49	0xbd9f4841	-0.07777453
50	0xbe359f06	-0.17736444
51	0xbe8780da	-0.26465493
52	0xbe60c636	-0.21950611
53	0xbea2545d	-0.3170499
54	0xbd133421	-0.035938386
55	0xbebc757c	-0.36808383
56	0x3e68946e	0.22712871
57	0x3e9bd965	0.30439296
58	0xbe9acfa0	-0.3023653
59	0x3d4f1b49	0.05056313
60	0x3cf9c528	0.03048952
61	0x3cb86f3e	0.022513982
62	0x3e2985c7	0.16554938
63	0x3d553905	0.05205633
64	0xbe52fd15	-0.20604356
65	0xbdd4c4f4	-0.10389128
66	0x3d144db5	0.03620692
67	0xbe796149	-0.24353518
68	0x3e6c6073	0.23083667
69	0x3e15b38e	0.14619276
70	0xbe09527f	-0.13410376
71	0x3e578ad0	0.21049047
72	0x3ea848f1	0.3286815
73	0xbe0a30c1	-0.1349516
74	0x3e950cf2	0.2911144
75	0x3da05f89	0.07830722
76	0xbee9db75	-0.45675245
77	0xbdacfb9c	-0.08446428
78	0x3eb3fccb	0.35153803
79	0xbed5e897	-0.41779014
80	0xbdcd74e0	-0.10032058
81	0xbe64cca8	-0.22343695
82	0x3d62807c	0.055298313
83	0xbee9ba76	-0.4565007
84	0x3d1ae6bf	0.037817713
85	0xbe72e458	-0.23719919
86	0xbe359c6a	-0.17735448
87	0xbe48f2ea	-0.19623914
88	0x3b823f12	0.0039748037
89	0xbde8d2a1	-0.11368299
90	0x3e29eae7	0.16593514
91	0x3d01c3e8	0.03168097
92	0xbdcf0797	-0.101088695
93	0x3dead142	0.11465694
94	0xba91c96e	-0.0011122653
95	0x3b16d2ab	0.0023013751
96	0x3dff4a41	0.12465335
97	0x3dc0bd78	0.09411138
98	0xbe57867a	-0.21047392
99	0x3e7f9607	0.24959575
100	0x3dc48b78	0.09596914
101	0x3da925af	0.08259141
102	0x3e852da3	0.2601138
103	0x3eb268e0	0.34845638
104	0x3dd10362	0.10205723
105	0x3da83351	0.08212913
106	0x3f07eb84	0.53093743
107	0x3ddf8fe2	0.10916115
108	0xbd880494	-0.06641498
109	0xbeb87120	-0.36023808
110	0xbedf62bc	-0.43630016
111	0x3d061e80	0.03274393
112	0xbed052ad	-0.40688077
113	0xbe8d8607	-0.27641317
114	0x3e8ba775	0.27276197
115	0x3c82a48d	0.015947605
116	0xbca17d2a	-0.019713003
117	0x3daf4d15	0.08559624
118	0xbdb7433a	-0.08948369
119	0x3d5fad68	0.054608732
120	0x3e6bc6ad	0.23025008
121	0xbe27942b	-0.16365115
122	0xbd9a6965	-0.07539634
123	0x3e35d8bc	0.17758459
124	0xbbc4585f	-0.00599198
125	0xbdfc3b13	-0.12315955
126	0x3e05336a	0.13007894
127	0x3b818e32	0.0039537186
128	0x3d97b572	0.07407655
129	0x3c81e4d3	0.015856182
130	0x3e39a805	0.181305
131	0x3c16e7e0	0.009210557
132	0x3e2962b9	0.16541566
133	0x3dae39fb	0.08507153
134	0x3e523289	0.2052709
135	0x3d61068d	0.054937888
136	0x3e42c71e	0.1902127
137	0xbdda0dc0	-0.10647154
138	0xbccd8cef	-0.025091616
139	0xbe7cecfb	-0.24699776
140	0xbda67d03	-0.08129313
141	0xbef9c200	-0.48780823
142	0xbec713d5	-0.38882318
143	0xbe41d91e	-0.1893048
144	0xbca28730	-0.019839853
145	0xbd2778c8	-0.04088667
146	0xbce0714e	-0.027397778
147	0x3d996c3b	0.074913464
148	0xbcd79cbc	-0.026319854
149	0x3db4688a	0.08809002
150	0xbe10959e	-0.14119574
151	0xbe3709e0	-0.17874861
152	0xbe77ab6f	-0.2418649
153	0x3e41930f	0.18903755
154	0x3e6445f2	0.22292307
155	0x3ec8eca6	0.39243048
156	0x3e9082b6	0.28224725
157	0x3eaa8835	0.33307043
158	0x3dfcb894	0.12339893
159	0x3e5c363a	0.21505061
160	0x3d7ebb97	0.06219062
161	0x3d4fb0b2	0.05070562
162	0x3e918577	0.28422138
163	0xbd46a302	-0.0484953
164	0xbd9ee61b	-0.07758733
165	0x3ea6b9a9	0.32563522
166	0x3e232b05	0.1593438
167	0xbc5aae87	-0.013347275
168	0x3e2156b6	0.15755734
169	0xba94f45e	-0.0011364331
170	0x3d921531	0.07132948
171	0xbc391d6f	-0.011298521
172	0x3eb45712	0.3522268
173	0x3e9ee145	0.31031242
174	0x3e5784a0	0.21046686
175	0x3dfb06ad	0.12257133
176	0x3e3f1c6c	0.18663186
177	0xbe1da95b	-0.15396635
178	0x3ce25748	0.02762951
179	0xbe618343	-0.22022729
180	0xbee164fd	-0.4402236
181	0xbe56fc53	-0.20994692
182	0x3bc0df27	0.005885977
183	0xbef8d1e2	-0.48597628
184	0xbd8ae9cd	-0.06782875
185	0x3e253422	0.16133168
186	0xbf1963ca	-0.5991789
187	0xbed7f34c	-0.42177808
188	0xbe123b38	-0.14280403
189	0xbe0f6e15	-0.14006837
190	0xbd38eba0	-0.045146585
191	0xb81fa66c	-3.8063547e-05
192	0xbd3bd0af	-0.045853313
193	0xbe7d9573	-0.24764042
194	0x3e08af4e	0.13348123
195	0x3eb8c5b8	0.36088347
196	0xbeb9f746	-0.36321467
197	0xbeeaa9d2	-0.45832688
198	0xbdc68242	-0.096928135
199	0xbe65a502	-0.22426227
200	0xbe509336	-0.20368657
201	0x3dd5fe93	0.10448947
202	0x3e974fb0	0.29552984
203	0x3cff170b	0.031138917
204	0xbc6d7c8c	-0.014495026
205	0xbf00637b	-0.50151795
206	0xbe98e60d	-0.29863015
207	0xbdaa1325	-0.08304433
208	0x3e0f9a9f	0.14023827
209	0xbe1d81a3	-0.15381484
210	0x3e118c00	0.14213562
211	0x3c0758ad	0.008260888
212	0x3e6fb356	0.23408255
213	0x3d2315f9	0.039815877
214	0xbf116b25	-0.56804115
215	0xbf1eb232	-0.61990654

conv2d/Bias f4 [8]
0	0x3ccf37ff	0.025295256
1	0x3e6c3f6d	0.2307107
2	0xbe82e47f	-0.25564954
3	0xbe62ffe0	-0.22167921
4	0x3e9f8eaa	0.31163532
5	0x3ee15f5c	0.44018066
6	0xbe24bb6c	-0.16087121
7	0x3d190371	0.037356798

p_re_lu/Alpha f4 [1, 1, 8]
0	0xbbfbf2c3	-0.0076888516
1	0xbea0674d	-0.31328812
2	0xbf2ee22f	-0.6831388
3	0xbe9d5dde	-0.30735677
4	0xbe21ec07	-0.15812694
5	0x3e2fe247	0.17176162
6	0x3f328125	0.6972831
7	0x3dca07ef	0.098647945

batch_normalization/Kernel f4 [1, 1, 1, 8]
0	0x40fa0bfb	7.8139625
1	0x402e398a	2.722262
2	0x401652da	2.3488069
3	0x40952a5f	4.6614223
4	0x4014dc49	2.3259451
5	0x407f32a4	3.9874659
6	0x406d14cc	3.7043943
7	0x412a0cbe	10.628111

batch_normalization/Bias f4 [8]
0	0xbe04cf12	-0.12969616
1	0xbef705de	-0.48246664
2	0xbe40c656	-0.18825659
3	0xbf63b652	-0.88950074
4	0xbe0156a9	-0.12630714
5	0xbf963034	-1.173346
6	0x3fe59a9e	1.793781
7	0x3fa14b81	1.2601167

p_re_lu_1/Alpha f4 [1, 1, 8]
0	0x3dac3afc	0.08409688
1	0x3f1482c2	0.5801202
2	0x3ecbe5fe	0.39823908
3	0x3ef3bb56	0.47603863
4	0x3ef21852	0.4728418
5	0x3f94f774	1.1638017
6	0x3e96f39f	0.29482743
7	0x3f5258f2	0.8216697

batch_normalization_1/Kernel f4 [1, 1, 1, 8]
0	0x408a14dc	4.3150463
1	0x400a3b08	2.159853
2	0x407ed64d	3.98183
3	0x3f91c6a7	1.1388749
4	0x4026acf1	2.6043055
5	0x40202021	2.501961
6	0x3fc3e3c3	1.5303882
7	0x3f87ed47	1.0619286

batch_normalization_1/Bias f4 [8]
0	0xbf03b145	-0.51442367
1	0xbf759cb6	-0.95942247
2	0xbfb77c7e	-1.4334867
3	0xbf235b1b	-0.6381089
4	0xbf810b51	-1.0081578
5	0xbfbaf586	-1.4606178
6	0xbfc32217	-1.5244778
7	0x3de3df8d	0.11126623

conv2d_1/Kernel f4 [8, 2, 2, 8]
0	0x3e92c146	0.2866308
1	0xbe8a0584	-0.26957333
2	0x3e5589e0	0.20853376
3	0xbed41f34	-0.41430056
4	0xba34528e	-0.00068787567
5	0x3e898f9f	0.26867387
6	0xbe0ac10c	-0.13550204
7	0x3e5a163d	0.21297546
8	0x3da70aea	0.081563786
9	0xbd98dd61	-0.074641
10	0x3e039d0f	0.12852882
11	0x3ea31f89	0.31859997
12	0x3e071178	0.13190258
13	0x3ed53e05	0.4164888
14	0xbdfaa6a4	-0.122388154
15	0xbc8ff024	-0.017570563
16	0xbe1536b1	-0.14571644
17	0xbdd9d3f1	-0.10636128
18	0xbe4cd836	-0.20004353
19	0x3e2f855b	0.17140715
20	0x3d4e1635	0.050314147
21	0xbe85cb47	-0.2613165
22	0xbcf4a05f	-0.029861627
23	0xbd1d0244	-0.03833224
24	0x3ebe7a8e	0.37202877
25	0x3d65b97a	0.056085087
26	0xbe4bdc4f	-0.1990826
27	0xbd5c0f55	-0.05372556
28	0x3d097f94	0.033568934
29	0xbef9b631	-0.48771814
30	0x3de8d43e	0.11368607
31	0xbe19e7cc	-0.1502983
32	0xbda719b1	-0.08159197
33	0x3c8336d9	0.016017364
34	0xbd9d8107	-0.07690626
35	0xbeeaf801	-0.45892337
36	0xbdea932c	-0.11453852
37	0xbd036a60	-0.03208387
38	0xbeb35213	-0.35023555
39	0xbde9dca1	-0.11419035
40	0xbdc746d1	-0.09730304
41	0xbdc99b0f	-0.09844028
42	0xbe141ffa	-0.14465323
43	0xbed6af1e	-0.4193048
44	0xbe4b37cb	-0.19845502
45	0x3c9d3a90	0.019192964
46	0xbe3a69ef	-0.18204473
47	0x3ec7fb47	0.39058897
48	0xbe1c19f4	-0.15244275
49	0x3e582607	0.21108256
50	0xbea91870	-0.33026457
51	0xbe27f532	-0.16402128
52	0xbbe0c7ca	-0.006859754
53	0x3dbce3e2	0.09223153
54	0xbed0f8c1	-0.40814784
55	0xbe612c54	-0.21989566
56	0x3e8c3f77	0.2739217
57	0x3e612b88	0.21989262
58	0xbccc3a7b	-0.02493023
59	0xbea103e9	-0.31448296
60	0xbde67579	-0.11252875
61	0x3de4c024	0.111694604
62	0x3cfa8bd2	0.03058425
63	0x3e63d241	0.22248174
64	0x3cb7709a	0.02239256
65	0x3edc1d5d	0.42991152
66	0xbed41a9c	-0.4142655
67	0xbe003c81	-0.1252308
68	0x3e33da5e	0.17563769
69	0xbcafb993	-0.021450793
70	0xbdd85384	-0.10562804
71	0xbe625df7	-0.22106157
72	0xbc010fe5	-0.007877325
73	0x3d6adee5	0.057341475
74	0xbe9ded4d	-0.3084511
75	0x3dea258e	0.11432944
76	0x3e9eaf86	0.3099329
77	0x3d81e369	0.06342203
78	0x3e5b594d	0.21420784
79	0x3d45df6c	0.048308775
80	0xbe081027	-0.13287412
81	0xbdb363c1	-0.08759261
82	0xbf050c6d	-0.51972085
83	0x3e0ed954	0.13950092
84	0x3a637ea3	0.0008678233
85	0xbdaad7e5	-0.0834196
86	0x3e748c37	0.23881613
87	0xbe5feac6	-0.21866903
88	0x3e960db1	0.2930732
89	0x3eacdbf3	0.33761558
90	0xbecb1596	-0.39664906
91	0x3e42620b	0.18982713
92	0xbce6cb02	-0.028172974
93	0x3d15c73a	0.03656695
94	0xbdad2eed	-0.08456216
95	0xbc155d1b	-0.009116436
96	0xbdf9d4e5	-0.121988095
97	0xbe2839d9	-0.16428317
98	0xbe4d95d9	-0.20076694
99	0xbcc1c91e	-0.02365547
100	0x3d8eebf4	0.06978598
101	0xbd506112	-0.050873823
102	0x3de8b38d	0.113623716
103	0x3dec8ac4	0.11549905
104	0x3e6f92a6	0.23395786
105	0xbe6e8228	-0.23291838
106	0xbe5bb0b2	-0.21454123
107	0x3e02500a	0.12725845
108	0xbea5f2f2	-0.32411915
109	0x3e46a1b1	0.19397618
110	0x3ee542d7	0.44777557
111	0x3d679dde	0.05654704
112	0xbe7eb96f	-0.24875425
113	0x3dab2ccd	0.083581544
114	0x3d12cd16	0.035840116
115	0xbb9ba7b0	-0.0047502145
116	0x3de8b190	0.11361992
117	0x3dc23855	0.09483401
118	0xbc852d8c	-0.01625707
119	0xbcbb62db	-0.022874286
120	0x3e396e97	0.18108593
121	0x3dd5e5bb	0.10444208
122	0xbe55e7b0	-0.20889163
123	0x3e8af3d2	0.27139145
124	0xbed8619d	-0.42261973
125	0x3ec14e05	0.37754837
126	0x3eb3a936	0.35090035
127	0x3ddd9792	0.10819925
128	0xbf223f8b	-0.6337821
129	0xbd6000eb	-0.054688375
130	0xbd43f9e4	-0.047845736
131	0x3e1629a4	0.14664322
132	0x3b80f198	0.00393505
133	0x3e936927	0.28791162
134	0xbd623dcb	-0.05523471
135	0xbe4ab56e	-0.19795772
136	0xbf345fb0	-0.7045851
137	0x3d421a87	0.04738858
138	0x3e4c60a9	0.19958748
139	0xbe410043	-0.18847756
140	0x3e441ab9	0.19150819
141	0x3ee86d12	0.45395714
142	0xbe94bdbf	-0.29051015
143	0x3e274247	0.16333877
144	0xbf3d9ac6	-0.7406429
145	0x3e906461	0.28201583
146	0xbd4a20c7	-0.049347665
147	0x3d698b79	0.057017777
148	0xbdf2b144	-0.11850217
149	0x3eaffabf	0.34370992
150	0xbea6fba7	-0.3261387
151	0xbe2a91a4	-0.1665712
152	0xbea52d77	-0.3226125
153	0xbd146dae	-0.03623741
154	0x3c8a0dbc	0.016852252
155	0xbe3686e5	-0.17824896
156	0x3d2e6800	0.04257965
157	0x3f074dac	0.5285289
158	0xbdb6970a	-0.08915527
159	0x3d206397	0.039157476
160	0xbebab12a	-0.3646329
161	0xbe4b140c	-0.19831866
162	0x3d63101b	0.05543528
163	0xbe27c4a0	-0.163836
164	0x3eaf0938	0.3418672
165	0xbc94a301	-0.018144133
166	0xbe80ec0d	-0.25180092
167	0x3dd524e1	0.10407425
168	0xbdec9756	-0.115523025
169	0xbeee755a	-0.46573907
170	0xbca88806	-0.020572674
171	0x3dd78a16	0.10524385
172	0x3e54c385	0.2077771
173	0xbd1ae6e3	-0.037817847
174	0xbda90caf	-0.08254372
175	0xbb88d4f1	-0.004175775
176	0x3ea8dcb0	0.3298087
177	0xbea7f0a8	-0.32800794
178	0xbd269690	-0.04067093
179	0x3dbb58bd	0.09147785
180	0x3e9b4bbc	0.30331218
181	0xbd952aa5	-0.072835244
182	0x3e1b18a4	0.15146118
183	0x3d8b133a	0.067907766
184	0x3ddc7905	0.1076527
185	0xbe910bf7	-0.2832944
186	0xbd6d7332	-0.057971187
187	0x3e763a09	0.24045576
188	0x3df8f8ce	0.12156831
189	0xbd48b268	-0.048998266
190	0xbe328bc3	-0.17436127
191	0xbd778d9a	-0.060437776
192	0xbc97ef97	-0.018546863
193	0xbd6e96f3	-0.058249425
194	0xbdb13079	-0.086518236
195	0xbe2c15a2	-0.16805127
196	0xbd588e23	-0.052869927
197	0x3f15f8fb	0.5858304
198	0xbd66053d	-0.05615734
199	0x3e9c7aba	0.30562383
200	0xbd0c1e00	-0.034208298
201	0xbbbbd6c7	-0.0057323906
202	0xbe3c6682	-0.18398479
203	0xbea42f01	-0.3206711
204	0x3e076f78	0.13226116
205	0x3f09edca	0.5387846
206	0x3e205985	0.15659149
207	0x3e9056f0	0.28191328
208	0x3e80dd9b	0.25169072
209	0xbe692075	-0.22766288
210	0x3dccd4dc	0.10001537
211	0x3e0ee8ad	0.13955946
212	0x3e3ebc5c	0.18626541
213	0x3effcff9	0.49963358
214	0xbe532752	-0.20620468
215	0xbe3ec638	-0.18630302
216	0x3da6abbd	0.08138225
217	0xbe828a26	-0.25496024
218	0x3ea7a9f5	0.32746854
219	0x3eade706	0.3396532
220	0x3e1352a5	0.14386995
221	0x3f019cc0	0.50629807
222	0x3e4c3f79	0.19946088
223	0x3df7e126	0.121034905
224	0xbe52748e	-0.20552275
225	0x3d8def7f	0.06930446
226	0xbd564075	-0.052307565
227	0xbecb6d16	-0.39731663
228	0x3dbfe8ee	0.093706
229	0x3d1e86fc	0.03870295
230	0x3e7d7ba6	0.247542
231	0x3ea50809	0.32232693
232	0x36f2ad90	7.2323674e-06
233	0x3d64d833	0.055870246
234	0x3d818572	0.06324281
235	0xbe6f27c6	-0.23355016
236	0x3d25fac4	0.04052235
237	0xbe26ea0a	-0.16300216
238	0x3ea21965	0.3166
239	0x3e8db486	0.2767679
240	0x3d64bab5	0.05584212
241	0xbd025cc5	-0.031826753
242	0x3b7979e2	0.0038067033
243	0xbed41031	-0.41418603
244	0x3e02ca08	0.12772381
245	0xbe09a6b4	-0.13442498
246	0x3e8fd192	0.28089577
247	0x3e810efb	0.25206742
248	0x3e23d9ce	0.16001055
249	0xbd4082d4	-0.046999767
250	0x3b8d0527	0.0043035927
251	0xbf03ae1d	-0.5143755
252	0x3ea5e31a	0.32399827
253	0xbec0f2bc	-0.37685192
254	0x3ea5f7ad	0.32415524
255	0x3e474c18	0.19462621

conv2d_1/Bias f4 [8]
0	0x00000000	0.0
1	0x00000000	0.0
2	0x00000000	0.0
3	0x00000000	0.0
4	0x00000000	0.0
5	0x00000000	0.0
6	0x00000000	0.0
7	0x00000000	0.0

p_re_lu_2/Alpha f4 [1, 1, 8]
0	0xbf32ddfc	-0.6986997
1	0xbf1a20ad	-0.6020611
2	0x3edf466f	0.43608424
3	0x3e57f501	0.21089555
4	0x3ed4cce7	0.41562578
5	0x3f0e5c34	0.5560944
6	0xbe2ac2fe	-0.16675946
7	0x3f586675	0.8453134

batch_normalization_2/Kernel f4 [1, 1, 1, 8]
0	0x3f625485	0.88410217
1	0x3f72db76	0.9486612
2	0x3ee38ac3	0.44441804
3	0x3f85ee97	1.0463437
4	0x3f2264ed	0.6343525
5	0x3f97640a	1.1827404
6	0x3f22e46d	0.636298
7	0x3e88082b	0.26568732

batch_normalization_2/Bias f4 [8]
0	0xbeef0ba4	-0.4668857
1	0xbf9cbbff	-1.2244872
2	0xbe19c2d0	-0.15015721
3	0x3e3bd99c	0.1834473
4	0xbfcc3cc5	-1.5956045
5	0xbee21104	-0.44153607
6	0xbf2ef06c	-0.68335605
7	0x3ff94039	1.9472724

depthwise_conv2d/Kernel f4 [1, 3, 3, 8]
0	0xbd226bfd	-0.039653767
1	0xbdebadae	-0.11507736
2	0xbe25f1d8	-0.16205537
3	0x3de95f51	0.11395133
4	0x3c841261	0.016122045
5	0x3d3bfc91	0.045895163
6	0x3de75540	0.11295557
7	0x3d980f1b	0.07424756
8	0xbdf68c51	-0.12038482
9	0xbe37ee10	-0.17961907
10	0xbdabf9e9	-0.08397276
11	0xbde45910	-0.111498
12	0x3e09c22c	0.13452977
13	0x3e12c288	0.1433202
14	0x3d5520e2	0.052033313
15	0xbda841ce	-0.08215676
16	0xbbcf1f71	-0.006320887
17	0x3c3b35bf	0.011426388
18	0x3d7d5cc5	0.06185605
19	0x3e4bf635	0.1991814
20	0xbec869a0	-0.39143085
21	0xbd27f52d	-0.041005302
22	0x3d444b3f	0.047923323
23	0x3ea3e8d1	0.32013562
24	0xbe011f9c	-0.12609714
25	0xbdc7453c	-0.09730002
26	0x3dd08f1f	0.10183548
27	0xbda10647	-0.078625254
28	0x3ce98338	0.028504953
29	0x3ec4c621	0.3843241
30	0x3e828160	0.2548933
31	0x3e34d1b7	0.17658125
32	0xbcd0e095	-0.025497714
33	0x3e15e791	0.14639117
34	0x3ecb1792	0.3966642
35	0xbe1e0040	-0.15429783
36	0x3eca3c93	0.3949934
37	0x3da29088	0.079377234
38	0x3e353291	0.17695071
39	0xbd6bef1e	-0.057601087
40	0xbdaff556	-0.08591716
41	0xbd8352a2	-0.06412245
42	0x3df3394b	0.11876162
43	0x3e315840	0.17318821
44	0xbe2ec7fd	-0.17068477
45	0xbe18ac9b	-0.14909594
46	0x3debe44e	0.11518155
47	0x3eecef59	0.46276358
48	0xbdbc2510	-0.091867566
49	0xbdbd6ac2	-0.09248878
50	0xbd172bdd	-0.036907066
51	0xbe8c51d8	-0.27406192
52	0xbee10e09	-0.4395602
53	0x3e308a93	0.17240362
54	0x3e204922	0.15652898
55	0xbf0f4e43	-0.5597879
56	0xbe950db3	-0.29112014
57	0x3d931411	0.07181562
58	0x3ec4683d	0.38360777
59	0xbed3b1da	-0.41346627
60	0x3e87262d	0.26396313
61	0xbefa6267	-0.489032
62	0x3e0aa8d4	0.13540965
63	0xbeb6820e	-0.356461
64	0xbe81b50e	-0.25333446
65	0xbe8f83ec	-0.28030336
66	0x3dd1962b	0.102337204
67	0xbdfe662c	-0.124218315
68	0x3e575572	0.21028689
69	0xbeb2608f	-0.34839293
70	0xbd3296a9	-0.043600712
71	0x3cc479a5	0.023983786

depthwise_conv2d/Bias f4 [8]
0	0x00000000	0.0
1	0x00000000	0.0
2	0x00000000	0.0
3	0x00000000	0.0
4	0x00000000	0.0
5	0x00000000	0.0
6	0x00000000	0.0
7	0x00000000	0.0

conv2d_2/Kernel f4 [16, 1, 1, 8]
0	0x3ed4f262	0.41591173
1	0xbe15da07	-0.14633952
2	0x3e2e9bbf	0.170516
3	0x3f201430	0.62530804
4	0xbe6b4b88	-0.22978032
5	0xbd466a45	-0.04844119
6	0xbf2691e3	-0.65066355
7	0xbf25096a	-0.6446749
8	0x3eba9983	0.36445245
9	0x3cf201fa	0.029541958
10	0xbe535d24	-0.20640999
11	0xbe3a7621	-0.18209125
12	0xbf37d74d	-0.718129
13	0x3f1038a0	0.563364
14	0xbf871a04	-1.0554814
15	0xbe5837e6	-0.21115074
16	0x3ea4a739	0.3215883
17	0xbe5528ba	-0.20816317
18	0x3ef7d59c	0.4840516
19	0x3ed695a4	0.41911042
20	0x3f5bfc9e	0.8593234
21	0xbc0240ee	-0.007950051
22	0xbe3b166e	-0.18270275
23	0x3e3fab44	0.18717676
24	0x3e7bbae7	0.24583016
25	0x3ca82ec4	0.020530112
26	0x3daea303	0.08527186
27	0x3e019715	0.1265529
28	0x3ddca134	0.107729346
29	0xbdce1098	-0.10061759
30	0x3e9ae193	0.30250224
31	0xbb8fcd82	-0.004388512
32	0xbf004e12	-0.50119126
33	0xbf23d1f0	-0.63992214
34	0x3dec3eb3	0.115353964
35	0x3ea20374	0.3164326
36	0xbef4210b	-0.4768146
37	0x3e147b2e	0.14500114
38	0x3eaaeb47	0.33382627
39	0x3e3c0b1c	0.18363613
40	0x3e0b985f	0.13632344
41	0x3da2fe22	0.07958628
42	0x3ce322d0	0.02772656
43	0xbf03fabe	-0.5155448
44	0x3c6cd95e	0.014456121
45	0xbdd7ce0e	-0.10537349
46	0x3e6d6f22	0.23186925
47	0xbd059639	-0.032613967
48	0x3e7e7ebf	0.24853037
49	0x3e8f47a6	0.2798435
50	0xbebd1248	-0.3692801
51	0x3ebe1b54	0.37130225
52	0x3e98e67d	0.2986335
53	0xbe83d47a	-0.25748044
54	0x3e5eeac5	0.21769245
55	0x3ec5c25c	0.38624847
56	0x3e0c1a2b	0.13681857
57	0x3d8e6c52	0.06954254
58	0x3ef9df9e	0.4880342
59	0xbcc722ae	-0.024308529
60	0xbd9dc366	-0.07703285
61	0x3e826a94	0.25471938
62	0x3e09d8d7	0.13461624
63	0xbe10d56c	-0.14143914
64	0x3df8dcf9	0.12151522
65	0xbd35e1c9	-0.04440478
66	0x3cd0fdd1	0.025511654
67	0x3e3db0f1	0.18524529
68	0xbcfc66ac	-0.030810677
69	0x3f04b156	0.51833093
70	0x3c57fb1b	0.013182427
71	0x3bb10332	0.0054019922
72	0x3e65bb90	0.2243483
73	0x3e421ca1	0.18956234
74	0xbf1a4d98	-0.6027465
75	0xbd51840c	-0.05115132
76	0x3d840442	0.064461246
77	0x3e0ad6ba	0.13558474
78	0x3ea60ec0	0.32433128
79	0xbedd00db	-0.43164715
80	0x3d495a38	0.049158305
81	0x3d8d7c27	0.06908446
82	0xbdcfbd0c	-0.1014348
83	0xbb629b6c	-0.0034577502
84	0x3e338bc5	0.17533787
85	0x3e94a926	0.290353
86	0xbea6f49b	-0.32608494
87	0x3f2593f1	0.64678866
88	0x3dd39a83	0.10332205
89	0x3e245097	0.16046368
90	0x3b442c22	0.0029933532
91	0xbf055ca9	-0.52094513
92	0xbc33ac1c	-0.010966327
93	0xbf24ea78	-0.6442027
94	0xbe081595	-0.13289483
95	0xbf13e198	-0.57766104
96	0xbed31a17	-0.41230842
97	0x3e82ce28	0.2554791
98	0xbf2d8ee3	-0.6779615
99	0xbe907c3e	-0.2821979
100	0xbeb84291	-0.35988286
101	0x3dc80d82	0.097682014
102	0xbd318b4d	-0.04334574
103	0xbefda87b	-0.49542603
104	0x3d827f29	0.0637191
105	0x3d983a40	0.07432985
106	0xbcbe6e5c	-0.023245983
107	0xbc9e8a9f	-0.019353209
108	0xbf0f91f8	-0.56082106
109	0xbd7b25e5	-0.061315436
110	0xbdc1f485	-0.094704665
111	0x3e80429e	0.25050825
112	0x3f1c0d97	0.60958236
113	0xbe066687	-0.13125049
114	0x3daa0952	0.08302559
115	0x3ef6fda7	0.48240396
116	0x3effd457	0.4996669
117	0x3e38cf13	0.18047743
118	0x3e87d2f5	0.26528135
119	0x3f602381	0.87554175
120	0x3e7f9d82	0.24962428
121	0xbd93acb2	-0.072106734
122	0x3dc81fc5	0.097716846
123	0x3e339bb5	0.17539866
124	0xbd33d992	-0.043908663
125	0xbebdcaee	-0.37068886
126	0x3dcf9d87	0.10137468
127	0xbcee7049	-0.029106276

conv2d_2/Bias f4 [16]
0	0x00000000	0.0
1	0x00000000	0.0
2	0x00000000	0.0
3	0x00000000	0.0
4	0x00000000	0.0
5	0x00000000	0.0
6	0x00000000	0.0
7	0x00000000	0.0
8	0x00000000	0.0
9	0x00000000	0.0
10	0x00000000	0.0
11	0x00000000	0.0
12	0x00000000	0.0
13	0x00000000	0.0
14	0x00000000	0.0
15	0x00000000	0.0

p_re_lu_3/Alpha f4 [1, 1, 16]
0	0xbced98f2	-0.029003594
1	0x3c6b3fce	0.014358474
2	0xbe579124	-0.2105146
3	0x3f0e31c5	0.5554469
4	0x3ebc239d	0.3674592
5	0xbc42dd0b	-0.011893521
6	0x3f418772	0.755973
7	0x3df97b63	0.12181737
8	0xbe215938	-0.1575669
9	0x3ed75130	0.4205413
10	0x3db6204f	0.08892881
11	0x3de8e20f	0.11371242
12	0x3eb8cab5	0.36092153
13	0xbe5375f6	-0.20650467
14	0x3dc86609	0.09785087
15	0x3e1a43cf	0.1506493

batch_normalization_3/Kernel f4 [1, 1, 1, 16]
0	0x4037cf2c	2.8720198
1	0x3fc5290d	1.5403153
2	0x3fe9c9cd	1.826471
3	0x3f69139d	0.9104555
4	0x3f944716	1.1584194
5	0x3fa147d6	1.2600048
6	0x3fcf358d	1.6188217
7	0x3fb7c4af	1.4356898
8	0x40758f4f	3.8368719
9	0x402ae923	2.6704795
10	0x405e06e4	3.4691706
11	0x401568b4	2.3345156
12	0x403364a1	2.803017
13	0x406ec4df	3.730766
14	0x40287412	2.6320844
15	0x408fe284	4.496401

batch_normalization_3/Bias f4 [16]
0	0xbf041dbf	-0.5160789
1	0xbf59869d	-0.8497103
2	0xbe8dfda9	-0.2773259
3	0xbeed9f84	-0.46410763
4	0xbf07e797	-0.53087753
5	0xbfa3aeaa	-1.2787678
6	0xbfd01145	-1.625527
7	0xbee70f87	-0.45129034
8	0xbf152edb	-0.5827462
9	0xbe436169	-0.19080128
10	0xbf8bc46e	-1.091932
11	0xbf55370b	-0.83287114
12	0xbe2e942e	-0.17048714
13	0xbfa003dc	-1.2501178
14	0xbec52280	-0.38502884
15	0xbeb1199a	-0.34589845

conv2d_3/Kernel f4 [16, 2, 2, 16]
0	0xbe03e434	-0.12880021
1	0x3cf7c967	0.030247403
2	0x3c8bb420	0.017053664
3	0x3db0ef0a	0.08639343
4	0xbd8c518d	-0.06851492
5	0xbef06eea	-0.4695962
6	0xbd922ce8	-0.071374714
7	0x3e4da4a8	0.20082343
8	0xbe250523	-0.16115241
9	0xbdd55947	-0.10417419
10	0xbdf2051d	-0.118173815
11	0xbf03c521	-0.5147267
12	0x3d56e1ca	0.052461423
13	0xbea85880	-0.3288002
14	0xbbb6cee7	-0.005578864
15	0xbcbb506d	-0.022865498
16	0xbd415213	-0.047197413
17	0xbd21f27a	-0.039537884
18	0xbe11fb06	-0.14255914
19	0x3e8aac48	0.27084565
20	0xbdc66378	-0.09686941
21	0x3beff915	0.007323394
22	0xbeac0ab8	-0.33601928
23	0xbdc3e151	-0.0956446
24	0xbe85d7be	-0.2614116
25	0x3e5bab71	0.21452118
26	0xbe83a0e3	-0.25708684
27	0x3cbfce6e	0.023413863
28	0x3e191491	0.14949252
29	0xbe8503b2	-0.25979382
30	0xbd0b4827	-0.034004357
31	0xbe948744	-0.2900945
32	0x3e037870	0.12838912
33	0xb964186c	-0.00021752872
34	0x3d9caf71	0.0765065
35	0x3eb0222e	0.34401077
36	0xbe71d869	-0.2361771
37	0xbeac62cd	-0.3366913
38	0xbe481e08	-0.19542706
39	0xbe3ad069	-0.18243565
40	0xbe7018b2	-0.2344692
41	0xbe20f057	-0.15716682
42	0xbe4b1fc4	-0.19836336
43	0xbedc2fb8	-0.43005157
44	0xbd8dfc2f	-0.06932866
45	0xbe6b8382	-0.22999385
46	0xbca3c266	-0.019990157
47	0xbdc11463	-0.094277166
48	0x3ddccadf	0.10780882
49	0x3d300321	0.042971734
50	0xbdd3080d	-0.1030427
51	0x3ed5070d	0.41606942
52	0xbd8e7829	-0.069565125
53	0xbe060bbc	-0.13090414
54	0xbecae5ac	-0.3962835
55	0xbeaba145	-0.33521476
56	0xbe7b0366	-0.24513015
57	0x3e49b413	0.19697599
58	0xbe2e11f8	-0.16999042
59	0xbe47eb74	-0.19523412
60	0x3d77e624	0.060522214
61	0xbe8608e8	-0.2617867
62	0xbd31adbf	-0.043378588
63	0xbe5d70dc	-0.21625084
64	0xbe2f9c68	-0.17149508
65	0x3d92e094	0.07171741
66	0x3e029d33	0.12755279
67	0x3d3b7c45	0.04577281
68	0xbea00f6f	-0.31261775
69	0xbd98daf7	-0.07463639
70	0xbe4bcd56	-0.19902548
71	0xbe3c16bc	-0.18368047
72	0xbd93ceb6	-0.07217161
73	0xbd57f4b1	-0.05272359
74	0xbeb40594	-0.35160506
75	0xbe54105a	-0.20709363
76	0xbe59b4ff	-0.21260451
77	0xbc56671b	-0.013086106
78	0x3b5d52bf	0.0033771244
79	0xbeb3d08f	-0.35120055
80	0xbed7c1fb	-0.42140183
81	0xbd0b883c	-0.03406547
82	0x3c9d9284	0.019234903
83	0xbe08e30a	-0.13367859
84	0x3e05eea2	0.13079312
85	0x3e3fa1fe	0.18714139
86	0x3e41620d	0.1888506
87	0xbd46d5d9	-0.048543785
88	0x3d9aa44f	0.075508706
89	0xbe9b1725	-0.30291095
90	0xbe10b30a	-0.14130798
91	0xbdace972	-0.08442964
92	0x3db6db45	0.08928541
93	0x3e213c47	0.1574565
94	0x3ec504a6	0.3848011
95	0x3e4162b4	0.18885309
96	0x3dbac264	0.09119108
97	0x3ccea42c	0.025224768
98	0x3ceda444	0.029008992
99	0x3c44fbc6	0.012022918
100	0xbebdbaac	-0.37056482
101	0x3d6519c7	0.055932786
102	0x3c33a905	0.01096559
103	0xbe371a27	-0.1788107
104	0xbdd5cfb2	-0.10440005
105	0xbd0f45a3	-0.03497852
106	0xbda80e57	-0.0820586
107	0xbe2d1e01	-0.16905977
108	0xbeb71029	-0.35754517
109	0xbde5d8d0	-0.11222994
110	0x3cc0f896	0.023556035
111	0xbe8fe57a	-0.28104764
112	0xbece00e7	-0.40235063
113	0xbe451c48	-0.1924907
114	0x3bcaba5b	0.006186766
115	0xbe9b08e0	-0.3028021
116	0xbd0afbe5	-0.03393163
117	0x3e7d8172	0.2475641
118	0x3a229eed	0.00062034914
119	0x3dc10349	0.09424455
120	0x3e844030	0.2583022
121	0xbeb356ca	-0.35027152
122	0xbb6a6551	-0.0035765956
123	0xbea440c5	-0.32080665
124	0xbe2e953b	-0.17049114
125	0x3dc34ca8	0.095361054
126	0x3e98a3b2	0.2981239
127	0x3dc45be1	0.09587837
128	0x3ea99d03	0.33127603
129	0x3dc99cc0	0.09844351
130	0x3e61fa9c	0.22068256
131	0xbdf5cb2c	-0.120016426
132	0xbe73a40e	-0.2379305
133	0xbe75998f	-0.23984359
134	0x3d71263d	0.058874357
135	0x3e001d01	0.12511064
136	0xbe8cc0d2	-0.2749086
137	0xbe8e2286	-0.27760714
138	0xbdc62575	-0.09675113
139	0x3e03f34a	0.12885776
140	0xbe80611d	-0.25074092
141	0xbe0408d8	-0.12893999
142	0xbe860187	-0.2617304
143	0x3c182147	0.009285278
144	0x3e30722f	0.17231058
145	0xbde8dc38	-0.113701284
146	0x3eb875ef	0.36027476
147	0xbdde6ff8	-0.108612
148	0x3e1185de	0.14211223
149	0xbd7364db	-0.059422355
150	0x3d9548e1	0.07289291
151	0x3ea5b6b4	0.32365954
152	0xbe721461	-0.23640586
153	0x3c96fbb5	0.01843057
154	0xbdacf69c	-0.084454745
155	0xbd4cb5bf	-0.049978014
156	0xbc54f148	-0.012996979
157	0xbe89750c	-0.26847112
158	0xbe33480c	-0.17507952
159	0x3d587b48	0.052851945
160	0x3da2d883	0.079514526
161	0xbebdb96b	-0.37055525
162	0x3e2c7352	0.16840866
163	0x3c95273c	0.018207185
164	0x3e8593eb	0.26089415
165	0x3d7cb886	0.061699413
166	0xbd52fd81	-0.05151129
167	0x3ea37148	0.31922364
168	0xbefae071	-0.4899936
169	0x3dc489c6	0.09596591
170	0xbe07a7dc	-0.13247627
171	0xbd6c9048	-0.057754785
172	0xbdefdb5f	-0.117117636
173	0xbd117c7b	-0.035519104
174	0xbe3ffd76	-0.18749031
175	0x3ed9e0b2	0.4255424
176	0xbcf3ef8f	-0.029777316
177	0xbe82c717	-0.25542518
178	0x3c8ebd8d	0.01742437
179	0x3c082418	0.008309387
180	0x3f0937f5	0.5360101
181	0xbd890612	-0.06690611
182	0xbda82090	-0.08209336
183	0x3df9b59d	0.12192843
184	0xbcdde907	-0.027088655
185	0x3da1b525	0.07895879
186	0xbe8d2059	-0.27563742
187	0xbdb93070	-0.09042442
188	0xbd9cafba	-0.07650705
189	0xbe2400b4	-0.16015893
190	0x3e9ffa6b	0.3124574
191	0x3e228c75	0.15873893
192	0xbd6b3d3f	-0.057431456
193	0xbe706aa9	-0.23478188
194	0x3e8db835	0.276796
195	0x3dfba353	0.12287011
196	0xbdfd4230	-0.1236614
197	0x3e2817f7	0.16415392
198	0x3d661cac	0.056179687
199	0xbe491f7d	-0.19640918
200	0x3e199151	0.1499684
201	0xbea3f4bd	-0.32022658
202	0x3e1fcaee	0.15604755
203	0xbe25a16b	-0.16174857
204	0xbe8462ae	-0.25856537
205	0xbd1086c1	-0.03528476
206	0x3eda97bd	0.42693892
207	0x3ea26fb9	0.31725863
208	0xbe26c4a1	-0.16285945
209	0x3e22a598	0.15883482
210	0x3d537f23	0.05163492
211	0xbe398440	-0.18116856
212	0x3e9f9b25	0.31173053
213	0x3edd8d35	0.43271795
214	0x3eed41f3	0.46339378
215	0x3eb1f2eb	0.34755644
216	0xbe6f2df8	-0.2335738
217	0xbdb75c81	-0.089531906
218	0x3dc7deff	0.0975933
219	0xbcacafa1	-0.02107984
220	0x3db688c3	0.08912804
221	0x3e18e4f1	0.14931084
222	0xbd1ad83a	-0.037803866
223	0xbd396054	-0.04525788
224	0x3e34b78d	0.17648144
225	0xbe3405a2	-0.17580274
226	0xbc7de48b	-0.015496383
227	0xbda456b7	-0.08024352
228	0xbea8aedd	-0.3294591
229	0x3da1934e	0.07889424
230	0xbe86519d	-0.2623414
231	0xbeb13461	-0.34610274
232	0x3d0dd29e	0.03462469
233	0xbd9ea56d	-0.07746396
234	0xbdbb3122	-0.09140231
235	0xbe051ba2	-0.12998822
236	0x3e0a90d5	0.13531812
237	0xbe7b476c	-0.24538964
238	0x3d42cc51	0.047558133
239	0xbdc69a62	-0.09697415
240	0xbeee6282	-0.4655953
241	0xbea2563b	-0.31706414
242	0xbe06227e	-0.13099095
243	0xbd7e9cf2	-0.062161393
244	0xbda17639	-0.07883877
245	0x3eaa3d4c	0.3324989
246	0x3ddb7137	0.107149534
247	0x3d8415f3	0.06449499
248	0xbe13292e	-0.14371178
249	0xbd92bc85	-0.071648635
250	0x3e596d68	0.21233141
251	0x3c5d0fa8	0.013492502
252	0xbddf89b9	-0.109149404
253	0x3cbaf1a6	0.022820305
254	0x3e2ba544	0.16762263
255	0x3d4adf1b	0.049529176

conv2d_3/Bias f4 [16]
0	0x00000000	0.0
1	0x00000000	0.0
2	0x00000000	0.0
3	0x00000000	0.0
4	0x00000000	0.0
5	0x00000000	0.0
6	0x00000000	0.0
7	0x00000000	0.0
8	0x00000000	0.0
9	0x00000000	0.0
10	0x00000000	0.0
11	0x00000000	0.0
12	0x00000000	0.0
13	0x00000000	0.0
14	0x00000000	0.0
15	0x00000000	0.0

p_re_lu_4/Alpha f4 [1, 1, 16]
0	0x3e8dcbe8	0.2769463
1	0xbd95a9ed	-0.073078014
2	0x3e70718d	0.23480816
3	0xbe9a7d6f	-0.30173823
4	0x3f0c6986	0.54848516
5	0x3e951a4a	0.2912162
6	0x3d39638d	0.045260955
7	0x3e47b7c2	0.19503692
8	0xbd44467f	-0.047918793
9	0x3e0203e1	0.12696792
10	0xbda9eb18	-0.08296794
11	0x3dd06fd9	0.10177583
12	0x3de23e41	0.1104703
13	0xbec80946	-0.39069575
14	0xbd7c6dc4	-0.06162812
15	0x3e654a83	0.22391705

batch_normalization_4/Kernel f4 [1, 1, 1, 16]
0	0x3f1c8343	0.6113779
1	0x3f767d7a	0.9628521
2	0x3f080b13	0.531419
3	0x3f129a81	0.57267004
4	0x3eed9ad3	0.46407184
5	0x3ed99d48	0.4250281
6	0x3f3aecbd	0.73017484
7	0x3f1ecd41	0.6203194
8	0x3ef9110f	0.48645827
9	0x3eafa1f7	0.34303257
10	0x3e8cca8c	0.2749828
11	0x3ecd0935	0.40046087
12	0x3ed48bf4	0.41513026
13	0x3ef21f7b	0.47289643
14	0x3efadd67	0.48997042
15	0x3f077c8c	0.5292442

batch_normalization_4/Bias f4 [16]
0	0xbfa316c9	-1.2741328
1	0xbf73f1c9	-0.9529081
2	0xbfc1c439	-1.5138007
3	0xbf031156	-0.5119833
4	0xbecdd30c	-0.40200078
5	0xbff1a852	-1.8879492
6	0xbdd75fd7	-0.10516327
7	0xbd985f69	-0.07440073
8	0xbe00a6c6	-0.12563619
9	0xbaf7305a	-0.0018859014
10	0xbf99bbe7	-1.2010468
11	0xbfc5dc31	-1.5457822
12	0xbecd3ab1	-0.4008384
13	0xbed78756	-0.4209544
14	0xbebd9032	-0.37024075
15	0xbfa76ff5	-1.3081042

depthwise_conv2d_1/Kernel f4 [1, 3, 3, 16]
0	0xbd02c791	-0.031928603
1	0xbd436d06	-0.047711395
2	0x3cafe4c1	0.021471383
3	0x3c555d58	0.013022743
4	0x3de1b774	0.11021319
5	0x3e78ed27	0.24309216
6	0xbc0727c4	-0.008249227
7	0xbe029109	-0.12750639
8	0xbe087d97	-0.13329159
9	0xbe2b5a56	-0.16733679
10	0xbe673936	-0.22580418
11	0xbcf32bd1	-0.02968398
12	0x3e287474	0.16450673
13	0x3c67602f	0.014122053
14	0x3eae16ef	0.34001872
15	0x3dbff5b9	0.0937304
16	0xbd4d2842	-0.05008722
17	0xbe0111f3	-0.12604503
18	0x3dca62d8	0.09882134
19	0xbd523e9f	-0.05132925
20	0x3dc0780c	0.09397897
21	0x3ecc3e1e	0.39891142
22	0xbdc1cac5	-0.09462503
23	0xbe43f87b	-0.19137757
24	0x3cc0ef18	0.023551509
25	0xbd578aef	-0.05262273
26	0xbe6cb79b	-0.23116915
27	0x3e7ee31f	0.24891327
28	0xbdccad26	-0.09993963
29	0xbddaf014	-0.106903225
30	0x3e572f1f	0.21014069
31	0x3e1d1626	0.1534048
32	0x3d322074	0.04348798
33	0x3e91e4fc	0.28495014
34	0xbe539ddb	-0.20665686
35	0x3c205368	0.009785511
36	0x3de936e3	0.11387422
37	0xbd2c84f4	-0.04211898
38	0xbe3367dc	-0.17520088
39	0xbd5d17d4	-0.053977802
40	0xbd9607a1	-0.07325674
41	0xbcb85b29	-0.022504406
42	0xbea20591	-0.31644872
43	0x3eea1bbe	0.4572429
44	0x3da29297	0.07938116
45	0x3e61c75e	0.22048709
46	0xbd8580b6	-0.0651869
47	0x3dcb251d	0.09919188
48	0xbd853118	-0.065035045
49	0xbd2f4284	-0.042788044
50	0x3e0d3260	0.13788748
51	0xbe00ae58	-0.12566507
52	0x3d045916	0.03231152
53	0x3e0619e9	0.13095821
54	0xbd19f11d	-0.03758346
55	0x3d6f16f5	0.058371503
56	0x3f2473da	0.64239275
57	0xbdc2a2f0	-0.09503734
58	0x3e0ff42c	0.14057988
59	0xbe9b070d	-0.30278817
60	0x3e2b1b44	0.1670962
61	0x3dd9e85c	0.10640022
62	0xbe322c17	-0.17399631
63	0x3e6239b1	0.2209232
64	0xbe194276	-0.14966759
65	0xbdc5c97c	-0.09657571
66	0xbe44ff4f	-0.19238017
67	0xbea75e60	-0.3268919
68	0x3e4b39bc	0.19846243
69	0x3e1f1889	0.15536703
70	0xbe69dcce	-0.22838137
71	0x3e90bfbb	0.2827128
72	0x3efd3dc9	0.494612
73	0xbb6b3f48	-0.0035895873
74	0x3e8a9b1b	0.2707146
75	0x3d170eec	0.036879465
76	0xbe907043	-0.2821065
77	0xbddf35c1	-0.108989246
78	0xbe859a87	-0.26094458
79	0xbe16353e	-0.14668748
80	0x3e4364a5	0.19081362
81	0x3e5d2ede	0.2159991
82	0xbe17146e	-0.14753887
83	0xbdb31195	-0.08743588
84	0xbb8b8e3b	-0.0042588986
85	0xbe9c4bc8	-0.30526567
86	0xbe81c4dc	-0.25345504
87	0x3e1bf70c	0.1523096
88	0x3f14a5ef	0.58065695
89	0x3dde8a5f	0.10866236
90	0x3cc9282a	0.024555285
91	0x3e6e1931	0.23251797
92	0x3e53f3bd	0.20698448
93	0x3e77eb16	0.24210772
94	0xbea26dc4	-0.3172437
95	0xbea3eac8	-0.3201506
96	0xbe2f2a8c	-0.17106074
97	0xbd213c52	-0.039364167
98	0x3ce02486	0.027361166
99	0xbe5b7a57	-0.21433388
100	0xbdfe22f0	-0.124090075
101	0xbd304cd6	-0.043042026
102	0xbdb8ea88	-0.09029108
103	0x3e14250b	0.14467256
104	0xbed8ca05	-0.4234163
105	0xbead3751	-0.33831266
106	0xbe082bba	-0.1329793
107	0xbe8cda7c	-0.2751044
108	0xbeb91985	-0.36152282
109	0x3cc7709f	0.024345694
110	0xbdfaf91e	-0.122545466
111	0x3e6ff300	0.23432541
112	0xbd89cddc	-0.06728718
113	0xbd90b4c8	-0.07065731
114	0x3d89aee8	0.06722814
115	0xbcfaeeb6	-0.030631404
116	0xbeb77c31	-0.35836938
117	0xbea8b5f2	-0.32951313
118	0xbdeba979	-0.11506934
119	0x3e120a60	0.1426177
120	0xbe4a63eb	-0.19764678
121	0xbebd209b	-0.36938938
122	0x3cfe8e87	0.031073822
123	0xbed03b09	-0.4067004
124	0xbe05966b	-0.13045661
125	0x3e281cf1	0.1641729
126	0xbe90c4ea	-0.28275234
127	0xbce23b54	-0.02761618
128	0x3e962d0e	0.2933125
129	0xbd9c0c0d	-0.07619486
130	0x3e3b2312	0.18275097
131	0x3d8afef0	0.06786907
132	0xbe19652d	-0.14980002
133	0xbe47cda1	-0.19512035
134	0xbe327808	-0.17428601
135	0xbe8aa072	-0.27075535
136	0xbda29d47	-0.079401545
137	0xbe7b6da1	-0.24553539
138	0x3e6fa453	0.23402528
139	0x3d7d2aab	0.06180827
140	0xbe9561ff	-0.29176328
141	0x3e70125c	0.23444504
142	0xbe6a24e2	-0.22865632
143	0xbeb312d4	-0.34975302

depthwise_conv2d_1/Bias f4 [16]
0	0x00000000	0.0
1	0x00000000	0.0
2	0x00000000	0.0
3	0x00000000	0.0
4	0x00000000	0.0
5	0x00000000	0.0
6	0x00000000	0.0
7	0x00000000	0.0
8	0x00000000	0.0
9	0x00000000	0.0
10	0x00000000	0.0
11	0x00000000	0.0
12	0x00000000	0.0
13	0x00000000	0.0
14	0x00000000	0.0
15	0x00000000	0.0

conv2d_4/Kernel f4 [32, 1, 1, 16]
0	0x3ede8ccb	0.43466792
1	0x3ea59fdc	0.32348526
2	0x3ed609de	0.41804403
3	0xbe42e50a	-0.19032684
4	0x3cd44545	0.025911937
5	0x3cdd62d3	0.027024662
6	0x3dcbcdd3	0.09951367
7	0x3e6fdb87	0.23423587
8	0xbdbdb546	-0.09263091
9	0xbcb0c91f	-0.021580277
10	0xbedafc3c	-0.42770565
11	0xbe14eed2	-0.14544228
12	0xbd81c9d4	-0.06337324
13	0xbe63dce5	-0.22252233
14	0xbe779dab	-0.2418124
15	0x3e2d1ac9	0.16904749
16	0x3de5e639	0.11225552
17	0x3e94809a	0.29004365
18	0xbea73273	-0.32655677
19	0x3dca2253	0.09869828
20	0xbd31de09	-0.04342464
21	0xbe8ca7ab	-0.2747167
22	0xbf03bfeb	-0.5146472
23	0x3e10155d	0.1407065
24	0x3e6a4f22	0.2288175
25	0x3e81643e	0.2527179
26	0xbd79363b	-0.060842734
27	0x3f050e13	0.519746
28	0x3e2bb737	0.1676911
29	0x3ec2c28e	0.38039058
30	0xbed200fd	-0.4101638
31	0x3e1348e9	0.14383282
32	0xbf0b893b	-0.5450627
33	0xbc976ce4	-0.01848454
34	0x3d2d6802	0.042335518
35	0xbe26b18b	-0.16278665
36	0x3e2f75db	0.17134802
37	0x3e9d5c15	0.30734316
38	0xbf0731e3	-0.52810496
39	0x3ed01f3d	0.40648833
40	0xbd97453f	-0.073862545
41	0xbdfcf481	-0.12351323
42	0x3f08c11f	0.5341968
43	0xbf48ab4c	-0.7838638
44	0xbe61e491	-0.22059847
45	0xbede517e	-0.4342155
46	0xbc93a1d8	-0.018021509
47	0xbf2b2458	-0.6685233
48	0x3ef8da64	0.4860412
49	0xbe92ae25	-0.28648487
50	0x3ec2b2c9	0.38027027
51	0x3e318200	0.17334747
52	0xbc7997a8	-0.015233912
53	0x3e8b8f1a	0.27257615
54	0xbe7868f6	-0.2425879
55	0x3e416439	0.18885888
56	0xbe6d4ea9	-0.23174538
57	0x3d98ce01	0.07461167
58	0xbeb273cb	-0.34853968
59	0x3dcd0c10	0.10012066
60	0xbdd30dbd	-0.10305355
61	0xbebeb3a7	-0.3724644
62	0xbefe81e3	-0.4970847
63	0xbde2fc7f	-0.11083316
64	0x3ea1ce1f	0.3160257
65	0xbe8dde7f	-0.27708814
66	0x3e38a5dc	0.1803202
67	0x3d0e42bd	0.034731615
68	0xbecb328b	-0.39687
69	0xbe9153ab	-0.28384146
70	0x3daf9203	0.085727714
71	0x3b7c813b	0.0038529176
72	0x3e2a1f0a	0.16613403
73	0xbe674e41	-0.22588445
74	0x3c1bedab	0.009517114
75	0xbf038b5d	-0.51384526
76	0xbe6622c0	-0.22474194
77	0xbe7423a4	-0.23841721
78	0x3e228bb9	0.15873612
79	0x3e9aebab	0.30257925
80	0xbeaf4ce2	-0.34238344
81	0x3e80695b	0.2508038
82	0xbca39c72	-0.01997206
83	0xbe31a5ff	-0.17348479
84	0xbe9045c8	-0.2817824
85	0xbcc5be51	-0.024138601
86	0xbee70e36	-0.4512803
87	0x3f3e81ff	0.7441711
88	0xbe332d9f	-0.17497872
89	0xbdbe956f	-0.09305846
90	0x3f09add0	0.5378084
91	0xbddd9bf2	-0.1082076
92	0x3e4bc005	0.19897468
93	0xbf215604	-0.63021874
94	0x3dd9a016	0.10626237
95	0x3c66b7fd	0.014081952
96	0x3d8a99ac	0.06767592
97	0xbd3e2828	-0.046425015
98	0x3f0263f2	0.50933754
99	0x3eab3cf4	0.3344494
100	0x3eb0d99d	0.34541026
101	0x3e6ca1d6	0.2310861
102	0xbe0683b4	-0.13136178
103	0xbef3e7f1	-0.47637895
104	0x3e9b1d50	0.302958
105	0xbeb26c57	-0.34848282
106	0x3eed480a	0.46344024
107	0x3e9f28c3	0.31085786
108	0x3f181067	0.5940003
109	0x3e136e3e	0.14397523
110	0xbedb113f	-0.42786595
111	0x3f1322b5	0.57474834
112	0x3ead3a72	0.33833653
113	0x3e012085	0.12610061
114	0x3e4c87c4	0.19973665
115	0xbed4e458	-0.41580462
116	0x3ec53654	0.38518012
117	0x3e7f161e	0.24910781
118	0xbf025d87	-0.5092396
119	0x3e8ae96e	0.27131218
120	0x3eef5921	0.46747687
121	0x3e10ee2b	0.14153354
122	0x3e0678b8	0.13131988
123	0x3ee01610	0.43766832
124	0xbe98de2f	-0.29857013
125	0x3d87e64b	0.06635722
126	0xbd828b1c	-0.06374189
127	0xbe3a7d9d	-0.1821198
128	0xbe766238	-0.24060905
129	0x3bceff95	0.006317089
130	0x3ed2ed27	0.41196558
131	0x3e76f482	0.2411671
132	0xbdd52a62	-0.104084745
133	0x3da69aef	0.0813502
134	0xbd8d3173	-0.06894197
135	0xbe849a0a	-0.25898772
136	0xbcb0fa3b	-0.021603694
137	0x3e885956	0.26630658
138	0xbeac550d	-0.3365864
139	0x3ce27125	0.027641842
140	0xbe4c7c24	-0.19969231
141	0xbeeee724	-0.4666072
142	0x3e76e93a	0.24112406
143	0xbd9a5959	-0.07536573
144	0x3d7e0c4d	0.06202345
145	0x3e45a278	0.19300258
146	0x3d9e09be	0.07716702
147	0x3e99b922	0.30024058
148	0x3f067aae	0.52530944
149	0x3d1e1cdf	0.038601752
150	0xbe8a9ab0	-0.27071142
151	0xbdbd196b	-0.09233364
152	0x3ec1f298	0.37880397
153	0x3e113ce6	0.14183387
154	0x3ef32769	0.47491005
155	0xbe51db5b	-0.20493834
156	0x3e2e5854	0.17025882
157	0xbe7f3160	-0.24921179
158	0xbcb8a2f6	-0.022538643
159	0xbea2cde1	-0.31797698
160	0x3c8d0ecc	0.01721897
161	0xbd7287a8	-0.059211403
162	0xbe9c3c09	-0.30514553
163	0x3cfee4a6	0.031114887
164	0x3e49266e	0.19643566
165	0x3db6fcea	0.08934958
166	0xbd0a5a23	-0.033777367
167	0xbe24433d	-0.16041274
168	0x3e63ce79	0.22246732
169	0x3ec2191e	0.37909788
170	0xbe163361	-0.14668037
171	0xbdc6f29c	-0.09714243
172	0xbdda77da	-0.10667391
173	0xbd424d36	-0.047436915
174	0xbe0c033b	-0.13673107
175	0xbf35e0e7	-0.710463
176	0x3d421b5b	0.04738937
177	0xbe0097cf	-0.1255791
178	0xbeb0d02a	-0.34533817
179	0x3db732c2	0.08945228
180	0x3e04a666	0.12954101
181	0x3e91c49e	0.2847032
182	0xbe60ccd1	-0.21953131
183	0x3e59a64a	0.2125484
184	0xbe0208b4	-0.12698632
185	0x3e3fbf3b	0.18725292
186	0xbec05d19	-0.37571028
187	0xbe10ecb2	-0.14152792
188	0xbe0d5cef	-0.13804983
189	0xbf17c16a	-0.592795
190	0x3e6f9894	0.23398048
191	0xbe227805	-0.15866096
192	0x3d0f24a4	0.034947053
193	0x3cff195a	0.031140018
194	0xbe669b75	-0.2252024
195	0x3ea3f6f9	0.32024363
196	0xbe446307	-0.19178401
197	0x3d7a2382	0.06106902
198	0x3e1baf89	0.1520368
199	0x3e815617	0.25260994
200	0x3e994354	0.2993418
201	0xbc9baa8d	-0.019002223
202	0x3e57b291	0.21064211
203	0x3eca0263	0.39454946
204	0x3eb85be1	0.36007598
205	0xbe12092a	-0.14261308
206	0xbe5e0b4f	-0.21684001
207	0x3eb8f89c	0.36127174
208	0xbd4f313d	-0.050584067
209	0x3e85085d	0.25982943
210	0xbdc0476b	-0.09388622
211	0xbb90c40d	-0.0044179023
212	0x3d1b6633	0.03793926
213	0x3d66b483	0.056324493
214	0xbeb484ef	-0.3525767
215	0x3e988b4d	0.29793778
216	0xbdb6c379	-0.08924002
217	0x3ec7bce0	0.39011288
218	0xbed75ff7	-0.42065403
219	0x3dabd716	0.08390634
220	0xbdb7252e	-0.08942638
221	0xbeaf1571	-0.34196046
222	0x3e9059dd	0.2819356
223	0xbdefe121	-0.11712862
224	0xbde2f080	-0.11081028
225	0x3d7e5738	0.062094897
226	0xbee8f6f4	-0.4550091
227	0xbe7446e5	-0.23855169
228	0x3df97d6b	0.12182125
229	0xbe62d20c	-0.22150439
230	0xbf206aac	-0.6266277
231	0xbe8c2da3	-0.27378568
232	0x3ed5c084	0.4174844
233	0x3ecec051	0.403811
234	0x3f06070a	0.5235449
235	0x3e678e87	0.22612964
236	0xbe12d06a	-0.14337316
237	0xbe947706	-0.28997058
238	0xbe94d4fe	-0.2906875
239	0x3e8214de	0.25406545
240	0xbe0212fd	-0.12702556
241	0x3ec7e7e9	0.3904412
242	0x3bf77129	0.0075513315
243	0xbcb2cb82	-0.021825556
244	0xbc06a5ec	-0.00821827
245	0xbeaef82f	-0.34173724
246	0xbe646ba7	-0.22306691
247	0x3db4f708	0.0883618
248	0xbe9168c5	-0.28400245
249	0x3ebe4d80	0.37168503
250	0xbdf8d3d2	-0.121497765
251	0x3e4fffd2	0.20312431
252	0x3dd88d7c	0.10573861
253	0x3de19f71	0.11016739
254	0x3d6a6002	0.057220466
255	0x3deeb5e1	0.116557844

conv2d_4/Bias f4 [32]
0	0x00000000	0.0
1	0x00000000	0.0
2	0x00000000	0.0
3	0x00000000	0.0
4	0x00000000	0.0
5	0x00000000	0.0
6	0x00000000	0.0
7	0x00000000	0.0
8	0x00000000	0.0
9	0x00000000	0.0
10	0x00000000	0.0
11	0x00000000	0.0
12	0x00000000	0.0
13	0x00000000	0.0
14	0x00000000	0.0
15	0x00000000	0.0
16	0x00000000	0.0
17	0x00000000	0.0
18	0x00000000	0.0
19	0x00000000	0.0
20	0x00000000	0.0
21	0x00000000	0.0
22	0x00000000	0.0
23	0x00000000	0.0
24	0x00000000	0.0
25	0x00000000	0.0
26	0x00000000	0.0
27	0x00000000	0.0
28	0x00000000	0.0
29	0x00000000	0.0
30	0x00000000	0.0
31	0x00000000	0.0

p_re_lu_5/Alpha f4 [1, 1, 32]
0	0xbe885b42	-0.26632124
1	0x3ed8385e	0.42230505
2	0xbf41e2f3	-0.7573692
3	0x3e2b506e	0.167299
4	0xbd01f606	-0.031728767
5	0xbd5c5d8c	-0.05380015
6	0x3f58d87c	0.8470533
7	0xbeb4b5c4	-0.35294926
8	0xbd3650dc	-0.044510707
9	0x3e340104	0.17578512
10	0xbe6434cd	-0.22285767
11	0xbdb85910	-0.09001362
12	0xbe8453c0	-0.25845146
13	0xbce91741	-0.028453471
14	0xbe2d267e	-0.16909215
15	0xbd2be46b	-0.041965883
16	0x3dfc9e72	0.123349085
17	0xbe032f56	-0.12811026
18	0xbd9c4d4a	-0.07631929
19	0xbd5c1460	-0.05373037
20	0xbdb69cfa	-0.0891666
21	0xbeaec4b7	-0.34134457
22	0xbe4b2bc4	-0.19840914
23	0xbe2a7e46	-0.16649732
24	0xbe4540b5	-0.19262965
25	0xbb57ad6e	-0.0032909769
26	0xbcb8c6fd	-0.022555823
27	0xb9d38dd9	-0.0004035074
28	0x3da9f064	0.08297804
29	0xbeca429a	-0.39503938
30	0xbec138dc	-0.37738693
31	0xbdb4a6e9	-0.08820898

batch_normalization_5/Kernel f4 [1, 1, 1, 32]
0	0x402380eb	2.5547435
1	0x3f3082b3	0.6894943
2	0x3f72aa47	0.9479107
3	0x3f420f85	0.7580493
4	0x3f2f3396	0.6843809
5	0x3f3b108c	0.73072124
6	0x3f161fdc	0.58642364
7	0x3f18ce8a	0.59690154
8	0x405ac3c6	3.418199
9	0x3faacf14	1.3344445
10	0x3fd86946	1.6907127
11	0x4006458c	2.0979948
12	0x3f91bccb	1.138574
13	0x403e9340	2.9777374
14	0x3f5341d6	0.8252233
15	0x402907f7	2.6411111
16	0x407773eb	3.86645
17	0x40c9b394	6.303171
18	0x408ea559	4.457684
19	0x40a43087	5.1309237
20	0x40eb848d	7.3599305
21	0x40601ecd	3.50188
22	0x4094016c	4.6251736
23	0x40be4727	5.9461856
24	0x40c9bbe1	6.3041844
25	0x409d9963	4.924974
26	0x40364e72	2.848538
27	0x4044e779	3.076628
28	0x4033f9b1	2.812115
29	0x40bae782	5.84076
30	0x404fbc3e	3.2458644
31	0x40e44b71	7.134209

batch_normalization_5/Bias f4 [32]
0	0xbf4c413b	-0.79787034
1	0xbec0a3c0	-0.3762493
2	0xbf6c677a	-0.9234539
3	0xbf27f74a	-0.6561171
4	0xbf29f59b	-0.6639039
5	0xbf6cbce7	-0.9247574
6	0xbf5f9add	-0.8734568
7	0xbeedf16b	-0.4647325
8	0xbf2a5199	-0.6653076
9	0xbed832db	-0.422263
10	0xbf0048ab	-0.5011088
11	0xbf5f4fec	-0.87231326
12	0xbf2c3fef	-0.67285055
13	0xbecbaf67	-0.3978226
14	0xbf0543de	-0.5205668
15	0xbf3ad20f	-0.72976774
16	0xbf1441fc	-0.57913184
17	0xbeef1184	-0.4669305
18	0xbebe41bb	-0.37159523
19	0xbf2d5b31	-0.6771727
20	0xbebfddda	-0.37473947
21	0xbef13812	-0.4711309
22	0xbf369c4d	-0.71332246
23	0xbf48385c	-0.78211
24	0xbf16036e	-0.58598983
25	0xbf6af3fc	-0.9177854
26	0xbec92954	-0.39289343
27	0xbf54dc2f	-0.83148474
28	0xbf0429ef	-0.51626486
29	0xbf3c3d98	-0.73531485
30	0xbf1807e0	-0.59387016
31	0xbf0493a8	-0.51787806

conv2d_5/Kernel f4 [32, 2, 2, 32]
0	0x3d98a82f	0.074539535
1	0x3edd4457	0.43216202
2	0x3d84660d	0.06464777
3	0x3e21abec	0.15788239
4	0xbbf7b9ce	-0.0075599914
5	0xbd6d8f50	-0.057998
6	0x3dde8105	0.10864452
7	0x3db340fc	0.08752629
8	0xbca0c344	-0.01962436
9	0xbe1fde41	-0.15612127
10	0x3e9e6e4e	0.3094353
11	0x3d923419	0.07138843
12	0x3d628fa4	0.055312768
13	0xbba1c425	-0.0049367123
14	0xbd1c3a09	-0.038141284
15	0xbd45a793	-0.048255514
16	0xbe96f2e4	-0.29482186
17	0xbe64e43f	-0.22352694
18	0xbcbaa6c0	-0.02278459
19	0xbe806e58	-0.25084186
20	0xbd39e8f1	-0.045388166
21	0x3dd5bc15	0.104362644
22	0x3e084564	0.1330772
23	0x3e79c2f9	0.24390782
24	0x3e377b40	0.1791811
25	0x3dc8ad7c	0.097987145
26	0x3cc56da8	0.02410014
27	0x3e96f76c	0.29485643
28	0x3e64e810	0.2235415
29	0xbd07d61a	-0.033163168
30	0xbcf19353	-0.029489195
31	0xbdeb0464	-0.11475447
32	0x3d520c20	0.051281095
33	0x3dbc0b7c	0.09181878
34	0xbe168e7a	-0.14702788
35	0x3ea2994b	0.31757578
36	0xbd879d9b	-0.06621858
37	0xbe5dfb0e	-0.21677801
38	0xbdd45107	-0.10367017
39	0x3acd1cb3	0.0015648812
40	0xbd5fdcd2	-0.05465395
41	0xbe9882f9	-0.29787424
42	0x3e30a413	0.1725009
43	0x3e430f6c	0.19048852
44	0x3eac67c5	0.3367292
45	0x3d32b4e3	0.04362954
46	0xbd7abfa1	-0.061217908
47	0x3df3dbcc	0.11907157
48	0x3eafb645	0.34318748
49	0xbe2d27d3	-0.16909723
50	0x3d469f4d	0.048491765
51	0x3e180f3e	0.14849564
52	0xbda1a221	-0.07892252
53	0xbdcb6b4d	-0.099325754
54	0xbe13e6aa	-0.1444346
55	0xbc83a47f	-0.016069649
56	0x3ddd0abf	0.10793065
57	0xbdfa0fbb	-0.122100316
58	0xbe2ab119	-0.1666912
59	0x3ea255fa	0.3170622
60	0x3cf27de5	0.029601047
61	0xbdd4427f	-0.103642456
62	0x3d19ca54	0.03754647
63	0xbe29dba7	-0.16587697
64	0x3db1bcbf	0.086785786
65	0x3e39aac6	0.18131551
66	0x3e83d732	0.25750118
67	0xbe4b4330	-0.19849849
68	0x3e14c54f	0.14528392
69	0xbe96e4c4	-0.2947141
70	0x3e1af352	0.15131882
71	0x3e104eba	0.14092532
72	0xbd232771	-0.039832536
73	0x3d091c87	0.03347447
74	0x3d601900	0.05471134
75	0x3a92f72e	0.0011212581
76	0xbd86d28f	-0.065831296
77	0x3dd77f54	0.10522333
78	0xbdbb23e5	-0.09137706
79	0x3e0f0496	0.13966593
80	0xbed75395	-0.42055956
81	0x3d084f7b	0.033278923
82	0xbdbc6058	-0.091980636
83	0xbf150aee	-0.582198
84	0xbe8f5be5	-0.27999797
85	0x3e2e2033	0.1700447
86	0x3e07dadb	0.1326708
87	0x3da9a55b	0.08283492
88	0xbb269634	-0.0025419118
89	0x3edc6dc3	0.43052492
90	0xbe5aa98d	-0.21353741
91	0x3c836f6c	0.016044341
92	0x3eb663a3	0.35622892
93	0x3cf4d24d	0.029885435
94	0xbe479568	-0.19490588
95	0x3dde205f	0.10846018
96	0x3e0535b5	0.13008769
97	0x3e34c9b1	0.17655064
98	0xbda0a66b	-0.07844242
99	0x3d467b43	0.048457395
100	0x3db3f3f8	0.08786768
101	0xbe2c4692	-0.16823795
102	0x3e3782f2	0.17921045
103	0xbd097fe1	-0.03356922
104	0xbdb514fd	-0.08841894
105	0xbe748f8f	-0.23882888
106	0x3d13075d	0.035895694
107	0x3de265d5	0.11054579
108	0x3e24048b	0.16017358
109	0xbe122484	-0.14271742
110	0x3dabfeac	0.08398184
111	0x3db773c1	0.08957625
112	0xbd3679e9	-0.044549856
113	0x3e26cca9	0.16289009
114	0xbdf8b5e8	-0.12144071
115	0x3b979668	0.004626084
116	0xbe9e423d	-0.3090991
117	0xbd224dfc	-0.039625153
118	0x3d9e065f	0.07716059
119	0xbd0deebc	-0.034651503
120	0x3d92cd69	0.07168085
121	0xbd693960	-0.056939483
122	0xbebf3bfb	-0.3735045
123	0x3ea07a13	0.31343135
124	0x3e6ff918	0.23434865
125	0x3deb148a	0.11478527
126	0xbe2158e1	-0.15756561
127	0xbec01004	-0.3751222
128	0xbe2f1636	-0.17098317
129	0x3da194a6	0.078896806
130	0xbe61e243	-0.22058968
131	0x3d6e4738	0.05817339
132	0xbb880e11	-0.0041520675
133	0xbe0fa3be	-0.14027306
134	0xbdd1211a	-0.10211392
135	0xbec7344a	-0.3890708
136	0xbc88684b	-0.016651293
137	0xbe290114	-0.16504318
138	0x3e60e07a	0.21960631
139	0xbcc0da3c	-0.023541562
140	0xbebabbce	-0.3647141
141	0xbdc318af	-0.095261924
142	0xbe563856	-0.20919928
143	0x3dc14e6b	0.09438785
144	0x3e18ed74	0.14934331
145	0x3c16ec7a	0.009211654
146	0xbed03b75	-0.40670362
147	0xbe4b9fdd	-0.19885202
148	0x3dbaa7d3	0.09114041
149	0xbd0af5f7	-0.033925977
150	0xbd6107fa	-0.054939248
151	0x3e1a7b0e	0.15086004
152	0x3e5c772b	0.21529834
153	0x384e16fb	4.913563e-05
154	0x3e05b806	0.1305848
155	0xbe6410b2	-0.22271994
156	0x3cdeb519	0.027185963
157	0xbee33090	-0.44372988
158	0x3dfbfdd2	0.12304272
159	0x3e5e319b	0.2169861
160	0x3d038077	0.032104935
161	0xbcde0c8a	-0.027105588
162	0x3d5af6d5	0.053458054
163	0xbdbfff1d	-0.09374831
164	0x3d2907c9	0.04126719
165	0x3cea66c2	0.028613452
166	0xbe3b19a4	-0.182715
167	0xbcd4d4b3	-0.02598033
168	0x3e902e57	0.28160354
169	0x3d94ed59	0.07271833
170	0x3d82e373	0.06391039
171	0x3e21ed75	0.15813239
172	0xbdc4051a	-0.095712855
173	0xbdc41600	-0.09574509
174	0x3e541eb7	0.20714842
175	0x3ea49f37	0.3215272
176	0xbc4a21b1	-0.012337134
177	0xbb04656d	-0.0020202056
178	0xbe5f1d14	-0.21788436
179	0xbe9bdb94	-0.30440962
180	0x3dd58918	0.10426539
181	0x3c78f752	0.0151956845
182	0xbd27f771	-0.041007463
183	0x3e1a1705	0.15047844
184	0x3d624e8d	0.055250693
185	0xbd13324e	-0.035936646
186	0xbddc9058	-0.10769719
187	0xbde1c9a4	-0.11024788
188	0x3e278fa6	0.16363391
189	0xbf4d206e	-0.8012761
190	0x3e7205d3	0.23635034
191	0x3d6a2b7c	0.057170376
192	0xbdaa91a3	-0.08328559
193	0x3d034cac	0.032055542
194	0xbd7886f6	-0.060675584
195	0x3c0abd3b	0.008467968
196	0x3ddb80e5	0.10717944
197	0xbe293baa	-0.16526666
198	0x3de1ddb5	0.110286154
199	0xbe2ed802	-0.17074588
200	0x3d4ea759	0.050452564
201	0x3e012671	0.1261232
202	0x3d7753cb	0.060382646
203	0xbd56695b	-0.05234657
204	0xbcd46243	-0.025925761
205	0xbe32f6e8	-0.17477
206	0xbd64541f	-0.055744287
207	0x3db0844d	0.08618984
208	0x3d183dcc	0.03716831
209	0xbe013d8e	-0.12621137
210	0xbef3a0c6	-0.47583598
211	0xbec3a86c	-0.38214433
212	0xb9592da2	-0.00020711732
213	0xbe08b049	-0.13348497
214	0xbd55e468	-0.05221978
215	0x3cf3dd20	0.029768527
216	0x3e032b45	0.12809475
217	0x3d04a4fa	0.032383896
218	0x3db840ef	0.0899676
219	0xbe35c79e	-0.17751929
220	0xbe5d2818	-0.21597326
221	0xbf2c268b	-0.6724631
222	0x3e1f86ae	0.1557872
223	0xbd0abe60	-0.033872962
224	0x3ca59b11	0.020215543
225	0x3e5dc857	0.21658455
226	0x3d0d3173	0.034470987
227	0xbd92962b	-0.071575485
228	0x3a1b3663	0.0005920885
229	0x3d0d06fd	0.034430493
230	0x3de21b8c	0.110404104
231	0x3dd2b1d4	0.10287824
232	0x3e0cb341	0.13740255
233	0xbd7263e6	-0.0591773
234	0x3d8c4c3b	0.06850477
235	0x3e1a3630	0.15059733
236	0xbdb915a3	-0.0903733
237	0xbe77c809	-0.24197401
238	0xbd610080	-0.054932117
239	0x3e42eaf3	0.19034939
240	0x3c545407	0.012959487
241	0x3cec1174	0.028816916
242	0xbe84cd6d	-0.25937977
243	0xbe95fec1	-0.29295924
244	0xbc27c0e9	-0.010238864
245	0xbe0eefd3	-0.13958673
246	0x3d33a9c1	0.04386306
247	0x3d9099d9	0.07060594
248	0xbcb3c901	-0.021946432
249	0xbdbb0b99	-0.091330715
250	0xbd0b55b3	-0.034017276
251	0xbdb69894	-0.08915821
252	0x3dded585	0.10880569
253	0xbf819c9d	-1.012592
254	0x3e94cbb9	0.29061678
255	0xbe454fa1	-0.19268657
