mediapipe/modules/face_detection/face_detection_back.tflite (tflite, 315332 bytes, 137 tensors)

conv2d/Kernel f2 [24, 5, 5, 3]
0	0x1860	0.002136
1	0x96d9	-0.001672
2	0x9887	-0.00221
3	0x18b3	0.002295
4	0x963a	-0.00152
5	0x9467	-0.001075
6	0x9994	-0.002724
7	0x9a84	-0.003181
8	0x9a0d	-0.002954
9	0x1449	0.001046
10	0x0949	0.0001613
11	0x0a0e	0.0001848
12	0x1c82	0.004402
13	0x1666	0.001562
14	0x12de	0.0008383
15	0x1899	0.002245
16	0x95b7	-0.001395
17	0x946b	-0.001079
18	0x1c6c	0.00432
19	0x17e6	0.001928
20	0x1844	0.002083
21	0x96cb	-0.001658
22	0x094c	0.0001616
23	0x0877	0.0001363
24	0x8d4c	-0.0003233
25	0x17c8	0.0019
26	0x16ff	0.001708
27	0x1bd1	0.003817
28	0x1c06	0.00393
29	0x1860	0.002136
30	0x00fe	1.514e-05
31	0x992a	-0.002522
32	0x97d3	-0.00191
33	0x1a2b	0.003012
34	0x159e	0.001371
35	0x16e8	0.001686
36	0x9f0f	-0.006893
37	0x99a8	-0.002762
38	0x97c7	-0.001899
39	0xa024	-0.00809
40	0x9a9d	-0.00323
41	0x98e3	-0.002386
42	0x9cc7	-0.004665
43	0x8a89	-0.0001994
44	0x92da	-0.0008364
45	0x1689	0.0015955
46	0x9024	-0.0005054
47	0x8bc1	-0.0002366
48	0x1b20	0.003479
49	0x1aa8	0.00325
50	0x19c5	0.002817
51	0xa106	-0.00981
52	0x9c28	-0.00406
53	0x9bcd	-0.003809
54	0xa198	-0.010925
55	0x9d51	-0.00519
56	0x9c3d	-0.00414
57	0x9780	-0.001831
58	0x1094	0.000559
59	0x133a	0.000882
60	0x1146	0.0006437
61	0x9404	-0.00098
62	0x92f2	-0.000848
63	0x1c0e	0.00396
64	0x1a92	0.003208
65	0x18bd	0.002314
66	0xa146	-0.0103
67	0x9ce6	-0.004784
68	0x9c96	-0.00448
69	0x9585	-0.001348
70	0x1471	0.001084
71	0x18a1	0.00226
72	0x1d84	0.005386
73	0x1895	0.002237
74	0x14e4	0.001194
75	0xa932	-0.0406
76	0x2e61	0.0997
77	0xb268	-0.2002
78	0xb100	-0.1562
79	0xae99	-0.1031
80	0xb471	-0.2776
81	0xb9ca	-0.7236
82	0xbb17	-0.886
83	0xba0d	-0.7563
84	0x342a	0.2603
85	0x2831	0.03275
86	0xadd5	-0.0911
87	0x2c84	0.07056
88	0x3223	0.1918
89	0xad47	-0.08246
90	0xa511	-0.01979
91	0x344b	0.2683
92	0x32c4	0.2114
93	0x38fe	0.624
94	0x3a96	0.823
95	0x3126	0.1609
96	0x401a	2.05
97	0x4254	3.164
98	0x406e	2.215
99	0xbcb5	-1.177
100	0xba72	-0.8057
101	0xb0f8	-0.1553
102	0x2bb9	0.06033
103	0x316c	0.1694
104	0x3593	0.3484
105	0xb1c9	-0.1808
106	0xabf6	-0.0622
107	0xb023	-0.1293
108	0xb8c0	-0.5938
109	0xb9bd	-0.7173
110	0xb819	-0.512
111	0xc013	-2.037
112	0xc064	-2.195
113	0xbdbe	-1.436
114	0x33f9	0.2491
115	0x3439	0.264
116	0x3809	0.5044
117	0xaeeb	-0.1081
118	0xb2de	-0.2146
119	0xb603	-0.3757
120	0x2a68	0.05005
121	0x31fd	0.1871
122	0x336e	0.2322
123	0x3669	0.4006
124	0x35b5	0.3567
125	0x3716	0.4429
126	0x3674	0.4033
127	0x32ad	0.2086
128	0x35f0	0.371
129	0x36d9	0.428
130	0x33b9	0.2413
131	0xa84e	-0.03363
132	0x2df9	0.0933
133	0x3173	0.1703
134	0x2d02	0.07825
135	0xb00d	-0.1266
136	0x2a11	0.0474
137	0xaf83	-0.1174
138	0xae6c	-0.10034
139	0x2b63	0.0577
140	0xb3a1	-0.2384
141	0xb3d6	-0.2449
142	0x2c76	0.0697
143	0xb13d	-0.1637
144	0xb0a0	-0.1445
145	0x27ba	0.03018
146	0xb3db	-0.2455
147	0xac5f	-0.0683
148	0x2ca9	0.0728
149	0xaf07	-0.1098
150	0xac2b	-0.0651
151	0xa994	-0.04358
152	0x2822	0.0323
153	0xa41b	-0.01604
154	0x201c	0.008026
155	0x28be	0.03705
156	0x268c	0.02557
157	0x2c84	0.07056
158	0x2bb2	0.06012
159	0x2b3e	0.05658
160	0x2e0d	0.09454
161	0x2cb3	0.0734
162	0x2249	0.012276
163	0x1a2f	0.00302
164	0x9a87	-0.003187
165	0xa2e0	-0.01343
166	0xa53c	-0.02045
167	0x2895	0.0358
168	0xa85c	-0.03406
169	0xa80b	-0.0316
170	0xa6d3	-0.02666
171	0x23e5	0.01542
172	0x219e	0.01097
173	0xae6c	-0.10034
174	0x2e72	0.1007
175	0xa827	-0.03244
176	0xb241	-0.1954
177	0x3145	0.1647
178	0xae21	-0.09576
179	0xb527	-0.322
180	0x21b6	0.011154
181	0x22f8	0.01361
182	0x2c52	0.0675
183	0x1cd2	0.004707
184	0x292d	0.04044
185	0x2c3f	0.06635
186	0x26ee	0.02707
187	0x2a1f	0.04782
188	0xaa24	-0.04797
189	0x2d2a	0.0807
190	0xafe7	-0.1235
191	0xb4de	-0.3042
192	0x33ff	0.2499
193	0xb0c8	-0.1494
194	0xb6d9	-0.428
195	0x1d86	0.005394
196	0xa961	-0.04202
197	0xa33f	-0.01415
198	0xa611	-0.0237
199	0x2215	0.01188
200	0x2383	0.01467
201	0xa400	-0.01563
202	0x28b8	0.03687
203	0xa2bb	-0.013145
204	0x24ff	0.01952
205	0xa398	-0.01483
206	0xada3	-0.0881
207	0x302a	0.1301
208	0xae4b	-0.0983
209	0xb2fc	-0.2183
210	0x2128	0.01007
211	0xab85	-0.05875
212	0xa993	-0.04355
213	0x28ca	0.0374
214	0x2897	0.03586
215	0x271c	0.02777
216	0xa550	-0.02075
217	0x2630	0.02417
218	0x9ba2	-0.003727
219	0xa84e	-0.03363
220	0xa18e	-0.01085
221	0xa8a9	-0.0364
222	0x27bf	0.03026
223	0x9b08	-0.003433
224	0xa498	-0.01794
225	0x9b2a	-0.003498
226	0x9e83	-0.00636
227	0xade7	-0.0922
228	0xa816	-0.03192
229	0xa4cd	-0.01875
230	0xb092	-0.1428
231	0xb49f	-0.2888
232	0xb474	-0.2783
233	0xb5b6	-0.357
234	0xb34d	-0.2281
235	0xb02a	-0.1301
236	0xb5a8	-0.3535
237	0xb0c0	-0.1484
238	0x21e7	0.01153
239	0xb14b	-0.1654
240	0xaab3	-0.05234
241	0x2b4b	0.05698
242	0xb02f	-0.1307
243	0xb46e	-0.2769
244	0xa41d	-0.01607
245	0x2e4c	0.0984
246	0xbb2d	-0.897
247	0xba13	-0.7593
248	0xb518	-0.3184
249	0xb56a	-0.3384
250	0xb296	-0.2058
251	0xb368	-0.2314
252	0xb8d6	-0.6045
253	0xb5a3	-0.3523
254	0xb676	-0.4038
255	0x1889	0.002214

conv2d/Bias f2 [24]
0	0xb1c9	-0.1808
1	0x3de4	1.473
2	0xb787	-0.4705
3	0x413f	2.623
4	0xc07c	-2.242
5	0xbe7e	-1.623
6	0xc3d3	-3.912
7	0x3f99	1.899
8	0x397a	0.6846
9	0x3c31	1.048
10	0x416b	2.709
11	0x3c2f	1.046
12	0x3ef9	1.743
13	0xb640	-0.3906
14	0xb372	-0.2327
15	0xb57b	-0.3425
16	0x38ce	0.6006
17	0x3da5	1.411
18	0x3aae	0.835
19	0xb1bc	-0.1792
20	0xb068	-0.1377
21	0x341e	0.2573
22	0x3a84	0.8145
23	0xb6e8	-0.4316

depthwise_conv2d/Kernel f2 [1, 3, 3, 24]
0	0x3d9a	1.4
1	0xb39f	-0.2382
2	0x40e4	2.445
3	0xbb0b	-0.8804
4	0x3e27	1.538
5	0xb830	-0.5234
6	0xb39d	-0.2379
7	0xb9c4	-0.7207
8	0xbec8	-1.695
9	0x3819	0.512
10	0xb0f5	-0.1549
11	0x38bb	0.5913
12	0x2f43	0.11346
13	0xbca1	-1.157
14	0x3f0f	1.765
15	0xb5b1	-0.3557
16	0xad32	-0.0812
17	0xb17b	-0.1713
18	0x2d32	0.0812
19	0x360c	0.378
20	0x4157	2.67
21	0x3c4f	1.077
22	0x2c64	0.0686
23	0x3905	0.6274
24	0x4047	2.139
25	0xb069	-0.1378
26	0xbb7b	-0.935
27	0x41d1	2.908
28	0xba5e	-0.796
29	0xb53e	-0.3276
30	0x4225	3.072
31	0xc1d3	-2.912
32	0xbda8	-1.414
33	0x44bf	4.746
34	0x3be0	0.9844
35	0xc0d1	-2.408
36	0xb13e	-0.1638
37	0xc072	-2.223
38	0x419a	2.8
39	0x3628	0.3848
40	0xbc8e	-1.139
41	0xbb12	-0.884
42	0x36cd	0.425
43	0x3a5b	0.7944
44	0x4639	6.223
45	0xc56b	-5.418
46	0xc79f	-7.62
47	0x36af	0.4177
48	0x306a	0.138
49	0xb5a2	-0.352
50	0xba36	-0.7764
51	0xb633	-0.3875
52	0xc459	-4.348
53	0x3ab7	0.8394
54	0x392c	0.6465
55	0x31bf	0.1796
56	0xb783	-0.4695
57	0x341b	0.2566
58	0x3a9a	0.825
59	0x3993	0.697
60	0xae06	-0.0941
61	0x3fc0	1.9375
62	0xb923	-0.642
63	0x3e65	1.599
64	0xb3cb	-0.2435
65	0xb8b2	-0.587
66	0xb9a6	-0.706
67	0x3ad4	0.8535
68	0x3e3e	1.561
69	0x2e8d	0.10236
70	0x3767	0.4626
71	0xc0a8	-2.328
72	0x3ccb	1.198
73	0xba54	-0.791
74	0x43ea	3.957
75	0xbd42	-1.314
76	0x3acb	0.849
77	0x2466	0.01718
78	0x3883	0.564
79	0x3403	0.2507
80	0x3f7f	1.874
81	0xaef2	-0.1085
82	0x3efc	1.746
83	0x34c8	0.2988
84	0x3d4f	1.327
85	0xc2d9	-3.424
86	0x3881	0.563
87	0xc18d	-2.775
88	0xbb8a	-0.9424
89	0x354c	0.331
90	0x2d31	0.0811
91	0xba94	-0.8223
92	0x39a5	0.7056
93	0x3815	0.5103
94	0xba62	-0.798
95	0x3425	0.259
96	0x3f54	1.832
97	0x4121	2.564
98	0x3e03	1.503
99	0xbf12	-1.768
100	0xbff3	-1.987
101	0xc545	-5.27
102	0x41e9	2.955
103	0xb8a8	-0.582
104	0x4506	5.023
105	0xb71c	-0.4443
106	0xc668	-6.406
107	0xc5e1	-5.88
108	0xc6db	-6.855
109	0xc39c	-3.805
110	0xa9fd	-0.04678
111	0x439f	3.81
112	0x4635	6.207
113	0x44c7	4.777
114	0x4226	3.074
115	0xc367	-3.701
116	0x3d36	1.303
117	0xbb75	-0.932
118	0x3ed1	1.704
119	0xb3ac	-0.2397
120	0xb8e4	-0.6113
121	0xbcaa	-1.166
122	0xb0e7	-0.1532
123	0xa3b9	-0.01508
124	0xc2e9	-3.455
125	0x3c7c	1.121
126	0x3f0d	1.763
127	0x3048	0.1338
128	0xc0f0	-2.469
129	0xba9f	-0.8276
130	0xbd92	-1.393
131	0x3a72	0.8057
132	0x3768	0.463
133	0x36cc	0.4248
134	0xc075	-2.229
135	0x405b	2.178
136	0xb704	-0.4385
137	0xbf8f	-1.89
138	0xc4a2	-4.633
139	0x3aff	0.8745
140	0x34a4	0.29
141	0x33fd	0.2496
142	0xb04e	-0.1345
143	0xc5e6	-5.9
144	0x3ef3	1.737
145	0xb66b	-0.4011
146	0xc232	-3.098
147	0x35d7	0.365
148	0x3f27	1.788
149	0xbd5a	-1.338
150	0xbb66	-0.925
151	0xb417	-0.2556
152	0xb917	-0.636
153	0xb754	-0.458
154	0x32be	0.2107
155	0x3970	0.6797
156	0x3653	0.3953
157	0x3cb8	1.18
158	0xbac0	-0.8438
159	0xb8f0	-0.617
160	0xb150	-0.166
161	0x3104	0.1567
162	0x354a	0.3306
163	0x1f2b	0.007
164	0x3a07	0.7534
165	0xa7c4	-0.03033
166	0xa843	-0.0333
167	0x3961	0.6724
168	0x36af	0.4177
169	0xb9af	-0.7104
170	0xc059	-2.174
171	0x3156	0.1667
172	0x3d0a	1.26
173	0x3789	0.471
174	0x2d77	0.0854
175	0x30c2	0.1487
176	0xaf9d	-0.11896
177	0x2fa8	0.1196
178	0xbd24	-1.285
179	0x40c9	2.393
180	0x3c1b	1.026
181	0x314c	0.1655
182	0x2fe0	0.12305
183	0x3d96	1.396
184	0xb804	-0.502
185	0xbaaf	-0.8354
186	0x37ef	0.4958
187	0xbeeb	-1.7295
188	0x358c	0.3467
189	0x3099	0.1437
190	0xa549	-0.02065
191	0x27e8	0.03088
192	0xbf6e	-1.857
193	0xb510	-0.3164
194	0xaa15	-0.04752
195	0x29d9	0.0457
196	0x399a	0.7
197	0x3631	0.387
198	0xbf89	-1.884
199	0x32e1	0.215
200	0xb8ab	-0.5835
201	0xb986	-0.6904
202	0x3202	0.1877
203	0x3912	0.634
204	0x3145	0.1647
205	0x3d93	1.394
206	0xbaee	-0.866
207	0x3328	0.2236
208	0xb0b8	-0.1475
209	0xb776	-0.4663
210	0x3c3a	1.057
211	0x36a1	0.4143
212	0x2e39	0.0972
213	0xa3c2	-0.01515
214	0x338f	0.2362
215	0xad1d	-0.0799

depthwise_conv2d/Bias f2 [24]
0	0x0000	0.0
1	0x0000	0.0
2	0x0000	0.0
3	0x0000	0.0
4	0x0000	0.0
5	0x0000	0.0
6	0x0000	0.0
7	0x0000	0.0
8	0x0000	0.0
9	0x0000	0.0
10	0x0000	0.0
11	0x0000	0.0
12	0x0000	0.0
13	0x0000	0.0
14	0x0000	0.0
15	0x0000	0.0
16	0x0000	0.0
17	0x0000	0.0
18	0x0000	0.0
19	0x0000	0.0
20	0x0000	0.0
21	0x0000	0.0
22	0x0000	0.0
23	0x0000	0.0

conv2d_1/Kernel f2 [24, 1, 1, 24]
0	0x3106	0.157
1	0x227e	0.01268
2	0x308c	0.1421
3	0x9c93	-0.004467
4	0xa9a9	-0.04422
5	0xab18	-0.05542
6	0x300c	0.1265
7	0xa447	-0.01671
8	0x352d	0.3235
9	0x1d09	0.004917
10	0xab05	-0.05484
11	0xa92f	-0.0405
12	0x25af	0.0222
13	0x2c5f	0.0683
14	0x2c76	0.0697
15	0xadf2	-0.0929
16	0x1cbf	0.004635
17	0xb2eb	-0.2162
18	0xa9dd	-0.0458
19	0xadad	-0.0887
20	0x3292	0.2053
21	0xa0b4	-0.009186
22	0xab68	-0.05786
23	0xa359	-0.01435
24	0xa301	-0.01368
25	0x34fa	0.311
26	0x28a3	0.03622
27	0xa4a4	-0.01813
28	0xa4ff	-0.01952
29	0xa072	-0.00868
30	0x9aa1	-0.003237
31	0xa68a	-0.02554
32	0xa865	-0.03433
33	0xa1e4	-0.011505
34	0x27b9	0.03017
35	0x9dac	-0.00554
36	0x2f4e	0.11414
37	0x1865	0.002146
38	0x0ea0	0.0004044
39	0xa5a9	-0.02211
40	0x1cec	0.004807
41	0xa433	-0.0164
42	0x27d0	0.03052
43	0xacca	-0.0748
44	0xad5d	-0.0838
45	0x3137	0.163
46	0x1d21	0.00501
47	0x99d7	-0.002851
48	0xad15	-0.0794
49	0x29be	0.04486
50	0xac63	-0.06854
51	0xa583	-0.02153
52	0x95e2	-0.001436
53	0xa8aa	-0.03644
54	0x2061	0.00855
55	0x97e4	-0.001926
56	0x3085	0.1412
57	0x2f89	0.11774
58	0xafca	-0.1217
59	0xb04c	-0.1343
60	0xa2b2	-0.01308
61	0x30f3	0.1547
62	0xaa7b	-0.05063
63	0xb2bf	-0.2108
64	0x2f61	0.1153
65	0xb0fc	-0.1558
66	0x2e0f	0.09467
67	0x2e74	0.1008
68	0x2280	0.012695
69	0x25e9	0.02309
70	0xa900	-0.03906
71	0x2bc9	0.06082
72	0xa4e9	-0.01918
73	0xad0e	-0.079
74	0x2edc	0.1072
75	0x2c11	0.06354
76	0x9e3e	-0.006096
77	0xab36	-0.05634
78	0xa4ab	-0.01823
79	0xaaad	-0.05215
80	0xab1b	-0.0555
81	0xaadd	-0.05362
82	0x2677	0.02525
83	0x1b5a	0.00359
84	0x2257	0.01238
85	0xab39	-0.05643
86	0x9e26	-0.006004
87	0xad8c	-0.0867
88	0xa081	-0.0088
89	0xaaa4	-0.05188
90	0x25f2	0.02322
91	0xa194	-0.010895
92	0x9da4	-0.00551
93	0x21ff	0.01171
94	0x3499	0.2874
95	0x295a	0.0418
96	0x2d09	0.0787
97	0x25fe	0.0234
98	0xa819	-0.032
99	0x9ec8	-0.006622
100	0xb27e	-0.2029
101	0x24c7	0.01866
102	0x3511	0.3167
103	0x162b	0.001506
104	0x2f2b	0.112
105	0x2865	0.03433
106	0xa78e	-0.02951
107	0x254f	0.02074
108	0x9d6a	-0.005287
109	0x2963	0.04208
110	0x28d5	0.03775
111	0xac3c	-0.06616
112	0xa878	-0.0349
113	0x2879	0.03494
114	0x28d7	0.0378
115	0x2cd4	0.07544
116	0x2b07	0.0549
117	0x28f5	0.03873
118	0x8ecb	-0.0004146
119	0xa4e6	-0.01913
120	0xac61	-0.0684
121	0x98c1	-0.002321
122	0xacc0	-0.0742
123	0xac1e	-0.06433
124	0xad72	-0.0851
125	0x3037	0.1317
126	0xacac	-0.073
127	0x307f	0.1405
128	0x28d2	0.03766
129	0xa72c	-0.02802
130	0xa079	-0.008736
131	0x2d03	0.0783
132	0xaea6	-0.1039
133	0xa745	-0.0284
134	0xa7e2	-0.03079
135	0x26b7	0.02623
136	0x27f5	0.03108
137	0x2d2d	0.0809
138	0xb1ac	-0.1772
139	0x2415	0.01595
140	0x2e10	0.0947
141	0x251b	0.01994
142	0xac81	-0.0704
143	0xac2c	-0.0652
144	0xb20a	-0.1887
145	0x2c65	0.06866
146	0xae8d	-0.10236
147	0x1b9c	0.003716
148	0x9e79	-0.00632
149	0xb106	-0.157
150	0xacb2	-0.07336
151	0xacba	-0.07385
152	0x3838	0.5273
153	0xa90b	-0.0394
154	0xa6be	-0.02634
155	0xad7c	-0.0857
156	0x9aa8	-0.00325
157	0x3023	0.1293
158	0x280c	0.03162
159	0xa9a1	-0.04398
160	0xa713	-0.02763
161	0xac43	-0.0666
162	0xac53	-0.06757
163	0xb8e0	-0.6094
164	0xb299	-0.2062
165	0x2743	0.02837
166	0x27ca	0.03043
167	0x2cc8	0.0747
168	0xaa20	-0.04785
169	0x2a34	0.04846
170	0x999d	-0.00274
171	0x2bae	0.06
172	0x302f	0.1307
173	0xac5c	-0.0681
174	0x2c26	0.0648
175	0xac6c	-0.0691
176	0xae2c	-0.09644
177	0xab92	-0.05914
178	0x1cc5	0.004658
179	0x26eb	0.02702
180	0x3107	0.1571
181	0xa879	-0.03494
182	0x2dbe	0.0897
183	0x262a	0.02408
184	0xb527	-0.322
185	0xaebc	-0.1052
186	0x2971	0.0425
187	0xa880	-0.03516
188	0x2df1	0.09283
189	0xac03	-0.0627
190	0x2717	0.0277
191	0x20d6	0.009445
192	0x2bde	0.06146
193	0xa5c7	-0.02257
194	0x2935	0.04068
195	0xa6bc	-0.0263
196	0xadd7	-0.09125
197	0xa565	-0.02107
198	0xa938	-0.04077
199	0xa3de	-0.015366
200	0x20a7	0.00909
201	0xad25	-0.0804
202	0x2b03	0.05478
203	0x2e5b	0.0993
204	0x305f	0.1366
205	0x286e	0.0346
206	0x28a0	0.03613
207	0x2927	0.04025
208	0xae5a	-0.09924
209	0xac27	-0.0649
210	0xab9c	-0.05945
211	0xb031	-0.131
212	0x29c8	0.04517
213	0xae71	-0.10065
214	0xae31	-0.09674
215	0x27f4	0.03107
216	0x2ba4	0.0597
217	0xa52c	-0.0202
218	0x380c	0.506
219	0xaa73	-0.05038
220	0xa371	-0.014534
221	0xa24b	-0.01229
222	0xac3e	-0.0663
223	0xa4f0	-0.01929
224	0xa5dc	-0.02289
225	0xb0b2	-0.1467
226	0x2767	0.02892
227	0xb187	-0.1727
228	0x25ba	0.02237
229	0xa227	-0.01202
230	0x2cc4	0.07446
231	0xa90f	-0.03952
232	0x2a38	0.04858
233	0x297a	0.0428
234	0xade5	-0.0921
235	0xb406	-0.2515
236	0x27fd	0.0312
237	0xa65c	-0.02484
238	0x2cce	0.0751
239	0xaf42	-0.1134
240	0x3050	0.1348
241	0x191e	0.002499
242	0xb3be	-0.242
243	0x296f	0.04245
244	0x2d6e	0.08484
245	0xac3f	-0.06635
246	0xa54c	-0.02069
247	0x9d8c	-0.005417
248	0x3460	0.2734
249	0x3177	0.1708
250	0x2a39	0.0486
251	0xaa18	-0.0476
252	0x266f	0.02513
253	0x3382	0.2346
254	0xac03	-0.0627
255	0xa95c	-0.04187

conv2d_1/Bias f2 [24]
0	0xbefc	-1.746
1	0x32bd	0.2106
2	0x3553	0.3328
3	0x327b	0.2025
4	0xc128	-2.578
5	0x38eb	0.6147
6	0xbf48	-1.82
7	0x34c3	0.2976
8	0x3a88	0.8164
9	0xb8f4	-0.619
10	0x3b4f	0.9136
11	0x43ab	3.834
12	0xbd4b	-1.323
13	0xc7d8	-7.844
14	0xbedb	-1.714
15	0x3e51	1.579
16	0x3cb4	1.176
17	0x40b1	2.346
18	0xc1e8	-2.953
19	0x2ec1	0.1055
20	0xc08f	-2.28
21	0x3872	0.5557
22	0x40c5	2.385
23	0x3e6f	1.608

depthwise_conv2d_1/Kernel f2 [1, 3, 3, 24]
0	0x3ed0	1.703
1	0x2e62	0.09973
2	0xb4e4	-0.3057
3	0x33e1	0.2462
4	0xb9cb	-0.724
5	0x3a91	0.821
6	0x3bf2	0.993
7	0xb850	-0.539
8	0x3901	0.6255
9	0xb8e0	-0.6094
10	0x32d1	0.213
11	0xadf8	-0.09326
12	0x35e2	0.3677
13	0xc28c	-3.273
14	0x3c12	1.018
15	0xb6bf	-0.4216
16	0x3902	0.626
17	0x39e7	0.738
18	0xbfd7	-1.96
19	0xbb2d	-0.897
20	0xb4b1	-0.2932
21	0xb052	-0.135
22	0x3600	0.375
23	0xb3d3	-0.2445
24	0x405e	2.184
25	0xb335	-0.2252
26	0xbcec	-1.23
27	0x3412	0.2544
28	0xc07a	-2.238
29	0x3d5d	1.341
30	0x4326	3.574
31	0xc19c	-2.805
32	0x3ee8	1.727
33	0xb4b7	-0.2947
34	0x3810	0.508
35	0xb4ac	-0.292
36	0x40fc	2.492
37	0xb7c5	-0.4856
38	0x35f1	0.3713
39	0xc3e9	-3.955
40	0x41c5	2.885
41	0x4338	3.61
42	0xc0cf	-2.404
43	0x3fde	1.967
44	0xb7b0	-0.4805
45	0xb015	-0.1276
46	0xbbcf	-0.976
47	0x3253	0.1976
48	0x3c33	1.05
49	0x35b0	0.3555
50	0x3f58	1.836
51	0xb583	-0.3445
52	0xb3a0	-0.2383
53	0x35a4	0.3525
54	0x3f8a	1.885
55	0xbd06	-1.256
56	0x40ab	2.334
57	0xb474	-0.2783
58	0xb78e	-0.4722
59	0x30ce	0.1501
60	0x39fb	0.7476
61	0xc467	-4.402
62	0x30d3	0.1508
63	0xbc54	-1.082
64	0x3d90	1.391
65	0x3dec	1.48
66	0xbf81	-1.876
67	0x2006	0.00786
68	0xaab3	-0.05234
69	0x38bc	0.592
70	0xbdee	-1.482
71	0x35d0	0.3633
72	0x40ce	2.402
73	0xb1c4	-0.1802
74	0x28a0	0.03613
75	0xb420	-0.2578
76	0xbb8a	-0.9424
77	0x409c	2.305
78	0xb4b7	-0.2947
79	0xb7fb	-0.4988
80	0x3efe	1.748
81	0x395f	0.6714
82	0x3d7e	1.373
83	0x39be	0.718
84	0x3044	0.1333
85	0x3cda	1.213
86	0xba91	-0.821
87	0xb98b	-0.693
88	0x2a6f	0.05026
89	0x3ccb	1.198
90	0xb953	-0.6655
91	0x38ba	0.591
92	0x3832	0.5244
93	0xb64a	-0.393
94	0x30da	0.1516
95	0x40b5	2.354
96	0x432a	3.582
97	0x4688	6.53
98	0xc29e	-3.309
99	0xc7ab	-7.668
100	0xc18b	-2.771
101	0xc49c	-4.61
102	0xbf06	-1.756
103	0xc0e6	-2.45
104	0xb85d	-0.5454
105	0x4181	2.752
106	0xc501	-5.004
107	0x44af	4.684
108	0x446b	4.418
109	0x46b9	6.723
110	0xc192	-2.785
111	0x412d	2.588
112	0xc2ab	-3.334
113	0xbfad	-1.919
114	0x394c	0.662
115	0x45de	5.867
116	0x2977	0.0427
117	0xc6f9	-6.973
118	0x3de0	1.469
119	0xc3ec	-3.96
120	0x408b	2.271
121	0x42e4	3.445
122	0x40cb	2.396
123	0xae1f	-0.09564
124	0xc027	-2.076
125	0xa482	-0.01761
126	0xafdd	-0.12286
127	0xbcb7	-1.179
128	0xc1ce	-2.902
129	0xb2e0	-0.2148
130	0xb8c0	-0.5938
131	0x3caf	1.171
132	0x390a	0.63
133	0xc025	-2.072
134	0xc3cc	-3.898
135	0xbd03	-1.253
136	0x380b	0.5054
137	0xba74	-0.8066
138	0x3cc6	1.193
139	0x40c3	2.38
140	0x35fb	0.3738
141	0xb9fa	-0.747
142	0xbc8e	-1.139
143	0x3996	0.698
144	0x3c14	1.02
145	0x36dd	0.429
146	0xb73e	-0.4526
147	0xb9dc	-0.7324
148	0x3b46	0.909
149	0x3c09	1.009
150	0xb9fd	-0.7485
151	0x346c	0.2764
152	0x388e	0.5693
153	0x3ee8	1.727
154	0x3c9b	1.151
155	0x367d	0.4055
156	0x3456	0.271
157	0x384c	0.537
158	0x2c22	0.0646
159	0xbc3f	-1.062
160	0xb3f0	-0.248
161	0xb624	-0.3838
162	0xab76	-0.0583
163	0x3235	0.194
164	0x3ab1	0.8364
165	0xb199	-0.1749
166	0xb460	-0.2734
167	0x3a98	0.824
168	0x445d	4.363
169	0x3eab	1.667
170	0x3963	0.6733
171	0xb8b2	-0.587
172	0xbdad	-1.419
173	0x3dc3	1.44
174	0xc1fe	-2.996
175	0x994b	-0.002584
176	0xb28b	-0.2045
177	0x4320	3.562
178	0xc1c9	-2.893
179	0xc157	-2.67
180	0xbb84	-0.9395
181	0x3ef7	1.741
182	0xc539	-5.223
183	0xbe77	-1.616
184	0xbe4a	-1.572
185	0xc187	-2.764
186	0x40d5	2.416
187	0x40aa	2.332
188	0x4616	6.086
189	0x3a32	0.7744
190	0x41e5	2.947
191	0x3e8f	1.64
192	0x3bf0	0.992
193	0x3d8b	1.386
194	0x3b88	0.9414
195	0xacf2	-0.0773
196	0xbedd	-1.716
197	0x396b	0.6772
198	0xbcef	-1.233
199	0xba1e	-0.7646
200	0xc0c7	-2.389
201	0x38d4	0.6035
202	0xbdda	-1.463
203	0x3b1a	0.8877
204	0x34ac	0.292
205	0xc069	-2.205
206	0xbfa1	-1.907
207	0x36db	0.4285
208	0xb777	-0.4666
209	0xbda1	-1.407
210	0x424e	3.152
211	0x3dd5	1.458
212	0x3af4	0.869
213	0x30c7	0.1493
214	0x3c46	1.068
215	0x341c	0.2568

depthwise_conv2d_1/Bias f2 [24]
0	0x0000	0.0
1	0x0000	0.0
2	0x0000	0.0
3	0x0000	0.0
4	0x0000	0.0
5	0x0000	0.0
6	0x0000	0.0
7	0x0000	0.0
8	0x0000	0.0
9	0x0000	0.0
10	0x0000	0.0
11	0x0000	0.0
12	0x0000	0.0
13	0x0000	0.0
14	0x0000	0.0
15	0x0000	0.0
16	0x0000	0.0
17	0x0000	0.0
18	0x0000	0.0
19	0x0000	0.0
20	0x0000	0.0
21	0x0000	0.0
22	0x0000	0.0
23	0x0000	0.0

conv2d_2/Kernel f2 [24, 1, 1, 24]
0	0xac17	-0.0639
1	0x216c	0.01059
2	0x1df0	0.0058
3	0x98e0	-0.00238
4	0xaa24	-0.04797
5	0x28a1	0.03616
6	0x97fb	-0.001948
7	0x251f	0.02
8	0xaa5b	-0.04965
9	0x954c	-0.001293
10	0x2410	0.01587
11	0xa4a1	-0.01808
12	0xa4eb	-0.01921
13	0x295c	0.04187
14	0x26ff	0.02733
15	0x2899	0.03592
16	0xa813	-0.03183
17	0x2874	0.0348
18	0xacb0	-0.07324
19	0xa612	-0.02371
20	0x9ad9	-0.003344
21	0x2b13	0.05527
22	0x1eae	0.006523
23	0x2e5b	0.0993
24	0x91cc	-0.0007076
25	0xb133	-0.1625
26	0x99f9	-0.002916
27	0x2e4b	0.0983
28	0x2e42	0.0978
29	0x2b8e	0.05902
30	0x1ccd	0.00469
31	0x2bce	0.06097
32	0x304c	0.1343
33	0xabc9	-0.06082
34	0xa068	-0.008606
35	0xa2e6	-0.01347
36	0xa1bf	-0.01122
37	0x262c	0.02411
38	0xa0ea	-0.0096
39	0xa73f	-0.0283
40	0x228a	0.01277
41	0x2704	0.0274
42	0x26b8	0.02625
43	0x2543	0.02055
44	0xab76	-0.0583
45	0xab54	-0.05725
46	0x91ed	-0.0007234
47	0xac5b	-0.06805
48	0xa99d	-0.04385
49	0x9eb5	-0.00655
50	0x21c1	0.01124
51	0xa723	-0.02788
52	0x24b8	0.01843
53	0xa8a6	-0.03632
54	0x29d9	0.0457
55	0x1f70	0.007263
56	0x9be6	-0.003857
57	0x2a66	0.05
58	0xa45c	-0.01703
59	0x1b84	0.00367
60	0x239b	0.014854
61	0x2c5a	0.068
62	0xa880	-0.03516
63	0x1dd9	0.00571
64	0x2767	0.02892
65	0x2e8d	0.10236
66	0x9f1e	-0.00695
67	0x2dbf	0.0898
68	0xa3e5	-0.01542
69	0x9642	-0.001528
70	0x27e8	0.03088
71	0x96f8	-0.001701
72	0x204a	0.00838
73	0xace5	-0.0765
74	0x2a59	0.0496
75	0x2b71	0.05814
76	0x26ce	0.02658
77	0x2f38	0.1128
78	0xa613	-0.02373
79	0xa07b	-0.00875
80	0xa6eb	-0.02702
81	0x2e7f	0.1015
82	0x2811	0.03177
83	0xac41	-0.06647
84	0xa8b5	-0.03677
85	0x2e60	0.0996
86	0x9632	-0.001513
87	0xa2ea	-0.013504
88	0x9d85	-0.00539
89	0xa613	-0.02373
90	0x1cdf	0.004757
91	0xa26b	-0.012535
92	0xa93a	-0.04083
93	0x23fc	0.015594
94	0x2bf8	0.06226
95	0xa4e1	-0.01906
96	0x214a	0.01033
97	0xa23d	-0.012184
98	0x2261	0.01246
99	0x19eb	0.00289
100	0xa20e	-0.011826
101	0x2524	0.02008
102	0x2523	0.02007
103	0x9c09	-0.00394
104	0xa0b0	-0.009155
105	0xa07f	-0.00878
106	0x24bf	0.01854
107	0xa156	-0.01042
108	0x2246	0.01225
109	0x2460	0.01709
110	0x22b2	0.01308
111	0xa0a3	-0.009056
112	0xa3a2	-0.01491
113	0x1c3e	0.004143
114	0x1271	0.0007863
115	0xa580	-0.02148
116	0xa810	-0.03174
117	0x27c2	0.0303
118	0x2227	0.01202
119	0x0840	0.0001297
120	0xa0f8	-0.009705
121	0x254f	0.02074
122	0xa7bf	-0.03026
123	0x2995	0.0436
124	0x24d6	0.01889
125	0x0e79	0.000395
126	0xa4a7	-0.01817
127	0x281b	0.03207
128	0x2050	0.00842
129	0x29eb	0.04623
130	0x220a	0.011795
131	0x2092	0.00893
132	0xa42e	-0.01633
133	0x2cd9	0.07574
134	0x24c4	0.01862
135	0xa0f1	-0.00965
136	0x25c2	0.02249
137	0x1883	0.002203
138	0xa78c	-0.02948
139	0xa4b6	-0.0184
140	0x26b6	0.02621
141	0xa45c	-0.01703
142	0x2140	0.010254
143	0xaa05	-0.04703
144	0x9cd8	-0.00473
145	0xaaaa	-0.05206
146	0xa54c	-0.02069
147	0x1e7c	0.006332
148	0x23d0	0.01526
149	0x993d	-0.002558
150	0x2562	0.02103
151	0x1e2d	0.00603
152	0x1b98	0.003708
153	0x9cbf	-0.004635
154	0x28ea	0.0384
155	0x25d8	0.02283
156	0xaacb	-0.05307
157	0x96f6	-0.001699
158	0x2309	0.01374
159	0xa18e	-0.01085
160	0x175a	0.001795
161	0x259f	0.02196
162	0x98e8	-0.002396
163	0xa5c9	-0.0226
164	0xa83a	-0.03302
165	0x204a	0.00838
166	0x98ec	-0.002403
167	0x1f31	0.007023
168	0xa054	-0.00845
169	0x1f6d	0.00725
170	0xaad4	-0.05334
171	0x9b55	-0.00358
172	0xa872	-0.03473
173	0x9b2d	-0.003504
174	0x9c28	-0.00406
175	0x28af	0.0366
176	0x2686	0.02548
177	0xa364	-0.014435
178	0x24d3	0.01884
179	0x268d	0.02559
180	0xa39e	-0.01488
181	0xa9a1	-0.04398
182	0x9e69	-0.00626
183	0x23ba	0.01509
184	0xa70f	-0.02757
185	0x9f6f	-0.00726
186	0x9e40	-0.006104
187	0x9a9d	-0.00323
188	0x253b	0.02043
189	0xa017	-0.00799
190	0x9f7e	-0.007317
191	0xa479	-0.01747
192	0xab71	-0.05814
193	0x2537	0.02037
194	0xa87b	-0.035
195	0x1eb7	0.006557
196	0x2859	0.03397
197	0x9c02	-0.003914
198	0x20bb	0.00924
199	0xa2d5	-0.01334
200	0x98f6	-0.002422
201	0x282f	0.03268
202	0xaffc	-0.12476
203	0x9fb8	-0.007538
204	0x291e	0.03998
205	0xaa26	-0.04803
206	0x2888	0.0354
207	0x16d7	0.00167
208	0x284a	0.0335
209	0xa6bd	-0.02632
210	0x2262	0.01247
211	0x1f43	0.00709
212	0x1eff	0.006832
213	0x9ddd	-0.005726
214	0xac22	-0.0646
215	0x2573	0.02129
216	0x1f2f	0.007015
217	0x2a3d	0.04874
218	0x2220	0.01196
219	0xaa41	-0.04886
220	0xac16	-0.06384
221	0x100f	0.0004954
222	0xa5f7	-0.0233
223	0x8057	-5.2e-06
224	0xaa85	-0.05093
225	0x22f3	0.01357
226	0x20ad	0.00913
227	0x2ace	0.05316
228	0xa613	-0.02373
229	0xa126	-0.010056
230	0x1cc8	0.00467
231	0xa1c3	-0.01125
232	0x283d	0.0331
233	0xa332	-0.01405
234	0x1f7d	0.007313
235	0x112c	0.0006313
236	0x2bf1	0.06204
237	0x1ffc	0.007797
238	0x1d60	0.00525
239	0x24c3	0.0186
240	0xac8e	-0.07117
241	0x9f1b	-0.00694
242	0xa78e	-0.02951
243	0x1fd2	0.007637
244	0xa597	-0.02184
245	0x2452	0.01688
246	0x9e81	-0.00635
247	0xa249	-0.012276
248	0x2030	0.00818
249	0x9fda	-0.007668
250	0x2de4	0.09204
251	0x1936	0.002544
252	0x202a	0.00813
253	0x9dd4	-0.00569
254	0x262c	0.02411
255	0x208e	0.008896

conv2d_2/Bias f2 [24]
0	0x3bfc	0.998
1	0x403c	2.117
2	0x369c	0.413
3	0x3e12	1.518
4	0x38e9	0.614
5	0x3e83	1.628
6	0x3e9b	1.651
7	0x38f1	0.6177
8	0xbe77	-1.616
9	0x320f	0.1893
10	0xb64b	-0.3933
11	0xb96c	-0.6777
12	0x42c6	3.387
13	0x3d1d	1.278
14	0x4250	3.156
15	0x3c3f	1.062
16	0x3fe4	1.973
17	0x3829	0.52
18	0xb545	-0.3293
19	0x3c33	1.05
20	0x3754	0.458
21	0x9e6b	-0.006268
22	0x3d00	1.25
23	0x3d30	1.297

depthwise_conv2d_2/Kernel f2 [1, 3, 3, 24]
0	0xb39c	-0.2378
1	0xbc59	-1.087
2	0xb7f0	-0.496
3	0xadfc	-0.0935
4	0xbe34	-1.551
5	0xb52b	-0.323
6	0x39d5	0.729
7	0x3969	0.6763
8	0x3b15	0.8853
9	0x34c8	0.2988
10	0xb939	-0.653
11	0x3471	0.2776
12	0x2f8b	0.11786
13	0xba79	-0.809
14	0x2d45	0.08234
15	0xb2ce	-0.2126
16	0xb9db	-0.732
17	0xbaf4	-0.869
18	0xb3ce	-0.2439
19	0xbd6b	-1.3545
20	0xb363	-0.2308
21	0x3e26	1.537
22	0xa95d	-0.0419
23	0xb44c	-0.2686
24	0xb8c4	-0.5957
25	0x368f	0.41
26	0xbe86	-1.631
27	0x423c	3.117
28	0xc0a6	-2.324
29	0xbcf4	-1.238
30	0x38e5	0.612
31	0x387f	0.562
32	0x3d5f	1.343
33	0xbcca	-1.197
34	0xbf1c	-1.777
35	0x289a	0.03595
36	0xb932	-0.6494
37	0x3d06	1.256
38	0xb375	-0.233
39	0x3902	0.626
40	0xba03	-0.7515
41	0x4188	2.766
42	0xbf90	-1.891
43	0xbcb7	-1.179
44	0xb50f	-0.3162
45	0x3f82	1.877
46	0xb7ee	-0.4956
47	0x3e52	1.58
48	0x3802	0.501
49	0xbc6f	-1.108
50	0xb164	-0.1685
51	0x4090	2.281
52	0xbd39	-1.306
53	0xbd67	-1.351
54	0x3200	0.1875
55	0xbd5b	-1.339
56	0x1ec3	0.006603
57	0xbca5	-1.161
58	0x3d89	1.384
59	0x3118	0.1592
60	0xb7bc	-0.4834
61	0xbcc0	-1.1875
62	0xb8ac	-0.584
63	0x2beb	0.06186
64	0x30c6	0.1492
65	0x3d2b	1.292
66	0x3e6c	1.605
67	0x3b31	0.899
68	0x3048	0.1338
69	0x3437	0.2634
70	0x3b30	0.8984
71	0x37b5	0.4817
72	0x3cb1	1.173
73	0xbd92	-1.393
74	0xbded	-1.481
75	0xc016	-2.043
76	0xc0a3	-2.318
77	0x3c69	1.103
78	0xbb41	-0.9067
79	0xb6aa	-0.4165
80	0x3e29	1.54
81	0x3c2d	1.044
82	0xbd34	-1.301
83	0x2569	0.02113
84	0x39c0	0.7188
85	0xbde2	-1.471
86	0xb878	-0.5586
87	0x4088	2.266
88	0xb7c2	-0.4849
89	0xc189	-2.768
90	0xbf1c	-1.777
91	0xbf43	-1.815
92	0xbe98	-1.648
93	0x3b87	0.941
94	0x34ff	0.3123
95	0x4129	2.58
96	0x4481	4.504
97	0xc56d	-5.426
98	0x36f1	0.4338
99	0x43ab	3.834
100	0x383e	0.5303
101	0xc3dc	-3.93
102	0xc6d0	-6.812
103	0x46a6	6.65
104	0x45a1	5.63
105	0xbfe0	-1.969
106	0x3f3d	1.81
107	0x3009	0.1261
108	0xc4dd	-4.863
109	0xbc32	-1.049
110	0xc63e	-6.242
111	0x454c	5.297
112	0x45e3	5.887
113	0x355a	0.3345
114	0xc48b	-4.543
115	0xc408	-4.03
116	0xc59a	-5.6
117	0x442c	4.17
118	0x380f	0.5073
119	0x3c9a	1.15
120	0x401a	2.05
121	0x34ad	0.2922
122	0xbcbf	-1.187
123	0xb4d9	-0.303
124	0xbd24	-1.285
125	0xbd51	-1.329
126	0x3620	0.3828
127	0xbb64	-0.924
128	0x32db	0.2142
129	0xbae4	-0.8613
130	0x3f20	1.781
131	0xac84	-0.07056
132	0x3884	0.5645
133	0xc05b	-2.178
134	0xb86f	-0.554
135	0x25d1	0.02272
136	0xb697	-0.4119
137	0x430f	3.53
138	0x3cac	1.168
139	0x36ec	0.4326
140	0xb344	-0.227
141	0x3e49	1.571
142	0x3b8c	0.9434
143	0x395a	0.669
144	0xa9fb	-0.04672
145	0xb46d	-0.2766
146	0xbc2b	-1.042
147	0xbaff	-0.8745
148	0xc07b	-2.24
149	0x3fc4	1.941
150	0x360b	0.3777
151	0xb699	-0.4124
152	0x373c	0.4521
153	0x3f84	1.879
154	0xbe83	-1.628
155	0xbd3b	-1.308
156	0x3f19	1.774
157	0x2f93	0.11835
158	0xaab0	-0.05225
159	0x3475	0.2786
160	0xa9a6	-0.04413
161	0xbd16	-1.271
162	0x3a6e	0.8037
163	0xb232	-0.1936
164	0xbd7a	-1.369
165	0xb3b9	-0.2413
166	0x3a9d	0.8267
167	0x3e23	1.534
168	0x3e25	1.536
169	0xb666	-0.4
170	0xbc36	-1.053
171	0x3a81	0.813
172	0xb3d2	-0.2444
173	0xb93f	-0.656
174	0xbac1	-0.844
175	0x3bce	0.9756
176	0x3f32	1.799
177	0x400c	2.023
178	0xb575	-0.341
179	0xc47c	-4.484
180	0x4145	2.635
181	0xc06b	-2.209
182	0xb9b9	-0.7153
183	0xb6bb	-0.4207
184	0x3d12	1.268
185	0xc232	-3.098
186	0x3e64	1.598
187	0xbd6f	-1.358
188	0xb473	-0.278
189	0xb862	-0.548
190	0x3f68	1.852
191	0xbf54	-1.832
192	0x401c	2.055
193	0x3540	0.3281
194	0xbd71	-1.36
195	0x3cc3	1.19
196	0xbf14	-1.77
197	0xb85e	-0.546
198	0xb886	-0.5654
199	0xb808	-0.504
200	0x3da0	1.406
201	0x3507	0.3142
202	0xb635	-0.388
203	0xb919	-0.637
204	0x3519	0.3186
205	0xbf0b	-1.761
206	0xb438	-0.2637
207	0xa513	-0.01982
208	0x341e	0.2573
209	0x3b82	0.9385
210	0x3f65	1.849
211	0xbe56	-1.584
212	0xab1b	-0.0555
213	0xb474	-0.2783
214	0x3809	0.5044
215	0x327b	0.2025

depthwise_conv2d_2/Bias f2 [24]
0	0x0000	0.0
1	0x0000	0.0
2	0x0000	0.0
3	0x0000	0.0
4	0x0000	0.0
5	0x0000	0.0
6	0x0000	0.0
7	0x0000	0.0
8	0x0000	0.0
9	0x0000	0.0
10	0x0000	0.0
11	0x0000	0.0
12	0x0000	0.0
13	0x0000	0.0
14	0x0000	0.0
15	0x0000	0.0
16	0x0000	0.0
17	0x0000	0.0
18	0x0000	0.0
19	0x0000	0.0
20	0x0000	0.0
21	0x0000	0.0
22	0x0000	0.0
23	0x0000	0.0

conv2d_3/Kernel f2 [24, 1, 1, 24]
0	0xa740	-0.02832
1	0xad33	-0.08124
2	0x23c8	0.0152
3	0xa4e4	-0.0191
4	0x9d67	-0.005276
5	0x9fa8	-0.007477
6	0xaa9e	-0.0517
7	0xadb8	-0.08936
8	0xaa7b	-0.05063
9	0x241b	0.01604
10	0x12a7	0.000812
11	0x20e2	0.00954
12	0xa5f1	-0.02321
13	0x24d9	0.01894
14	0xa6fe	-0.02731
15	0x9e9a	-0.006447
16	0x28f5	0.03873
17	0xa4db	-0.01897
18	0x277c	0.02924
19	0xad3e	-0.0819
20	0x28a4	0.03625
21	0x1ce1	0.004765
22	0xa4eb	-0.01921
23	0x9dbd	-0.005604
24	0xa813	-0.03183
25	0x30a0	0.1445
26	0x27e5	0.03084
27	0x2542	0.02054
28	0x285d	0.0341
29	0xa3a8	-0.01495
30	0x2839	0.033
31	0x9ec4	-0.006607
32	0xa10f	-0.00988
33	0x1ebb	0.006573
34	0xaa49	-0.0491
35	0xa836	-0.0329
36	0x1a0b	0.00295
37	0x1fd1	0.007633
38	0x9fd5	-0.00765
39	0xa1b6	-0.011154
40	0xa70e	-0.02756
41	0xb40d	-0.2532
42	0xac72	-0.06946
43	0x1465	0.001073
44	0x261a	0.02383
45	0x95d9	-0.001428
46	0xa025	-0.008095
47	0x2058	0.008484
48	0x2393	0.01479
49	0x1aea	0.003376
50	0x22b2	0.01308
51	0x2767	0.02892
52	0x25d0	0.0227
53	0xa80c	-0.03162
54	0xa874	-0.0348
55	0xa176	-0.010666
56	0x268a	0.02554
57	0xa3d9	-0.01533
58	0x2834	0.03284
59	0xa5f3	-0.02324
60	0x28d6	0.03778
61	0x225a	0.012405
62	0xa2bb	-0.013145
63	0x1ecf	0.00665
64	0xa285	-0.01273
65	0x2828	0.03247
66	0x1fd6	0.007652
67	0x89e9	-0.0001804
68	0x2389	0.01472
69	0x90f6	-0.0006056
70	0x259a	0.02188
71	0xa0d9	-0.00947
72	0x259e	0.02194
73	0x28b8	0.03687
74	0x17a3	0.001864
75	0xa9e7	-0.0461
76	0x11a2	0.0006876
77	0x2e94	0.1028
78	0x24cc	0.01874
79	0x2b22	0.05573
80	0x9613	-0.001483
81	0xa749	-0.02846
82	0x1e41	0.006107
83	0x1d4b	0.00517
84	0xa948	-0.04126
85	0x1e9f	0.006466
86	0x240b	0.0158
87	0xa8d8	-0.03784
88	0xab31	-0.05618
89	0x2002	0.00783
90	0x2659	0.0248
91	0x2927	0.04025
92	0x2681	0.0254
93	0x1279	0.00079
94	0x24b0	0.01831
95	0xa3f8	-0.015564
96	0xa427	-0.01622
97	0x2619	0.02382
98	0x250d	0.01973
99	0xa164	-0.01053
100	0x25b5	0.0223
101	0x9dba	-0.005592
102	0xa78d	-0.0295
103	0xa977	-0.0427
104	0xa35d	-0.01438
105	0xa435	-0.01643
106	0x96f7	-0.0017
107	0x2010	0.007935
108	0xa4cf	-0.01878
109	0x2476	0.01743
110	0x2701	0.02736
111	0xa9b1	-0.04446
112	0x25be	0.02243
113	0x29b1	0.04446
114	0x23b0	0.015015
115	0xa2a4	-0.01297
116	0x21a1	0.010994
117	0x23f0	0.0155
118	0x9612	-0.001482
119	0x9f12	-0.006905
120	0xa2d2	-0.01332
121	0xa0f6	-0.00969
122	0x2206	0.011765
123	0xabc9	-0.06082
124	0x1f62	0.00721
125	0x26bf	0.02635
126	0xa151	-0.01038
127	0xa7f7	-0.03111
128	0x9f23	-0.00697
129	0x9e6a	-0.006264
130	0x24b4	0.01837
131	0x1eed	0.006763
132	0xa359	-0.01435
133	0x9e6c	-0.00627
134	0xa701	-0.02736
135	0x208c	0.00888
136	0x0034	3.1e-06
137	0x2502	0.01956
138	0x2820	0.03223
139	0xa274	-0.0126
140	0x237e	0.01463
141	0x2560	0.021
142	0xa449	-0.01674
143	0xab9f	-0.05954
144	0x251b	0.01994
145	0x2826	0.0324
146	0x268d	0.02559
147	0x254a	0.02066
148	0xa14c	-0.010345
149	0x2a44	0.04895
150	0x2a36	0.04852
151	0xacaf	-0.0732
152	0x9f50	-0.00714
153	0x264c	0.0246
154	0x2731	0.02809
155	0xa7a2	-0.02982
156	0x211f	0.01
157	0x277d	0.02925
158	0x2f8f	0.1181
159	0xa8a7	-0.03635
160	0xa4a9	-0.0182
161	0x1488	0.001106
162	0x9690	-0.001602
163	0x1ffd	0.0078
164	0x2bc5	0.0607
165	0xa82a	-0.03253
166	0xa86c	-0.03455
167	0xa830	-0.0327
168	0x241e	0.01608
169	0x9cc1	-0.004642
170	0x984f	-0.002104
171	0x1f47	0.007107
172	0xa3bf	-0.01513
173	0x9cd0	-0.0047
174	0xa467	-0.0172
175	0xa9fd	-0.04678
176	0xa5d4	-0.02277
177	0x2e09	0.0943
178	0xa0b4	-0.009186
179	0xa100	-0.009766
180	0x99d5	-0.002848
181	0x2c48	0.0669
182	0x983e	-0.002071
183	0x9fd2	-0.007637
184	0xad5c	-0.08374
185	0x207e	0.00877
186	0x2922	0.0401
187	0xa916	-0.03973
188	0x2650	0.02466
189	0x26c9	0.0265
190	0x2228	0.012024
191	0xa08a	-0.008865
192	0x1f0a	0.006874
193	0x25d2	0.02274
194	0xa881	-0.0352
195	0xa3d7	-0.01531
196	0x2a21	0.04788
197	0x2690	0.02563
198	0x2b18	0.05542
199	0x1a79	0.00316
200	0xad77	-0.0854
201	0xa53e	-0.02048
202	0x8c4b	-0.000262
203	0xa328	-0.01398
204	0xa7e7	-0.03087
205	0x229c	0.01291
206	0xa6d4	-0.02667
207	0x225a	0.012405
208	0x9c3f	-0.004147
209	0x1ae3	0.003363
210	0x201a	0.00801
211	0x2c43	0.0666
212	0xa8f2	-0.03864
213	0x1f25	0.006977
214	0xa656	-0.02475
215	0xa2c7	-0.01324
216	0x1dd3	0.005688
217	0x2ce8	0.07666
218	0x2b30	0.05615
219	0x9abb	-0.003286
220	0x2968	0.04224
221	0xaa77	-0.0505
222	0x24e7	0.01915
223	0x9cee	-0.004814
224	0x9a47	-0.003065
225	0xa9b7	-0.04465
226	0x2787	0.0294
227	0xa64c	-0.0246
228	0x1a55	0.003092
229	0x2808	0.0315
230	0x2a5e	0.04974
231	0x21a6	0.01103
232	0xa7d6	-0.03061
233	0xa1b6	-0.011154
234	0x2093	0.008934
235	0xa1cd	-0.01133
236	0xa722	-0.02786
237	0xa714	-0.02765
238	0xaa3f	-0.0488
239	0xa890	-0.03564
240	0x942e	-0.00102
241	0x181e	0.00201
242	0x983f	-0.002073
243	0x23e3	0.0154
244	0x227a	0.01265
245	0x209e	0.00902
246	0xa689	-0.02553
247	0xa0ec	-0.00961
248	0xa599	-0.02187
249	0xa26f	-0.012566
250	0x1cbf	0.004635
251	0x23be	0.01512
252	0x1b2c	0.003502
253	0x23ae	0.015
254	0x1957	0.002607
255	0x204f	0.008415

conv2d_3/Bias f2 [24]
0	0x3605	0.3762
1	0x3dd0	1.453
2	0x244c	0.01678
3	0x4163	2.693
4	0x41a0	2.812
5	0x3f62	1.846
6	0x4434	4.203
7	0x412f	2.592
8	0x3d95	1.3955
9	0x453e	5.242
10	0x3d01	1.251
11	0x40c1	2.377
12	0x4502	5.008
13	0xbf82	-1.877
14	0x412f	2.592
15	0xb4ca	-0.2993
16	0x4195	2.791
17	0x3a47	0.7847
18	0x401e	2.059
19	0x30aa	0.1458
20	0xc653	-6.324
21	0x44c9	4.785
22	0x39b4	0.713
23	0x2ffd	0.1248

depthwise_conv2d_3/Kernel f2 [1, 3, 3, 24]
0	0xbee5	-1.724
1	0x318c	0.1733
2	0xa934	-0.04065
3	0x35b4	0.3564
4	0x3967	0.6753
5	0x3863	0.5483
6	0xc01e	-2.059
7	0x3134	0.1626
8	0x3c15	1.0205
9	0x3448	0.2676
10	0xaf44	-0.1135
11	0x3cdb	1.214
12	0xb650	-0.3945
13	0x2fd5	0.1224
14	0x3b3b	0.904
15	0x3866	0.55
16	0x4031	2.096
17	0xbb95	-0.9478
18	0x3e9f	1.655
19	0xb1ca	-0.1809
20	0xbb23	-0.892
21	0xaf43	-0.11346
22	0xb70d	-0.4407
23	0x3ae8	0.8633
24	0x3b96	0.948
25	0xbc51	-1.079
26	0x3a02	0.751
27	0x33ca	0.2434
28	0xb87d	-0.561
29	0x3db3	1.425
30	0xc271	-3.22
31	0xbc24	-1.035
32	0x3c20	1.031
33	0xbad5	-0.854
34	0x3df5	1.489
35	0xbb9c	-0.951
36	0xad07	-0.07855
37	0xac22	-0.0646
38	0xb6a7	-0.4158
39	0x3c13	1.019
40	0x3a6b	0.8022
41	0xbfe6	-1.975
42	0x36a4	0.415
43	0x3b44	0.908
44	0xbddd	-1.466
45	0x425f	3.186
46	0xbf71	-1.86
47	0xbc2c	-1.043
48	0x405b	2.178
49	0xb9d5	-0.729
50	0x3af2	0.868
51	0xaaaf	-0.05222
52	0xc017	-2.045
53	0xba15	-0.7603
54	0xb53e	-0.3276
55	0xbc1e	-1.029
56	0xb577	-0.3416
57	0x3a1f	0.765
58	0x3d5d	1.341
59	0xbc84	-1.129
60	0x2b79	0.05838
61	0x3821	0.516
62	0x2f6a	0.11584
63	0x3083	0.141
64	0xb0bf	-0.1483
65	0xb8f2	-0.618
66	0x3ff7	1.991
67	0x3c89	1.134
68	0xb86e	-0.5537
69	0x345e	0.273
70	0xafbd	-0.1209
71	0xb73e	-0.4526
72	0xc482	-4.508
73	0xbe22	-1.533
74	0x3863	0.5483
75	0x3c36	1.053
76	0xbac6	-0.8467
77	0x405c	2.18
78	0xc005	-2.01
79	0x403e	2.121
80	0xbd28	-1.289
81	0xb4ae	-0.2925
82	0x3875	0.557
83	0x3b75	0.932
84	0xba6f	-0.804
85	0x3ce1	1.22
86	0x3ecb	1.698
87	0x3cb1	1.173
88	0x3ef5	1.739
89	0x33b1	0.2404
90	0x3d21	1.282
91	0xb8a1	-0.5786
92	0xbcea	-1.229
93	0xc1ca	-2.895
94	0xbad3	-0.853
95	0x3ea3	1.659
96	0xc0b0	-2.344
97	0xc4a1	-4.63
98	0x40be	2.371
99	0xc477	-4.465
100	0x4020	2.062
101	0x43ec	3.96
102	0x3dac	1.418
103	0x3f0e	1.764
104	0xc36c	-3.71
105	0xc5ac	-5.67
106	0x45ff	5.996
107	0xbe9b	-1.651
108	0xc290	-3.281
109	0x41b0	2.844
110	0x445a	4.35
111	0x4634	6.203
112	0x41c8	2.89
113	0xc479	-4.473
114	0xbd26	-1.287
115	0xc48a	-4.54
116	0xc517	-5.09
117	0x41bb	2.865
118	0x45bb	5.73
119	0x44c5	4.77
120	0x4066	2.2
121	0xb97f	-0.687
122	0x3c65	1.099
123	0xc064	-2.195
124	0xbe25	-1.536
125	0xc0de	-2.434
126	0x3041	0.1329
127	0xafb3	-0.1203
128	0x3f22	1.783
129	0x3b63	0.9233
130	0x3e81	1.626
131	0xb818	-0.5117
132	0xa999	-0.04373
133	0x3ca9	1.165
134	0x392d	0.647
135	0x3093	0.143
136	0x2ca9	0.0728
137	0xad75	-0.08527
138	0x36fc	0.4365
139	0x380d	0.5063
140	0xbcf3	-1.237
141	0xac34	-0.0657
142	0xb80d	-0.5063
143	0xb2cd	-0.2125
144	0x302d	0.1305
145	0x387f	0.562
146	0x3425	0.259
147	0xbc8d	-1.138
148	0x3cc5	1.192
149	0x3ac9	0.848
150	0x3c86	1.131
151	0x3639	0.389
152	0x3d5c	1.34
153	0xb964	-0.674
154	0x3685	0.4075
155	0x3ef0	1.734
156	0xbd02	-1.252
157	0x399e	0.702
158	0x37d8	0.4902
159	0x3ca5	1.161
160	0x3b13	0.8843
161	0x367b	0.405
162	0x3ecd	1.7
163	0x373f	0.453
164	0xaf23	-0.1115
165	0xbc37	-1.054
166	0xb94d	-0.6626
167	0xb4fa	-0.311
168	0x37e0	0.4922
169	0xbcc4	-1.191
170	0x42d4	3.414
171	0xbb68	-0.926
172	0xc416	-4.086
173	0xaf19	-0.1109
174	0x449c	4.61
175	0x3d28	1.289
176	0x3d48	1.32
177	0x33bb	0.2416
178	0x396d	0.678
179	0xbc01	-1.001
180	0xaadd	-0.05362
181	0x41e7	2.951
182	0x421b	3.053
183	0x3dc7	1.444
184	0xbd9c	-1.402
185	0x3dd7	1.46
186	0x286c	0.03455
187	0x3170	0.1699
188	0xb850	-0.539
189	0xbd81	-1.376
190	0xbdd5	-1.458
191	0xb9bf	-0.7183
192	0xad9d	-0.0877
193	0xb6ec	-0.4326
194	0x3d3b	1.308
195	0xb6e0	-0.4297
196	0xc14d	-2.65
197	0xb9f7	-0.7456
198	0x3e28	1.539
199	0x3cd2	1.205
200	0x412d	2.588
201	0x3983	0.689
202	0x3a8d	0.819
203	0x31cf	0.1815
204	0x341c	0.2568
205	0x3efa	1.744
206	0x31fd	0.1871
207	0xa917	-0.03976
208	0xb6ec	-0.4326
209	0x3b1d	0.889
210	0x39e7	0.738
211	0x34c6	0.2983
212	0xb9d5	-0.729
213	0xb626	-0.3843
214	0xb3d0	-0.2441
215	0x2f4e	0.11414

depthwise_conv2d_3/Bias f2 [24]
0	0x0000	0.0
1	0x0000	0.0
2	0x0000	0.0
3	0x0000	0.0
4	0x0000	0.0
5	0x0000	0.0
6	0x0000	0.0
7	0x0000	0.0
8	0x0000	0.0
9	0x0000	0.0
10	0x0000	0.0
11	0x0000	0.0
12	0x0000	0.0
13	0x0000	0.0
14	0x0000	0.0
15	0x0000	0.0
16	0x0000	0.0
17	0x0000	0.0
18	0x0000	0.0
19	0x0000	0.0
20	0x0000	0.0
21	0x0000	0.0
22	0x0000	0.0
23	0x0000	0.0

conv2d_4/Kernel f2 [24, 1, 1, 24]
0	0x3128	0.1611
1	0x282c	0.0326
2	0xa623	-0.02397
3	0x95be	-0.001402
4	0xa90b	-0.0394
5	0xafe5	-0.12335
6	0xa0d7	-0.00945
7	0xa693	-0.02568
8	0x2bdb	0.06137
9	0x2825	0.03238
10	0x2473	0.01738
11	0x268e	0.0256
12	0x28cb	0.03745
13	0xaae5	-0.05386
14	0x2960	0.042
15	0x1f30	0.00702
16	0x969c	-0.001614
17	0x27d3	0.03056
18	0x1ce5	0.00478
19	0xa971	-0.0425
20	0x2662	0.02493
21	0x28a7	0.03635
22	0x2c8f	0.0712
23	0xa895	-0.0358
24	0x2170	0.01062
25	0x2f47	0.1137
26	0xa90c	-0.03943
27	0x22f9	0.01362
28	0xa814	-0.03186
29	0xa45a	-0.017
30	0xa911	-0.03958
31	0xaca9	-0.0728
32	0x9f86	-0.007347
33	0x27b5	0.0301
34	0xa851	-0.03372
35	0x234a	0.01424
36	0x26dd	0.02681
37	0x2425	0.01619
38	0xa5c4	-0.02252
39	0x9c98	-0.004486
40	0x290b	0.0394
41	0x2c5c	0.0681
42	0x3291	0.2052
43	0x291e	0.03998
44	0xa1cf	-0.011345
45	0xabcf	-0.061
46	0xaeb9	-0.10504
47	0xa238	-0.012146
48	0x1f59	0.007175
49	0xa496	-0.01791
50	0xa892	-0.0357
51	0xa501	-0.01955
52	0xaa0c	-0.04724
53	0x272d	0.02803
54	0xa854	-0.0338
55	0xa8b1	-0.03665
56	0xa5cf	-0.02269
57	0xa01a	-0.00801
58	0xac86	-0.0707
59	0x9f6a	-0.00724
60	0xaaea	-0.05402
61	0x2508	0.01965
62	0x16f4	0.001698
63	0xa36e	-0.01451
64	0xa00e	-0.00792
65	0x2b2b	0.056
66	0xa9fd	-0.04678
67	0xa67a	-0.0253
68	0x1c51	0.004215
69	0x9ecc	-0.006638
70	0xa7a2	-0.02982
71	0x9846	-0.002087
72	0x295c	0.04187
73	0xa591	-0.02174
74	0xa48a	-0.01773
75	0x289f	0.0361
76	0xa3c8	-0.0152
77	0xa897	-0.03586
78	0x265e	0.02487
79	0x2730	0.02808
80	0x2b1d	0.05557
81	0x2848	0.03345
82	0xa9cb	-0.04526
83	0x2391	0.01478
84	0x9eab	-0.00651
85	0xa8a4	-0.03625
86	0x2827	0.03244
87	0xac46	-0.0668
88	0x2782	0.02933
89	0x28f6	0.03876
90	0xa589	-0.02162
91	0x9d6b	-0.00529
92	0x271f	0.02782
93	0x2c7e	0.0702
94	0x2a3c	0.0487
95	0xa262	-0.01247
96	0xa350	-0.01428
97	0xa7ed	-0.03096
98	0x9607	-0.0014715
99	0x22f6	0.013596
100	0x23e7	0.015434
101	0x20ab	0.00912
102	0x2199	0.01093
103	0x8b42	-0.0002215
104	0xa258	-0.01239
105	0x9f29	-0.006992
106	0xa5d8	-0.02283
107	0x9b01	-0.00342
108	0xa078	-0.00873
109	0x20a8	0.009094
110	0xa6fc	-0.02728
111	0xa3d0	-0.01526
112	0x2506	0.01962
113	0x1cff	0.00488
114	0xa52c	-0.0202
115	0x8a03	-0.0001835
116	0x1c22	0.004036
117	0xa652	-0.02469
118	0xa578	-0.02136
119	0xa2ea	-0.013504
120	0xa12a	-0.010086
121	0xa7f5	-0.03108
122	0x28ca	0.0374
123	0x2c26	0.0648
124	0xa4eb	-0.01921
125	0xa018	-0.007996
126	0xacc1	-0.0743
127	0x1e65	0.006245
128	0x24d8	0.01892
129	0x2682	0.02542
130	0x264b	0.02458
131	0x9da4	-0.00551
132	0xa4a9	-0.0182
133	0x1651	0.001542
134	0x1936	0.002544
135	0x262c	0.02411
136	0xa35b	-0.014366
137	0xa746	-0.02841
138	0xa146	-0.0103
139	0x2954	0.04163
140	0x9a55	-0.003092
141	0xa143	-0.01028
142	0xa846	-0.0334
143	0x2a05	0.04703
144	0x284d	0.0336
145	0xa530	-0.02026
146	0xa7e8	-0.03088
147	0x26f4	0.02716
148	0xa4c3	-0.0186
149	0xaa3c	-0.0487
150	0xad4b	-0.0827
151	0x2c9f	0.0722
152	0xa961	-0.04202
153	0x2ce9	0.0767
154	0x2bba	0.06036
155	0xa6ce	-0.02658
156	0x2a0a	0.04718
157	0xa7ba	-0.03018
158	0x28c2	0.03717
159	0xad9d	-0.0877
160	0x2a26	0.04803
161	0xa8e6	-0.03827
162	0xab13	-0.05527
163	0x2c74	0.0696
164	0xaa30	-0.04834
165	0x2c62	0.0685
166	0x2e8d	0.10236
167	0xa9ba	-0.04474
168	0x9c8a	-0.004433
169	0xa648	-0.02454
170	0xa5a7	-0.02208
171	0x24f3	0.01933
172	0xabf7	-0.06223
173	0xa3b6	-0.01506
174	0x1753	0.001788
175	0xaa68	-0.05005
176	0xa88c	-0.03552
177	0xa068	-0.008606
178	0xa4ee	-0.01926
179	0x15e0	0.001434
180	0x220d	0.01182
181	0x283c	0.03308
182	0x9ced	-0.00481
183	0x97ab	-0.001872
184	0xaa35	-0.0485
185	0xa8b4	-0.03674
186	0xaaa5	-0.0519
187	0x284b	0.03354
188	0x227c	0.012665
189	0x2905	0.0392
190	0x20a9	0.0091
191	0x1ce9	0.004795
192	0x2d7b	0.08563
193	0x972f	-0.001754
194	0x26c9	0.0265
195	0xa894	-0.03577
196	0xad70	-0.08496
197	0xae5b	-0.0993
198	0x268d	0.02559
199	0x2713	0.02763
200	0x29f0	0.0464
201	0xac5f	-0.0683
202	0x287a	0.03497
203	0x2392	0.014786
204	0xa9ef	-0.04636
205	0x2cd3	0.0754
206	0x9f94	-0.0074
207	0x274c	0.0285
208	0xa9b1	-0.04446
209	0xaaf5	-0.05435
210	0xa95d	-0.0419
211	0x224b	0.01229
212	0x2947	0.04123
213	0xa3fa	-0.01558
214	0x2511	0.01979
215	0x29e6	0.04608
216	0x3075	0.1393
217	0xa6dd	-0.02681
218	0x28a3	0.03622
219	0x2c5e	0.06824
220	0xa452	-0.01688
221	0xa8c2	-0.03717
222	0x24ac	0.01825
223	0x234b	0.014244
224	0xab7e	-0.05853
225	0x3029	0.13
226	0x2d83	0.0861
227	0x1e49	0.006138
228	0xa8b4	-0.03674
229	0x2c17	0.0639
230	0x3037	0.1317
231	0x9517	-0.001243
232	0x29e3	0.046
233	0x28c5	0.03726
234	0xac10	-0.0635
235	0x2838	0.03296
236	0xa250	-0.01233
237	0x2155	0.010414
238	0xac69	-0.0689
239	0xa2da	-0.01338
240	0xa662	-0.02493
241	0x2795	0.02962
242	0xb046	-0.1335
243	0x94fa	-0.001215
244	0x2c6e	0.0692
245	0x285c	0.03406
246	0x2878	0.0349
247	0xa51d	-0.01997
248	0x95cb	-0.001414
249	0xa453	-0.01689
250	0xaf9c	-0.1189
251	0xa72c	-0.02802
252	0x29f3	0.04648
253	0xa74a	-0.02847
254	0x22e9	0.0135
255	0x2742	0.02835

conv2d_4/Bias f2 [24]
0	0x3ea0	1.656
1	0x4253	3.162
2	0x4219	3.049
3	0x4204	3.008
4	0x3c71	1.11
5	0xb8fc	-0.623
6	0x39ac	0.709
7	0x4079	2.236
8	0xc2eb	-3.459
9	0xc0d6	-2.418
10	0x4926	10.3
11	0xc1d1	-2.908
12	0x4192	2.785
13	0xc2a5	-3.322
14	0x4355	3.666
15	0x42cf	3.404
16	0x4180	2.75
17	0xad2b	-0.08075
18	0x4507	5.027
19	0xb058	-0.1357
20	0xc162	-2.691
21	0x3a4c	0.787
22	0x429b	3.303
23	0xbf9a	-1.9

depthwise_conv2d_4/Kernel f2 [1, 3, 3, 24]
0	0x3f61	1.845
1	0x253a	0.02042
2	0xad6e	-0.08484
3	0xbb4d	-0.9126
4	0x2b71	0.05814
5	0x3d68	1.352
6	0xb9de	-0.7334
7	0xbb5d	-0.9204
8	0x3bef	0.9917
9	0x3de4	1.473
10	0xbe34	-1.551
11	0x3c88	1.133
12	0x2d3b	0.0817
13	0x3ba0	0.953
14	0x32c6	0.2117
15	0x4031	2.096
16	0x3e34	1.551
17	0xb620	-0.3828
18	0x3a30	0.7734
19	0x3df6	1.49
20	0x3b88	0.9414
21	0xbc91	-1.142
22	0x34aa	0.2915
23	0xb945	-0.6587
24	0x39d3	0.728
25	0xbc5c	-1.09
26	0xb63b	-0.3894
27	0xc0c6	-2.387
28	0xc141	-2.627
29	0x4088	2.266
30	0x366a	0.401
31	0xc1ab	-2.834
32	0x37a3	0.4773
33	0x41ea	2.957
34	0xc44f	-4.31
35	0x4055	2.166
36	0x3fac	1.918
37	0x3b7c	0.9355
38	0x41c6	2.887
39	0x3d81	1.376
40	0xc2c2	-3.379
41	0xc01e	-2.059
42	0x411c	2.555
43	0xb90c	-0.631
44	0x2ff8	0.1245
45	0xb5a2	-0.352
46	0xbde7	-1.476
47	0x4040	2.125
48	0x4191	2.783
49	0x39e8	0.7383
50	0x4040	2.125
51	0xb52a	-0.3228
52	0xc1a1	-2.814
53	0x4056	2.168
54	0x3dcc	1.449
55	0x37d0	0.4883
56	0x3d0c	1.262
57	0x2dca	0.09045
58	0xb739	-0.4514
59	0xae8f	-0.1025
60	0xb87f	-0.562
61	0xaa4b	-0.04916
62	0x3725	0.4465
63	0x3c50	1.078
64	0xbef1	-1.735
65	0x9faa	-0.007484
66	0x348d	0.2844
67	0xbae6	-0.8623
68	0x3459	0.2717
69	0x3bd9	0.981
70	0x3aa9	0.8325
71	0xbb53	-0.9155
72	0x3f8c	1.887
73	0xbfbc	-1.934
74	0xb939	-0.653
75	0x417b	2.74
76	0xb573	-0.3406
77	0x3d63	1.347
78	0xbb56	-0.917
79	0xc1bd	-2.87
80	0x41c0	2.875
81	0xa837	-0.03293
82	0x331c	0.2222
83	0x3e8f	1.64
84	0xb88d	-0.569
85	0x39db	0.732
86	0xb2d8	-0.2139
87	0x406e	2.215
88	0x3d79	1.368
89	0x33f1	0.2482
90	0xb924	-0.6426
91	0x4044	2.133
92	0x3f99	1.899
93	0x3db5	1.427
94	0xba97	-0.8237
95	0xb9c4	-0.7207
96	0xbb50	-0.914
97	0xc01c	-2.055
98	0xc1f9	-2.986
99	0x3831	0.524
100	0x35bc	0.3584
101	0x3ca4	1.16
102	0x3949	0.6606
103	0x412d	2.588
104	0x3b6f	0.929
105	0x407f	2.248
106	0x41e6	2.95
107	0x46bc	6.734
108	0x428d	3.275
109	0xc475	-4.457
110	0xc420	-4.125
111	0x41cb	2.896
112	0xb862	-0.548
113	0xc158	-2.672
114	0x4112	2.535
115	0x401d	2.057
116	0x444a	4.29
117	0xc07a	-2.238
118	0xc3d8	-3.922
119	0x3cb0	1.172
120	0x40fe	2.496
121	0xb5f5	-0.3723
122	0x40b4	2.352
123	0x3854	0.541
124	0xbeb1	-1.673
125	0x4190	2.781
126	0x4361	3.69
127	0x3ba7	0.9565
128	0x3c0f	1.015
129	0x2b67	0.05783
130	0xb0d7	-0.1512
131	0xb8f4	-0.619
132	0xc151	-2.658
133	0x2b71	0.05814
134	0xaee8	-0.1079
135	0x3b62	0.923
136	0xbed0	-1.703
137	0x4233	3.1
138	0x3813	0.5093
139	0xbb9f	-0.9526
140	0x3b04	0.877
141	0xb609	-0.3772
142	0x3957	0.6675
143	0xc39c	-3.805
144	0x3d78	1.367
145	0xbc91	-1.142
146	0xbe36	-1.553
147	0x32ac	0.2085
148	0xb3e2	-0.2463
149	0x3a80	0.8125
150	0x3b38	0.9023
151	0x4064	2.195
152	0xb3e8	-0.2471
153	0xb639	-0.389
154	0xb22a	-0.1926
155	0x3691	0.4104
156	0x34f9	0.3108
157	0x373e	0.4526
158	0xc0bb	-2.365
159	0x3c56	1.084
160	0x3191	0.174
161	0x2829	0.0325
162	0x3a03	0.7515
163	0x3c6e	1.107
164	0xb5df	-0.367
165	0xc127	-2.576
166	0xbc62	-1.096
167	0xbc5a	-1.088
168	0x3e06	1.506
169	0xc23f	-3.123
170	0xc09d	-2.307
171	0x3e12	1.518
172	0x43f7	3.982
173	0x3c58	1.086
174	0x3ac8	0.8477
175	0xbd1a	-1.275
176	0x3b14	0.885
177	0xc01d	-2.057
178	0x3c93	1.144
179	0xa28f	-0.01281
180	0xb4ae	-0.2925
181	0xb432	-0.2622
182	0xbd33	-1.3
183	0x39c8	0.7227
184	0xbfdb	-1.964
185	0x3b7e	0.9365
186	0x4110	2.531
187	0x426a	3.207
188	0x3451	0.2698
189	0xc2a2	-3.316
190	0x3aa3	0.8296
191	0xc16d	-2.713
192	0xb789	-0.471
193	0xb89a	-0.575
194	0xba1b	-0.763
195	0x3a1d	0.764
196	0x3f18	1.773
197	0x4033	2.1
198	0x3ef5	1.739
199	0x37b4	0.4814
200	0x3bc5	0.971
201	0xb8ab	-0.5835
202	0xa9d4	-0.04553
203	0x2da4	0.08813
204	0xc011	-2.033
205	0xbacd	-0.85
206	0x3488	0.2832
207	0x3556	0.3335
208	0xb868	-0.551
209	0x40e3	2.443
210	0x3c37	1.054
211	0x3f89	1.884
212	0x3ae8	0.8633
213	0xba57	-0.7925
214	0xb4f7	-0.3103
215	0xbdc9	-1.446

depthwise_conv2d_4/Bias f2 [24]
0	0x0000	0.0
1	0x0000	0.0
2	0x0000	0.0
3	0x0000	0.0
4	0x0000	0.0
5	0x0000	0.0
6	0x0000	0.0
7	0x0000	0.0
8	0x0000	0.0
9	0x0000	0.0
10	0x0000	0.0
11	0x0000	0.0
12	0x0000	0.0
13	0x0000	0.0
14	0x0000	0.0
15	0x0000	0.0
16	0x0000	0.0
17	0x0000	0.0
18	0x0000	0.0
19	0x0000	0.0
20	0x0000	0.0
21	0x0000	0.0
22	0x0000	0.0
23	0x0000	0.0
