mediapipe/modules/face_detection/face_detection_full_range_sparse.tflite (tflite, 680736 bytes, 136 tensors)

model_1/model/conv2d/Conv2D f2 [32, 3, 3, 3]
-0.08264 0.042 -0.2915 -1.109 -1.29 -0.897 -0.6196 -0.751
-0.466 0.707 0.4512 0.1815 1.077 0.3223 0.5503 0.885
0.348 0.6133 -0.6885 0.278 -0.168 -0.0878 0.2847 0.3188
0.7007 0.234 0.5244 0.5537 0.27 -0.02057 -0.1039 -0.01057
-0.1384 1.245 -0.1323 -0.3284 -1.573 0.741 1.791 -1.61
-0.562 0.7 1.177 -0.484 -0.3381 -1.764 0.7407 1.377
-1.17 -0.717 -0.139 1.529 -0.2937 -1.332 -0.1125 0.0927
-0.12463 0.496 0.1736 -0.2876 -0.3516 -0.2083 0.2153 -0.163
0.01394 -0.1813 0.6553 0.2717 -0.157 -0.236 -0.377 0.1903
-0.0729 0.0545 -0.04483 0.1655 0.1488 0.04422 -0.284 -0.302
0.427 -0.258 0.592 -0.19 -0.2754 0.7207 -0.1735 0.02087
0.3853 -0.1929 -0.6006 0.871 0.1458 -1.309 0.7754 0.1677
-0.4177 0.4734 -0.007996 -0.1149 0.608 -0.2988 -0.6113 0.4722
-0.05695 -0.3276 0.2708 -0.0748 -0.1868 -0.00962 -0.0006986 -0.1349
-0.03146 -0.1909 0.474 0.683 0.3113 0.0791 0.01765 0.06946
0.1869 0.03842 0.0935 -0.546 -0.5728 -0.478 0.0001307 -0.008194
0.02536 0.03275 -0.1488 0.001044 0.0857 0.02058 0.1907 -0.403
0.1663 0.306 -0.3948 0.1209 0.3625 0.04504 -0.06076 -0.12024
-0.3213 0.07336 0.2031 -0.3699 0.0358 0.1921 -0.1054 0.01811
-0.001546 0.3616 -0.1658 -0.2334 0.5684 -0.1796 -0.2844 0.5176
-0.1545 -0.2944 -0.04514 0.2864 0.243 -0.537 -0.601 -0.2522
-0.3518 0.07196 0.3518 -1.192 -1.385 -0.3213 -0.996 -1.306
-0.4187 0.3774 0.3694 0.694 0.2463 0.1957 -0.2517 1.344
1.051 -0.1987 1.469 0.9004 0.09106 4.17 -0.08704 -2.477
-0.599 -1.986 -3.398 1.407 0.859 -0.9243 -1.133 -1.173
-1.754 1.174 2.969 2.201 -1.252 0.2211 1.177 -0.6035
0.1552 1.091 -1.117 0.3616 2.434 -2.506 -1.167 1.475
0.004745 -0.012 0.005882 0.01158 -0.01599 0.000458 0.005436 -0.008644
0.00414 0.002121 -0.0269 -0.00215 0.01221 -0.0256 -0.007248 0.002518
-0.013885 -0.004547 0.0011425 0.006237 0.010704 -0.0108 -0.003174 0.00732
-0.01095 -0.005207 0.006363 -0.2233 1.77 0.2666 1.321 1.862
0.939 0.602 -0.5757 -0.2173 -0.2446 1.391 0.07367 -0.7876
00000000: 4aad 6029 aab4 70bc 29bd 2dbb f5b8 02ba
00000010: 75b7 a839 3837 cf31 4f3c 2835 6738 143b
00000020: 9135 e838 82b9 7334 60b1 9fad 8e34 1a35
00000030: 9b39 7d33 3238 6e38 5234 44a5 a6ae 69a1
00000040: 6eb0 fb3c 3cb0 41b5 4bbe ee39 2a3f 71be
00000050: 7fb8 9a39 b53c beb7 69b5 0ebf ed39 823d
00000060: aebc bcb9 73b0 1e3e b3b4 54bd 33af ef2d
00000070: faaf f037 8e31 9ab4 a0b5 aab2 e432 37b1
00000080: 2323 cdb1 3e39 5934 06b1 8db3 08b6 1732
00000090: aaac fa2a bda9 4c31 c330 a929 8bb4 d5b4
000000a0: d536 21b4 bc38 14b2 68b4 c439 8db1 5825
000000b0: 2a36 2cb2 ceb8 f83a aa30 3cbd 343a 5e31
000000c0: afb6 9337 18a0 5baf dd38 c8b4 e4b8 8e37
000000d0: 4aab 3eb5 5534 caac fab1 eda0 b991 51b0
000000e0: 07a8 1cb2 9637 7739 fb34 102d 8524 722c
000000f0: fb31 eb28 fc2d 5eb8 95b8 a6b7 4808 32a0
00000100: 7e26 3128 c3b0 4714 7c2d 4525 1a32 73b6
00000110: 5231 e534 51b6 bd2f cd35 c429 c7ab b2af
00000120: 24b5 b22c 8032 ebb5 9528 2632 bfae a324
00000130: 5596 c935 4eb1 78b3 8c38 bfb1 8db4 2438
00000140: f2b0 b6b4 c7a9 9534 c733 4cb8 cfb8 09b4
00000150: a1b5 9b2c a135 c5bc 8abd 24b5 f8bb 39bd
00000160: b3b6 0a36 e935 8d39 e233 4332 07b4 603d
00000170: 343c 5cb2 e03d 343b d42d 2c44 92ad f4c0
00000180: cbb8 f2bf ccc2 a13d df3a 65bb 88bc b1bc
00000190: 04bf b23c f041 6740 02bd 1333 b53c d4b8
000001a0: f730 5d3c 78bc c935 de40 03c1 abbc e63d
000001b0: dc1c 25a2 061e ee21 18a4 810f 911d 6da0
000001c0: 3d1c 5818 e3a6 6798 4022 8ea6 6c9f 2819
000001d0: 1ca3 a89c ae14 631e 7b21 88a1 809a 7f1f
000001e0: 9ba1 559d 841e 25b3 143f 4434 493d 733f
000001f0: 833b d138 9bb8 f4b2 d4b3 903d b72c 4dba

model_1/model/batch_normalization/FusedBatchNormV3 f2 [32]
1.374 0.857 0.1483 1.552 0.0001273 0.0395 0.566 -0.1777
-0.1749 0.3962 0.11487 0.3516 0.242 0.187 -0.043 0.5376
0.2583 0.3904 0.5107 0.11646 -0.1489 0.19 -0.0882 0.08124
0.2468 0.2998 0.4565 -1.484 0.985 0.3523 -1.709 0.3887
00000000: 7f3d db3a bf30 353e 2c08 0e29 8738 b0b1
00000010: 99b1 5736 5a2f a035 be33 fc31 81a9 4d38
00000020: 2234 3f36 1638 742f c4b0 1432 a5ad 332d
00000030: e633 cc34 4e37 f0bd e13b a335 d6be 3836

model_1/model/batch_normalization_1/FusedBatchNormV3;model_1/model/depthwise_conv2d/depthwise;model_1/model/depthwise_conv2d_37/depthwise f2 [1, 3, 3, 32]
0.1054 -0.1326 -1.614 0.3608 1.151 1.54 -0.2418 0.02388
-4.0 -0.093 -0.482 1.186 -0.179 -0.9536 -0.142 -0.2362
-0.03693 0.418 -1.129 -0.6357 0.233 2.135 0.11194 -0.1757
-0.1077 -0.481 -0.01927 6.395 0.1578 -0.452 -0.1132 -0.3088
-0.2754 0.00937 1.797 -1.079 -0.3308 2.771 0.2273 -0.2081
-8.32 -0.2166 -0.301 0.11084 -0.213 5.535 0.2615 0.1268
-0.11383 -0.408 5.746 -1.182 0.5386 -2.53 0.5747 0.1735
-0.00869 2.14 1.138 10.016 1.057 0.3694 0.3442 -1.334
0.0479 0.235 -1.055 -0.668 0.188 0.5493 -0.07996 0.1486
0.01836 0.2485 0.678 -1.13 -0.2825 -3.879 0.403 0.02272
-0.2869 -0.855 1.361 0.582 1.098 2.816 0.9873 0.05887
-0.09705 -0.7217 -0.0813 -2.77 -0.05536 -0.1742 -0.0824 -0.02757
-0.2666 0.4185 9.555 0.1271 -6.77 -4.31 -0.0485 -0.2405
-3.627 -0.4355 6.355 3.016 0.5874 -0.9526 -0.1002 1.42
1.284 0.381 2.463 -0.896 0.191 -1.856 0.1631 0.6074
-0.3926 -7.086 -0.1039 -3.361 0.6045 -1.108 0.496 -0.342
-0.1423 2.393 -5.434 4.656 -2.23 -8.76 -2.836 -1.016
-6.37 -0.628 -9.56 8.61 1.655 7.45 3.734 0.115
-6.62 4.527 -10.86 -2.459 -3.504 -0.6943 -4.52 2.135
2.172 4.266 5.76 1.186 1.119 -1.673 2.645 -1.276
-0.456 -1.366 2.074 -0.463 0.5024 0.1089 0.1306 0.1704
-3.299 0.525 2.057 -3.56 -0.02124 -3.23 1.583 -0.1324
0.124 -0.11884 1.528 -0.723 -0.4897 -0.827 -1.361 0.010506
-0.7104 2.143 -1.272 -2.023 0.1448 -0.0927 0.11914 -0.688
-0.3945 -0.0823 0.2217 -0.379 -3.31 -0.512 -0.02313 0.1117
1.293 0.4954 0.007046 0.01266 0.4473 1.824 -0.06616 -0.595
0.004314 0.4731 1.025 0.726 -1.465 0.6885 0.2036 -0.1242
0.1191 1.308 -0.7734 -2.078 -0.0586 0.02802 -0.09174 -0.2086
0.443 -0.2195 -3.188 0.9385 -2.762 -2.285 0.4343 -0.3337
12.92 1.214 1.354 -3.402 0.4155 -6.88 -0.06445 -1.244
1.641 0.5156 -4.027 7.477 0.3462 -0.448 0.581 0.2244
-0.4011 0.888 -4.547 -14.055 -3.023 -0.6274 0.2208 3.74
00000000: bf2e 3eb0 75be c635 9b3c 293e bdb3 1d26
00000010: 00c4 f4ad b6b7 be3c bab1 a1bb 8bb0 8fb3
00000020: baa8 b036 84bc 16b9 7533 4540 2a2f 9fb1
00000030: e5ae b2b7 efa4 6546 0d31 3bb7 3faf f1b4
00000040: 68b4 cc20 303f 51bc 4bb5 8b41 4633 a9b2
00000050: 29c8 eeb2 d1b4 182f d1b2 8945 2f34 0f30
00000060: 49af 87b6 bf45 babc 4f38 0fc1 9938 8d31
00000070: 73a0 4840 8d3c 0249 3a3c e935 8235 56bd
00000080: 222a 8533 38bc 58b9 0432 6538 1ead c130
00000090: b324 f433 6d39 85bc 85b4 c2c3 7336 d125
000000a0: 97b4 d7ba 723d a838 643c a241 e63b 892b
000000b0: 36ae c6b9 34ad 8ac1 16ab 93b1 46ad 0fa7
000000c0: 44b4 b236 c748 1130 c5c6 4fc4 35aa b2b3
000000d0: 41c3 f8b6 5b46 0842 b338 9fbb 6aae ae3d
000000e0: 233d 1936 ed40 2bbb 1d32 6dbf 3831 dc38
000000f0: 48b6 16c7 a6ae b9c2 d638 6fbc f037 79b5
00000100: 8eb0 c940 6fc5 a844 76c0 61c8 acc1 10bc
00000110: 5fc6 06b9 c8c8 4e48 9f3e 7347 7843 5c2f
00000120: 9fc6 8744 6ec9 ebc0 02c3 8eb9 85c4 4540
00000130: 5840 4444 c345 be3c 7a3c b1be 4a41 1bbd
00000140: 4cb7 77bd 2640 68b7 0538 f82e 2e30 7431
00000150: 99c2 3338 1d40 1fc3 70a5 76c2 553e 3db0
00000160: f02f 9baf 1d3e c9b9 d6b7 9eba 72bd 6121
00000170: afb9 4940 17bd 0cc0 a230 efad a02f 81b9
00000180: 50b6 44ad 1833 10b6 9fc2 19b8 eca5 262f
00000190: 2c3d ed37 371f 7b22 2837 4c3f 3cac c3b8
000001a0: 6b1c 9237 1a3c cf39 dcbd 8239 8432 f3af
000001b0: 9f2f 3b3d 30ba 28c0 80ab 2c27 dfad adb2
000001c0: 1737 06b3 60c2 823b 86c1 92c0 f336 57b5
000001d0: 764a db3c 6a3d cec2 a636 e1c6 20ac fabc
000001e0: 903e 2038 07c4 7a47 8a35 2bb7 a638 2e33
000001f0: 6bb6 1b3b 8cc4 07cb 0cc2 05b9 1133 7b43

model_1/model/batch_normalization_1/FusedBatchNormV3 f2 [32]
0.886 -1.027 -0.3962 -3.03 0.5195 1.134 1.938 0.376
0.002123 -0.5093 0.0445 -0.984 -0.735 -0.771 -0.6064 -0.05365
1.216 -1.98 1.099 -1.251 0.5337 0.3145 0.318 -0.738
-0.477 -0.409 -0.00438 0.01707 -0.0832 1.702 -1.757 0.2451
00000000: 173b 1cbc 57b6 0fc2 2838 893c c13f 0436
00000010: 5918 13b8 b229 dfbb e1b9 2bba dab8 deaa
00000020: dd3c ecbf 653c 01bd 4538 0835 1735 e7b9
00000030: a2b7 8bb6 7c9c 5f24 53ad cf3e 07bf d833

model_1/model/batch_normalization_2/FusedBatchNormV3 f2 [8]
0.6177 0.4133 0.8677 0.6846 0.6357 0.7305 0.1298 0.77
00000000: f138 9d36 f13a 7a39 1639 d839 2730 293a

model_1/model/batch_normalization_3/FusedBatchNormV3;model_1/model/depthwise_conv2d_1/depthwise;model_1/model/depthwise_conv2d_3/depthwise f2 [1, 3, 3, 8]
-0.3953 -0.631 0.356 -0.4443 -0.2896 -0.971 -0.2223 1.52
3.861 1.177 -0.1669 2.855 -1.377 3.53 -0.2008 -4.336
-0.4338 0.3235 -0.445 0.5293 0.05875 -0.09796 -0.07153 0.3535
-0.01602 -0.1008 0.3108 -0.161 -0.5933 -0.1389 -0.1398 0.732
0.9326 -2.955 -1.898 0.2057 2.117 0.4602 -0.4165 0.7886
-1.35 0.6807 0.4568 -0.11536 -0.1853 0.1508 0.010185 -1.485
-0.1031 0.2847 0.0723 0.014175 -0.2905 -0.01852 -0.01768 0.3225
-0.1727 0.1292 -0.2096 -0.08453 -0.03278 -0.01802 0.04584 0.1962
-0.1597 -0.2969 -0.2141 -0.01297 -0.05807 0.02515 -0.004242 0.1711
00000000: 53b6 0cb9 b235 1cb7 a2b4 c5bb 1db3 143e
00000010: b943 b53c 57b1 b641 82bd 0f43 6db2 56c4
00000020: f1b6 2d35 1fb7 3c38 852b 45ae 94ac a835
00000030: 1aa4 74ae f934 27b1 bfb8 72b0 79b0 db39
00000040: 763b e9c1 98bf 9532 3c40 5d37 aab6 4f3a
00000050: 66bd 7239 4f37 62af eeb1 d330 3721 f1bd
00000060: 99ae 8e34 a12c 4223 a6b4 bea4 87a4 2935
00000070: 87b1 2230 b5b2 69ad 32a8 9da4 de29 4732
00000080: 1cb1 c0b4 dab2 a4a2 6fab 7026 589c 7a31

model_1/model/batch_normalization_3/FusedBatchNormV3 f2 [8]
-1.521 0.8125 1.514 -1.951 0.445 -2.244 0.7935 1.388
00000000: 16be 803a 0e3e cebf 1f37 7dc0 593a 8d3d

model_1/model/batch_normalization_4/FusedBatchNormV3;model_1/model/depthwise_conv2d_37/depthwise;model_1/model/conv2d_2/Conv2D f2 [32]
0.7754 0.4424 0.4148 -0.446 1.09 0.4675 0.5527 -0.3513
0.673 -0.224 1.845 0.3472 1.112 -0.2712 0.331 0.5586
0.6597 -0.11584 -0.24 1.447 3.453 1.099 -0.226 0.8643
0.7437 0.7676 1.986 -0.0556 0.4219 1.11 -0.8896 -0.68
00000000: 343a 1437 a336 23b7 5c3c 7b37 6c38 9fb5
00000010: 6239 2bb3 613f 8e35 733c 57b4 4c35 7838
00000020: 4739 6aaf aeb3 ca3d e842 653c 3bb3 ea3a
00000030: f339 243a f23f 1eab c036 713c 1ebb 71b9

model_1/model/batch_normalization_5/FusedBatchNormV3;model_1/model/depthwise_conv2d_2/depthwise;model_1/model/depthwise_conv2d_37/depthwise f2 [1, 3, 3, 32]
-0.1062 -0.617 -0.3333 -1.028 0.15 0.2896 -0.4026 0.3503
0.12103 -0.1891 -0.6865 -0.616 0.511 0.014145 0.3013 0.1425
0.2017 -1.182 0.0457 0.4385 0.2443 -0.4932 0.7163 0.5347
0.3364 -0.1553 -0.2886 -0.3867 -0.1105 0.727 0.8135 -0.2524
-1.09 -0.7095 0.4495 1.866 -0.1799 -1.768 -1.03 1.44
1.15 -0.08813 -0.8564 -2.23 1.106 -0.4475 -2.764 1.145
-0.0734 -1.176 -0.518 1.166 0.2158 -0.1542 2.893 2.174
-0.766 0.2208 -0.03598 -2.395 -1.391 0.1484 0.0786 -4.832
-0.6904 -0.2761 -0.06033 -0.156 -0.0474 0.2019 -0.4392 -0.0973
0.37 0.1843 -0.3901 -1.589 -0.3457 -0.1887 0.701 0.2119
0.508 -1.198 -0.1207 -0.2261 0.261 0.2896 0.505 -0.322
0.08453 0.5645 0.0622 -0.906 0.2053 0.3972 -0.163 -0.8237
0.247 1.073 0.42 0.2207 0.1775 0.633 0.1848 0.908
-0.9043 -0.1592 0.3992 -1.636 -0.803 -0.4392 0.045 0.3367
-0.04495 -0.04688 -0.1138 -0.4214 -0.1453 -0.2161 0.04263 -0.2499
-0.2393 -0.11206 -0.1746 -0.3857 0.7993 -0.4426 0.07605 -3.053
1.487 1.219 0.4805 3.48 0.11316 3.904 0.5767 0.3582
0.687 -0.687 0.656 -1.799 -1.036 -0.63 -2.043 1.262
0.0426 0.2177 -0.8257 -1.554 -0.8687 -0.6626 0.948 -0.81
0.3606 -0.8613 -0.785 1.006 1.031 -0.5273 0.7495 -2.02
0.04483 0.2161 -0.23 0.4946 0.03116 0.793 0.1177 0.254
-0.005245 -0.1964 -0.0615 0.3374 0.06586 -0.159 -0.886 -0.1698
0.0444 0.7095 -0.4163 -0.1323 -0.9907 -0.3406 0.08606 -0.06354
0.5723 -0.553 0.4414 -0.05716 0.2305 -0.3425 0.1267 1.634
-0.11615 -0.4194 -0.0326 -0.2603 -0.4863 0.05072 0.2148 -0.3125
0.7056 -0.05237 0.4749 0.964 -0.09845 0.1184 0.6587 -0.10046
0.211 1.17 0.00387 0.0296 -0.3071 0.783 -0.06696 -0.2444
0.5244 0.3623 -0.3665 0.365 -0.1307 -0.002186 -0.3079 3.201
0.01755 -0.3752 -0.3735 -0.4045 -0.4832 -0.557 0.10077 -0.2556
0.0923 -0.1495 0.3667 2.066 -0.4214 -0.0658 0.672 -0.6304
-0.2842 0.792 -0.3997 0.1737 -0.1735 0.6396 -0.06445 0.35
0.007484 0.3347 -0.2347 0.2915 0.0563 0.338 0.3826 1.66
00000000: ccae f0b8 55b5 1dbc cd30 a234 71b6 9b35
00000010: bf2f 0db2 7eb9 eeb8 1738 3e23 d234 8f30
00000020: 7432 babc d929 0437 d133 e4b7 bb39 4738
00000030: 6235 f8b0 9eb4 30b6 12af d139 823a 0ab4
00000040: 5cbc adb9 3137 773f c2b1 12bf 1fbc c33d
00000050: 9a3c a4ad daba 76c0 6d3c 29b7 87c1 943c
00000060: b3ac b4bc 25b8 aa3c e832 efb0 c941 5940
00000070: 21ba 1133 9ba8 cac0 90bd c030 082d d5c4
00000080: 86b9 6bb4 b9ab feb0 11aa 7632 07b7 3aae
00000090: ec35 e631 3eb6 5bbe 88b5 0ab2 9c39 c832
000000a0: 1038 cbbc baaf 3cb3 2d34 a234 0a38 27b5
000000b0: 692d 8438 f62b 3fbb 9232 5b36 37b1 97ba
000000c0: e733 4b3c b836 1033 ae31 1039 ea31 443b
000000d0: 3cbb 18b1 6336 8bbe 6dba 07b7 c329 6335
000000e0: c1a9 00aa 48af beb6 a6b0 eab2 7529 ffb3
000000f0: a8b3 2caf 96b1 2cb6 653a 15b7 de2c 1bc2
00000100: f33d e03c b037 f642 3e2f cf43 9d38 bb35
00000110: 7f39 7fb9 3f39 32bf 25bc 0ab9 16c0 0c3d
00000120: 7429 f732 9bba 37be f3ba 4db9 963b 7bba
00000130: c535 e4ba 48ba 063c 203c 38b8 ff39 0ac0
00000140: bd29 ea32 5cb3 ea37 fa27 583a 882f 1034
00000150: 5f9d 49b2 dfab 6635 372c 17b1 17bb 6fb1
00000160: af29 ad39 a9b6 3cb0 edbb 73b5 822d 11ac
00000170: 9438 6db8 1037 51ab 6033 7bb5 0e30 893e
00000180: 6faf b6b6 2ca8 2ab4 c8b7 7e2a e032 00b5
00000190: a539 b4aa 9937 b63b 4dae 942f 4539 6eae
000001a0: c132 ae3c ed1b 9427 eab4 443a 49ac d2b3
000001b0: 3238 cc35 ddb5 d735 2fb0 7a98 edb4 6742
000001c0: 7e24 01b6 fab5 79b6 bbb7 75b8 732e 17b4
000001d0: e82d c9b0 de35 2240 beb6 36ac 6039 0bb9
000001e0: 8cb4 563a 65b6 8f31 8db1 1e39 20ac 9a35
000001f0: aa1f 5b35 83b3 aa34 352b 6835 1f36 a43e

model_1/model/batch_normalization_5/FusedBatchNormV3 f2 [32]
0.269 0.12024 -0.0834 -2.229 1.092 -1.571 0.945 -0.5854
-2.125 0.941 -0.0799 2.69 2.385 0.7593 1.311 -2.291
-0.825 0.3357 1.036 0.7183 5.734 0.5146 -0.7607 -1.547
-1.21 0.4006 3.201 0.8745 -0.8228 0.1272 -0.4023 0.5444
00000000: 4e34 b22f 56ad 75c0 5e3c 49be 8f3b afb8
00000010: 40c0 873b 1dad 6141 c540 133a 3e3d 95c0
00000020: 9aba 5f35 253c bf39 bc45 1e38 16ba 30be
00000030: d7bc 6936 6742 ff3a 95ba 1230 70b6 5b38

model_1/model/batch_normalization_6/FusedBatchNormV3 f2 [8]
0.1907 -0.3384 0.3738 0.9 0.156 -0.436 -0.2627 0.583
00000000: 1a32 6ab5 fb35 333b fe30 fab6 34b4 aa38

model_1/model/batch_normalization_7/FusedBatchNormV3 f2 [8]
-1.142 -0.2847 -0.251 -2.248 1.447 -0.4424 0.3616 1.698
00000000: 91bc 8eb4 04b4 7fc0 ca3d 14b7 c935 cb3e

model_1/model/batch_normalization_7/FusedBatchNormV3;model_1/model/depthwise_conv2d_3/depthwise f2 [1, 3, 3, 8]
0.0859 0.259 -0.9204 -0.992 -0.0965 0.1869 -0.02303 0.1831
0.1787 0.3823 -0.1799 -0.02711 -0.04053 0.6665 -0.3357 -0.4136
-0.0285 0.09546 0.685 0.2372 -0.10565 0.3254 -0.02025 -0.009544
0.0964 0.2025 -1.595 1.204 -0.3425 0.54 -0.0984 -0.287
0.483 0.6597 0.883 2.445 -0.774 0.6987 -0.822 -1.044
0.0965 -0.126 1.573 -1.19 0.279 0.2397 0.1135 -0.3733
-0.01918 -0.01959 -0.7524 2.654 0.2612 0.4392 -0.1405 0.0752
0.2778 0.00377 0.3074 0.8506 -0.9785 0.776 -0.2852 -1.053
0.0885 -0.01551 0.4258 -2.717 -0.07416 0.3242 -0.412 0.1495
00000000: 7f2d 2534 5dbb f0bb 2dae fb31 e5a5 dc31
00000010: b831 1e36 c2b1 f1a6 30a9 5539 5fb5 9eb6
00000020: 4ca7 1c2e 7b39 9733 c3ae 3535 2fa5 e3a0
00000030: 2b2e 7b32 61be d13c 7bb5 5238 4cae 98b4
00000040: ba37 4739 103b e440 31ba 9739 93ba 2dbc
00000050: 2d2e 08b0 4b3e c3bc 7734 ac33 442f f9b5
00000060: e9a4 04a5 05ba 4f41 2e34 0737 7fb0 d02c
00000070: 7234 b91b eb34 ce3a d4bb 353a 90b4 36bc
00000080: aa2d f1a3 d036 6fc1 bfac 3035 98b6 c930

model_1/model/batch_normalization_8/FusedBatchNormV3;model_1/model/depthwise_conv2d_37/depthwise;model_1/model/conv2d_4/Conv2D f2 [32]
0.167 -0.05353 -0.1821 4.227 -1.067 -0.5527 -1.013 -0.613
-0.2532 0.4666 -0.7935 -0.7446 -0.5254 0.2878 2.113 -0.972
0.355 1.916 0.3694 -1.794 0.7075 -0.354 1.699 -1.501
-1.444 0.4053 1.248 -0.2612 -0.345 -0.9995 0.4656 3.547
00000000: 5831 daaa d4b1 3a44 45bc 6cb8 0dbc e7b8
00000010: 0db4 7737 59ba f5b9 34b8 9b34 3a40 c7bb
00000020: ae35 aa3f e935 2dbf a939 aab5 cc3e 01be
00000030: c7bd 7c36 fe3c 2eb4 85b5 ffbb 7337 1843

model_1/model/batch_normalization_9/FusedBatchNormV3 f2 [32]
3.865 -2.295 1.532 5.242 0.926 2.17 1.816 -0.662
2.092 -1.825 -1.803 -0.6294 1.4375 1.413 -0.0647 1.231
-2.332 -4.45 -1.171 -1.886 4.85 -2.635 0.8667 -0.4775
0.8853 -1.599 -5.914 1.135 1.389 -2.77 1.654 -2.127
00000000: bb43 97c0 213e 3e45 683b 5740 443f 4cb9
00000010: 2f40 4dbf 36bf 09b9 c03d a73d 24ac ed3c
00000020: aac0 73c4 afbc 8bbf da44 45c1 ef3a a4b7
00000030: 153b 65be eac5 8a3c 8e3d 8ac1 9e3e 41c0

model_1/model/batch_normalization_9/FusedBatchNormV3;model_1/model/depthwise_conv2d_4/depthwise;model_1/model/depthwise_conv2d_37/depthwise f2 [1, 3, 3, 32]
-0.2079 0.1197 -0.1394 -0.01894 -0.0926 -0.1261 -0.1686 0.0395
0.05264 0.1436 0.0349 0.1072 -0.098 -0.00759 0.00564 0.03995
0.1743 0.0818 -0.04593 0.1847 -0.0577 0.1114 -0.0788 0.03677
-0.3564 0.04843 0.094 -0.1464 -0.1304 0.2227 -0.04987 0.1882
-0.1454 0.0872 -0.2177 -0.319 -0.164 -0.07825 -0.2266 0.1874
-0.1866 0.1974 0.06757 0.1239 -0.03366 -0.07574 0.005527 -0.05847
0.2242 0.2058 0.2268 0.2524 -0.184 0.2725 -0.1654 0.01007
-0.431 0.1052 0.07855 -0.2322 -0.1343 0.3906 -0.1056 -0.03336
-0.1179 -0.02396 -0.11017 -0.602 -0.0472 -0.1077 -0.09924 0.067
-0.2052 0.10535 0.007496 -0.0302 0.02867 -0.01901 0.08075 -0.1337
0.133 0.2228 0.1964 0.05756 -0.1953 0.09607 -0.08826 -0.0191
-0.0641 0.1959 0.000582 -0.1581 -0.0864 0.2957 -0.02437 0.02563
-0.138 0.1218 -0.1907 0.10956 -0.1477 -0.07886 -0.2644 0.0769
-0.1727 0.2148 0.2056 0.2527 -0.12115 -0.1589 -0.1555 -0.03494
0.2384 0.1886 -0.08264 0.3418 -0.1207 0.2218 -0.09564 0.0998
-0.3723 0.03958 0.2104 -0.2008 -0.2201 0.2429 -0.461 0.3516
-0.2888 0.3486 -0.303 -0.2563 -0.2568 -0.2612 -0.4482 0.2507
-0.3809 0.308 0.323 0.2181 -0.253 -0.2698 -0.00354 -0.3826
0.3376 0.356 0.1708 0.55 -0.2734 0.4539 -0.09143 0.11615
-0.537 0.1387 0.371 -0.3823 -0.2242 0.5034 -0.4783 0.312
-0.29 0.1829 -0.1643 -0.3477 -0.1355 -0.2546 -0.2551 0.1646
-0.179 0.1803 0.05032 -0.012695 -0.1493 -0.1069 0.1648 -0.3037
0.1625 0.1785 0.3647 0.2429 -0.1843 0.12427 0.009155 0.0946
-0.1666 0.2382 0.2046 -0.279 -0.02972 0.378 -0.1578 0.05573
-0.0369 0.04868 -0.05728 0.07776 -0.1193 -0.146 -0.1458 0.03333
-0.3684 0.0912 0.2067 0.098 -0.1157 -0.1215 -0.1859 -0.06186
0.07947 0.2122 0.01779 0.2349 -0.05777 0.09656 -0.015045 0.02638
-0.1273 -0.0191 0.11957 -0.1277 -0.2189 0.09985 -0.3467 -0.2125
-0.3193 0.276 -0.1099 0.2607 -0.1412 -0.2637 -0.2852 0.1185
-0.3477 0.1439 0.3125 -0.0756 -0.2798 -0.212 0.05823 -0.331
0.09875 0.1722 0.06186 0.395 -0.0395 0.2646 0.0664 0.1065
-0.1873 0.12085 0.2996 -0.1648 -0.1085 0.2002 -0.5723 0.0506
00000000: a7b2 a92f 76b0 d9a4 edad 09b0 65b1 0e29
00000010: bd2a 9830 7828 dc2e 46ae c69f c61d 1d29
00000020: 9431 3c2d e1a9 e931 63ab 212f 0bad b528
00000030: b4b5 332a 042e afb0 2cb0 2033 62aa 0632
00000040: a7b0 952d f7b2 1bb5 3fb1 02ad 40b3 ff31
00000050: f9b1 5132 532c ee2f 4fa8 d9ac a91d 7cab
00000060: 2d33 9632 4233 0a34 e3b1 5c34 4bb1 2821
00000070: e5b6 bc2e 072d 6eb3 4cb0 4036 c2ae 45a8
00000080: 8caf 22a6 0daf d1b8 0baa e5ae 5aae 4a2c
00000090: 91b2 be2e ad1f bba7 5727 dea4 2b2d 47b0
000000a0: 4230 2133 4932 5e2b 40b2 262e a6ad e4a4
000000b0: 1aac 4532 c510 0fb1 88ad bb34 3da6 9026
000000c0: 6ab0 cc2f 1ab2 032f bab0 0cad 3bb4 ec2c
000000d0: 87b1 e032 9432 0b34 c1af 16b1 fab0 79a8
000000e0: a133 0932 4aad 7835 baaf 1933 1fae 632e
000000f0: f5b5 1129 bc32 6db2 0bb3 c633 60b7 a035
00000100: 9fb4 9435 d9b4 1ab4 1cb4 2eb4 2cb7 0334
00000110: 18b6 ee34 2b35 fb32 0cb4 51b4 409b 1fb6
00000120: 6735 b235 7731 6638 60b4 4337 daad 6f2f
00000130: 4cb8 7030 f035 1eb6 2db3 0738 a7b7 fe34
00000140: a4b4 da31 42b1 90b5 56b0 13b4 15b4 4431
00000150: bab1 c531 712a 80a2 c7b0 d7ae 4631 dcb4
00000160: 3331 b631 d635 c633 e6b1 f42f b020 0e2e
00000170: 55b1 9f33 8c32 77b4 9ca7 0c36 0db1 222b
00000180: b9a8 3b2a 55ab fa2c a3af acb0 aab0 4428
00000190: e5b5 d62d 9d32 462e 68af c7af f3b1 ebab
000001a0: 162d ca32 8e24 8433 65ab 2e2e b4a3 c126
000001b0: 13b0 e4a4 a72f 16b0 01b3 642e 8cb5 cdb2
000001c0: 1cb5 6a34 09af 2c34 85b0 38b4 90b4 962f
000001d0: 90b5 9b30 0035 d7ac 7ab4 c9b2 742b 4cb5
000001e0: 522e 8331 eb2b 5236 0ea9 3c34 402c d12e
000001f0: feb1 bc2f cb34 46b1 f2ae 6832 94b8 7a2a

model_1/model/batch_normalization_10/FusedBatchNormV3 f2 [16]
0.8345 0.7515 0.633 0.85 0.5957 0.6997 0.688 0.885
0.7637 0.615 0.2693 0.511 0.9824 0.4988 0.906 0.876
00000000: ad3a 033a 1039 cd3a c438 9939 8139 143b
00000010: 1c3a ec38 4f34 1738 dc3b fb37 3f3b 023b

model_1/model/batch_normalization_11/FusedBatchNormV3;model_1/model/depthwise_conv2d_5/depthwise;model_1/model/depthwise_conv2d_9/depthwise f2 [1, 3, 3, 16]
-0.2152 0.4473 -0.4153 -0.6533 0.001303 -0.04547 0.09406 -0.7085
-0.3735 -0.2286 0.1918 0.168 -1.142 -0.00895 -0.4197 0.3176
0.773 -0.2039 0.388 -2.895 -0.2986 -1.536 -0.9316 -1.65
-1.568 -0.7275 -0.3877 0.2411 -0.4062 -1.091 0.665 -3.158
-0.447 -0.2612 0.283 0.1938 0.1423 0.02982 -0.2491 -1.065
-0.5293 -0.2615 -0.2363 0.0725 0.4678 -0.04797 0.12476 -1.584
-0.921 0.2588 -0.7944 0.4734 -0.314 0.0494 -0.2722 0.8857
-0.7964 -0.0817 0.3782 -0.2 -2.596 -0.4958 -0.503 0.9404
3.156 -4.24 -0.9116 1.787 1.603 -2.908 2.781 3.367
0.0341 4.168 -0.818 -1.914 6.434 -0.02805 -3.336 1.319
0.011604 -0.2678 1.221 -0.8228 0.4297 0.196 -0.0954 0.3235
-0.2944 -1.065 -0.1095 -0.4822 0.01503 0.832 0.785 -1.094
-0.4517 -0.03323 -0.2015 0.521 -0.1686 -0.1613 -0.3184 0.349
0.2676 -0.1614 0.0773 -0.1054 -0.297 -0.01578 0.2678 0.4192
0.51 0.7827 -0.7646 1.931 0.479 1.185 0.4849 -1.211
0.4443 0.299 0.2073 0.2217 -0.1519 0.956 0.535 0.3008
0.3328 0.2125 0.5923 -0.3403 -0.05823 0.5117 0.487 1.031
0.04874 -0.3496 -0.01819 -0.0454 -0.733 0.1794 -0.2255 0.511
00000000: e3b2 2837 a5b6 3ab9 5615 d2a9 052e abb9
00000010: fab5 51b3 2332 6031 91bc 95a0 b7b6 1535
00000020: 2f3a 86b2 3536 cac1 c7b4 25be 74bb 9abe
00000030: 46be d2b9 34b6 b733 80b6 5dbc 5239 51c2
00000040: 27b7 2eb4 8734 3432 8e30 a227 f9b3 43bc
00000050: 3cb8 2fb4 90b3 a42c 7c37 24aa fc2f 56be
00000060: 5ebb 2434 5bba 9337 06b5 532a 5bb4 163b
00000070: 5fba 3bad 0d36 66b2 31c1 efb7 06b8 863b
00000080: 5042 3dc4 4bbb 263f 693e d1c1 9041 bc42
00000090: 5d28 2b44 8bba a8bf 6f46 2ea7 acc2 473d
000000a0: f121 49b4 e23c 95ba e036 4632 1bae 2d35
000000b0: b6b4 43bc 02af b7b7 b223 a83a 483a 60bc
000000c0: 3ab7 41a8 73b2 2b38 65b1 29b1 18b5 9635
000000d0: 4834 2ab1 f22c bfae c1b4 0aa4 4934 b536
000000e0: 1438 433a 1eba b93f aa37 bd3c c237 d8bc
000000f0: 1c37 c934 a232 1833 dcb0 a63b 4838 d034
00000100: 5335 cd32 bd38 72b5 74ab 1838 cb37 203c
00000110: 3d2a 98b5 a8a4 d0a9 ddb9 be31 37b3 1738

model_1/model/batch_normalization_11/FusedBatchNormV3 f2 [16]
-2.32 2.5 0.3997 -0.2092 -1.111 2.074 -1.361 -1.231
2.139 -1.074 0.5034 1.211 -1.707 -0.173 1.935 1.729
00000000: a4c0 0041 6536 b2b2 72bc 2640 72bd edbc
00000010: 4740 4cbc 0738 d83c d4be 89b1 bd3f ea3e

model_1/model/batch_normalization_12/FusedBatchNormV3 f2 [64]
0.2522 0.521 1.079 0.8223 0.227 0.705 0.2394 0.601
0.0546 0.06195 -0.2715 -0.00599 0.7925 -0.3208 0.4238 0.7085
1.395 0.4763 -0.3772 0.675 0.5283 0.761 0.2786 1.179
0.3586 0.4172 1.42 0.251 0.781 0.869 -0.231 0.3535
-0.288 0.258 0.7505 0.709 2.172 0.5044 1.611 -0.002602
-0.1669 1.089 0.4485 -0.086 2.006 0.4983 0.1981 0.883
0.03766 -0.4036 1.097 1.9 -0.2106 0.4287 -0.03342 -0.175
0.9854 0.638 1.1045 -0.4163 -0.005306 1.454 -0.1663 0.2998
00000000: 0934 2b38 513c 943a 4433 a439 a933 cf38
00000010: fd2a ee2b 58b4 229e 573a 22b5 c836 ab39
00000020: 943d 9f37 09b6 6639 3a38 173a 7534 b73c
00000030: bd35 ad36 ae3d 0434 3f3a f43a 64b3 a835
00000040: 9cb4 2134 013a ac39 5840 0938 723e 5499
00000050: 57b1 5b3c 2d37 81ad 0340 f937 5732 103b
00000060: d228 75b6 633c 9a3f bdb2 dc36 47a8 9ab1
00000070: e23b 1b39 6b3c a9b6 6f9d d13d 52b1 cc34

model_1/model/batch_normalization_13/FusedBatchNormV3;model_1/model/depthwise_conv2d_6/depthwise;model_1/model/depthwise_conv2d_41/depthwise f2 [1, 3, 3, 64]
0.0937 0.3381 -0.05865 0.0907 0.02646 -0.0984 0.2317 0.3445
0.0897 0.517 -0.1547 -0.0747 0.8433 2.406 0.3613 0.444
0.2908 -0.8525 -1.164 -0.335 -0.619 -0.481 0.06976 0.8857
-0.07764 1.263 0.566 1.092 0.5317 -0.3845 2.68 0.1539
0.3516 -0.2202 0.131 -0.2795 0.05057 0.1575 0.751 0.928
-0.6343 0.4592 -0.333 -0.2834 -0.00801 0.0686 0.4302 -0.4128
-0.3352 -0.1888 -1.512 -0.1371 -0.804 -0.4666 -0.6733 -0.7764
-0.1301 -0.1425 0.2507 -0.3708 2.182 0.07623 0.4553 -0.598
0.1188 -0.1866 1.08 -0.909 0.681 0.3916 0.05508 3.062
1.683 -1.025 -0.8525 0.2773 2.953 -0.7144 -0.04385 0.005283
0.1416 -0.596 1.226 0.698 0.2351 -0.9336 1.0 -0.4988
0.08185 -1.69 -0.2213 0.9644 -0.845 0.5933 -3.082 -0.884
-0.2186 1.5625 0.07043 0.2181 0.455 -0.2312 -0.5596 3.463
-0.3052 0.02087 -0.5 0.05518 0.2698 -1.02 1.92 -0.2421
0.736 0.03032 -0.1018 0.5264 -0.6504 0.522 1.407 -2.932
0.2812 0.6455 0.2693 2.82 0.1903 -0.5205 -1.041 1.579
-0.1436 0.01611 -0.7456 -0.03607 0.4817 0.75 -0.002295 1.847
0.7886 -0.02399 -0.5825 0.02147 1.069 0.3345 -0.02992 0.001342
-0.02335 -0.1349 -0.614 0.554 0.07 0.01686 -0.1572 -0.522
-0.1869 -1.279 -0.77 -0.39 -0.61 0.8354 11.68 -0.369
0.1029 0.3604 0.05402 -0.1263 -0.468 -0.1539 -0.3206 5.695
0.2347 -0.943 0.1077 0.05493 0.03012 0.0612 -0.9004 -0.149
-0.835 0.01029 0.3623 0.03046 -0.4531 0.4058 2.896 -0.2257
-0.4358 -0.957 -0.7837 1.996 0.3608 0.206 -0.2042 0.527
-0.1748 0.2559 -1.395 -0.9775 -0.002235 0.1886 -0.5874 -0.1578
0.0444 -1.665 1.958 0.4578 -0.6494 2.816 0.307 0.4407
-0.1797 -0.5117 -1.847 0.02132 -0.6655 -0.4097 0.65 1.423
-0.5996 0.712 -0.5303 -0.801 -0.0664 -0.2345 -9.88 2.371
-0.0657 -0.09045 -0.0815 -0.4382 -0.02249 0.4172 0.914 -4.465
-0.7705 -0.999 -0.581 0.6694 -0.411 -0.535 -2.588 0.553
-0.477 -0.2358 0.6294 -0.4902 -0.2588 -0.7026 0.7485 0.0674
-0.511 1.487 -0.2104 -0.9297 0.11414 0.535 -0.0751 1.047
00000000: ff2d 6935 82ab ce2d c626 4cae 6a33 8335
00000010: be2d 2338 f3b0 c8ac bf3a d040 c835 1b37
00000020: a734 d2ba a8bc 5cb5 f4b8 b2b7 772c 163b
00000030: f8ac 0d3d 8738 5e3c 4138 27b6 5c41 ed30
00000040: a035 0cb3 3130 79b4 792a 0a31 023a 6d3b
00000050: 13b9 5937 54b5 89b4 1aa0 642c e236 9bb6
00000060: 5db5 0bb2 0cbe 63b0 6fba 77b7 63b9 36ba
00000070: 2ab0 8fb0 0334 efb5 5d40 e12c 4937 c9b8
00000080: 9a2f f9b1 523c 46bb 7339 4436 0d2b 2042
00000090: bb3e 1abc d2ba 7034 e841 b7b9 9da9 691d
000000a0: 8830 c5b8 e73c 9639 8633 78bb 003c fbb7
000000b0: 3d2d c3be 15b3 b73b c3ba bf38 2ac2 12bb
000000c0: ffb2 403e 822c fb32 4837 66b3 7ab8 ed42
000000d0: e2b4 5825 00b8 102b 5134 14bc ae3f bfb3
000000e0: e339 c327 84ae 3638 34b9 2d38 a13d ddc1
000000f0: 8034 2a39 4f34 a441 1732 2ab8 2abc 513e
00000100: 98b0 2024 f7b9 9ea8 b537 003a b398 633f
00000110: 4f3a 24a6 a9b8 7f25 473c 5a35 a9a7 7f15
00000120: faa5 51b0 e9b8 6f38 7b2c 5124 08b1 2db8
00000130: fbb1 1ebd 29ba 3db6 e1b8 af3a d749 e7b5
00000140: 962e c435 ea2a 0bb0 7db7 edb0 21b5 b245
00000150: 8333 8bbb e52e 082b b627 d52b 34bb c5b0
00000160: aeba 4521 cc35 cc27 40b7 7e36 cb41 39b3
00000170: f9b6 a8bb 45ba fc3f c635 9832 89b2 3738
00000180: 98b1 1834 94bd d2bb 9498 0932 b3b8 0db1
00000190: af29 a9be d53f 5337 32b9 a241 e934 0d37
000001a0: c0b1 18b8 63bf 7525 53b9 8eb6 3339 b13d
000001b0: ccb8 b239 3eb8 68ba 40ac 81b3 f1c8 be40
000001c0: 34ac caad 37ad 03b7 c2a5 ad36 503b 77c4
000001d0: 2aba febb a6b8 5b39 93b6 48b8 2dc1 6d38
000001e0: a2b7 8cb3 0939 d8b7 24b4 9fb9 fd39 502c
000001f0: 17b8 f33d bcb2 70bb 4e2f 4838 ceac 303c

model_1/model/batch_normalization_13/FusedBatchNormV3 f2 [64]
-0.04498 1.1045 0.968 1.773 0.743 -1.728 2.027 -2.365
-0.2932 0.971 -0.5317 -0.6006 -1.372 -0.256 -1.342 -2.41
1.956 1.098 0.5503 -0.7124 0.03287 -0.792 -1.78 2.56
0.5977 0.4717 -0.1486 0.01897 -0.5835 -1.225 0.1412 -0.279
0.3733 -0.884 -1.256 1.117 -2.428 0.7134 0.2222 1.04
0.428 -1.117 1.173 -1.718 -2.451 0.6147 1.248 2.143
1.059 0.8096 2.854 0.4075 0.757 -0.526 -0.9507 0.873
-1.086 -0.6367 0.7974 -0.1909 -0.783 -1.994 0.429 -0.266
00000000: c2a9 6b3c be3b 183f f239 e9be 0e40 bbc0
00000010: b1b4 c53b 41b8 ceb8 7dbd 19b4 5ebd d2c0
00000020: d33f 643c 6738 b3b9 3528 56ba 1fbf 1f41
00000030: c838 8c37 c1b0 db24 abb8 e6bc 8530 77b4
00000040: f935 12bb 06bd 783c dbc0 b539 1c33 293c
00000050: d936 78bc b13c dfbe e7c0 eb38 fe3c 4940
00000060: 3c3c 7a3a b541 8536 0e3a 35b8 9bbb fc3a
00000070: 58bc 18b9 613a 1cb2 44ba fabf dd36 42b4

model_1/model/batch_normalization_14/FusedBatchNormV3 f2 [16]
0.6714 0.6816 -0.185 0.311 0.728 0.475 0.3345 0.1492
-0.41 -0.03014 0.611 0.0833 0.8384 0.885 0.8174 -0.3843
00000000: 5f39 7439 ecb1 fa34 d339 9a37 5a35 c630
00000010: 8fb6 b7a7 e338 552d b53a 143b 8a3a 26b6

model_1/model/batch_normalization_15/FusedBatchNormV3 f2 [16]
-0.2261 -1.031 -0.8013 0.87 -1.652 1.198 1.046 1.409
-0.632 0.9536 -1.243 2.209 -2.725 -1.404 -3.389 -0.6055
00000000: 3cb3 20bc 69ba f63a 9cbe cb3c 2f3c a33d
00000010: 0eb9 a13b f9bc 6b40 73c1 9ebd c7c2 d8b8

model_1/model/batch_normalization_15/FusedBatchNormV3;model_1/model/depthwise_conv2d_7/depthwise;model_1/model/depthwise_conv2d_9/depthwise f2 [1, 3, 3, 16]
0.3025 -0.2961 -0.2407 -0.1833 -0.191 0.1066 0.03052 0.06946
0.3198 -0.4211 0.2954 -0.002237 -0.3235 0.2146 0.4504 0.2664
0.6963 -0.1292 -0.4392 -0.01088 1.345 1.225 0.2773 0.02301
-0.02425 -0.048 0.8125 -0.3008 1.475 1.177 1.788 0.2627
0.4692 -0.326 0.1505 0.02437 0.2087 0.2664 0.3704 -0.2456
0.1273 0.2181 -0.07104 -0.403 0.0802 0.623 0.693 0.1876
0.667 -0.04752 0.1975 -0.2172 -0.4565 -0.555 0.1863 0.0921
0.661 -0.6533 -0.2107 0.05386 -1.286 0.04596 0.9023 0.157
1.285 -0.709 0.84 -0.2032 -1.034 -2.488 -0.6626 -0.3552
0.959 -0.4758 0.6396 -0.859 2.256 2.473 1.375 0.3586
-0.6406 0.1653 0.526 0.176 2.865 0.3267 -1.168 -0.1525
0.3015 0.1525 0.83 -0.597 0.294 -1.955 -0.4976 0.1799
-0.3774 0.1964 0.07294 -0.4001 -0.1348 -0.1163 0.1947 -0.06042
-0.5225 0.2482 -0.496 -0.2678 -0.5024 0.6787 -0.4658 0.2194
-1.456 1.7 0.1122 -0.593 -0.78 -0.5684 -0.4353 -0.2961
0.4795 -0.5444 -0.365 -0.0716 0.475 -0.5596 0.2568 0.791
-0.6313 0.8574 0.05768 0.02953 0.4956 0.02333 -0.3176 -0.8984
-0.1406 0.03195 0.513 0.0475 0.724 -1.086 -0.3547 -0.0786
00000000: d734 bdb4 b4b3 deb1 1db2 d32e d027 722c
00000010: 1e35 bdb6 ba34 9598 2db5 de32 3537 4334
00000020: 9239 22b0 07b7 92a1 613d e63c 7034 e425
00000030: 35a6 25aa 803a d0b4 e63d b53c 273f 3434
00000040: 8237 37b5 d130 3d26 ae32 4334 ed35 dcb3
00000050: 1330 fb32 8cac 73b6 222d fc38 8b39 0132
00000060: 5639 15aa 5232 f3b2 4eb7 71b8 f631 e52d
00000070: 4a39 3ab9 beb2 e52a 25bd e229 383b 0631
00000080: 243d acb9 b83a 81b2 23bc fac0 4db9 afb5
00000090: ac3b 9db7 1e39 dfba 8340 f240 803d bd35
000000a0: 20b9 4a31 3538 a231 bb41 3a35 acbc e1b0
000000b0: d334 e130 a43a c7b8 b434 d2bf f6b7 c231
000000c0: 0ab6 4932 ab2c 67b6 50b0 71af 3b32 bcab
000000d0: 2eb8 f133 f0b7 49b4 05b8 6e39 74b7 0533
000000e0: d3bd cd3e 2e2f beb8 3dba 8cb8 f7b6 bdb4
000000f0: ac37 5bb8 d7b5 95ac 9a37 7ab8 1c34 543a
00000100: 0db9 dc3a 622b 8f27 ee37 f925 15b5 30bb
00000110: 80b0 1728 1b38 142a cb39 58bc adb5 08ad

model_1/model/batch_normalization_16/FusedBatchNormV3;model_1/model/depthwise_conv2d_41/depthwise;model_1/model/conv2d_8/Conv2D f2 [64]
0.526 0.867 0.3625 0.208 0.1454 -1.246 -0.783 0.94
0.137 -0.0371 -0.0488 -0.2434 0.579 0.0746 0.6963 -0.03845
0.1449 -0.5337 -1.72 -0.3364 -0.6675 0.2106 0.561 -1.735
0.10913 1.155 -0.8384 -0.2976 -0.04227 0.636 0.1838 -0.1031
0.72 -0.0326 -1.056 -1.761 1.049 0.01526 -0.9604 0.2998
-0.1796 -0.399 0.9946 0.2642 -1.089 0.1782 -0.1483 -0.2998
-0.3171 1.383 -2.271 -0.9443 -0.1029 -1.051 0.02017 0.2688
-1.423 0.4734 -0.623 -0.09717 -0.1354 -0.1348 0.2147 -0.8677
00000000: 3538 f03a cd35 a832 a730 fcbc 44ba 853b
00000010: 6230 c0a8 3faa cab3 a238 c62c 9239 eca8
00000020: a330 45b8 e1be 62b5 57b9 bd32 7d38 f1be
00000030: fc2e 9f3c b5ba c3b4 69a9 1739 e231 99ae
00000040: c339 2ca8 39bc 0bbf 323c d023 afbb cc34
00000050: bfb1 62b6 f53b 3a34 5bbc b431 bfb0 ccb4
00000060: 13b5 883d 8bc0 8ebb 96ae 34bc 2a25 4d34
00000070: b1bd 9337 fcb8 38ae 55b0 50b0 df32 f1ba

model_1/model/batch_normalization_17/FusedBatchNormV3 f2 [64]
-0.3853 3.498 0.758 2.498 -0.7856 0.7417 -1.071 -2.785
1.369 0.989 1.556 0.877 2.05 1.081 0.8906 1.377
1.77 0.665 -0.6587 1.125 0.945 1.312 -3.053 -0.2598
2.283 -3.61 -1.94 0.775 2.04 -0.298 -1.142 1.454
-1.32 0.3696 -0.527 0.494 -0.1069 0.1271 0.0669 1.156
-0.807 -0.6353 1.691 -0.06775 -0.671 -1.123 1.751 -0.4846
-0.2773 2.297 -0.01232 1.215 0.9995 -0.3687 0.185 -2.402
0.01974 0.749 -1.426 -0.911 -0.11395 2.03 0.9033 0.4424
00000000: 2ab6 ff42 103a ff40 49ba ef39 49bc 92c1
00000010: 7a3d e93b 393e 043b 1a40 533c 203b 823d
00000020: 143f 5239 45b9 803c 8f3b 3f3d 1bc2 28b4
00000030: 9140 38c3 c3bf 333a 1440 c5b4 91bc d13d
00000040: 48bd ea35 37b8 e737 d7ae 1130 482c a03c
00000050: 75ba 15b9 c43e 56ac 5eb9 7ebc 013f c1b7
00000060: 70b4 9840 4fa2 dc3c ff3b e6b5 ec31 cec0
00000070: 0e25 fe39 b4bd 4abb 4baf 0f40 3a3b 1437

model_1/model/batch_normalization_17/FusedBatchNormV3;model_1/model/depthwise_conv2d_8/depthwise;model_1/model/depthwise_conv2d_41/depthwise f2 [1, 3, 3, 64]
-0.3093 -0.0004487 -0.2347 -0.4094 0.588 0.0463 0.208 0.0579
0.4075 -0.341 -0.6787 -0.749 1.111 -1.357 -0.003883 0.6255
0.2793 -1.5 -0.2993 -0.11755 -0.3086 -0.1978 0.245 1.21
-0.04407 0.1554 0.3186 -1.004 -0.4688 0.1549 -1.208 0.1863
0.1097 -0.39 0.0701 -0.10516 -0.897 0.4817 -0.2883 0.1571
0.3574 -1.019 0.3096 -0.2343 -0.1006 0.6685 -0.5986 -0.5845
-0.5186 -0.007004 -0.7144 -0.2272 -0.05157 -0.0704 -0.719 0.1611
-0.201 -0.184 -0.1646 0.6924 -0.10736 -0.333 -0.2404 -0.6187
-0.1582 -0.713 -0.726 -0.1393 0.1637 -0.2285 -0.04486 0.3218
-0.2678 -0.3157 -1.162 -0.05103 0.471 0.02359 -0.1552 0.536
0.1366 0.898 0.0202 -0.2063 -0.10266 -0.278 0.2045 -0.1755
0.04895 0.6646 0.1731 -0.8413 0.3623 -0.5405 0.1826 -1.212
-0.0788 -0.5405 0.1449 -0.0725 0.7144 0.3345 -0.2257 -0.1252
0.4436 -0.1678 0.1624 -0.589 -0.1993 0.327 -0.3489 1.492
0.629 -0.247 -0.7554 -0.1786 -0.1464 -0.01735 -0.2495 -1.316
-0.927 -0.377 -0.4807 1.451 -1.554 -0.0977 -1.509 -0.9014
-0.1382 -0.06995 -0.1672 -0.09686 -0.1278 0.1863 0.2698 0.615
-0.337 -0.4373 0.788 -0.1981 -0.2219 -0.342 -0.04852 -0.5127
-0.1215 0.00919 0.0984 -0.01277 -0.3494 -0.305 0.04367 0.04813
-0.1979 -0.09534 0.2878 0.06854 0.382 -0.3154 0.2659 0.03055
0.0519 0.7334 0.2676 -0.1453 0.0981 -0.1603 -0.1456 -0.3694
0.2386 -0.4106 -0.0416 0.2334 -0.1721 -0.2263 -0.4146 0.9272
0.557 0.2397 0.1534 0.199 0.4185 0.08234 -0.4744 0.82
0.4124 -0.2118 -0.08606 -0.9883 1.025 -0.2479 0.7866 -0.0444
0.167 -0.3708 0.1582 0.0145 -0.7134 -0.6284 0.3894 0.12
-0.3892 -0.614 -0.4397 -0.2131 -0.344 0.2954 0.1808 0.04965
-0.4731 -0.774 0.3052 -0.3853 0.1946 -0.0423 0.1729 0.2032
-0.541 0.3442 -0.3042 0.23 -0.2673 0.576 -0.1227 -1.007
0.2098 -0.575 0.1798 -0.4214 0.556 0.0707 0.138 0.01703
0.2676 -0.0723 0.005695 -0.0425 -0.0109 -0.2856 0.2856 -0.2211
-0.718 0.03668 -0.238 -0.52 -0.3552 0.2625 -0.1959 0.6426
-0.1119 0.6167 -0.0454 0.4512 -0.448 -0.466 -1.151 -0.2001
00000000: f3b4 5a8f 83b3 8db6 b438 ed29 a832 692b
00000010: 8536 75b5 6eb9 feb9 723c 6ebd f49b 0139
00000020: 7834 00be cab4 86af f0b4 54b2 d733 d73c
00000030: a4a9 f930 1935 04bc 80b7 f530 d5bc f631
00000040: 052f 3db6 7d2c bbae 2dbb b537 9db4 0731
00000050: b835 13bc f434 7fb3 70ae 5939 cab8 adb8
00000060: 26b8 2c9f b7b9 45b3 9aaa 81ac c1b9 2831
00000070: 6fb2 e3b1 44b1 8a39 dfae 54b5 b1b3 f3b8
00000080: 10b1 b4b9 cfb9 75b0 3d31 50b3 bea9 2635
00000090: 49b4 0db5 a6bc 88aa 8937 0a26 f7b0 4a38
000000a0: 5f30 2f3b 2c25 9ab2 92ae 73b4 8b32 9eb1
000000b0: 442a 5139 8a31 bbba cc35 53b8 d831 d9bc
000000c0: 0bad 53b8 a330 a4ac b739 5a35 39b3 02b0
000000d0: 1937 5fb1 3231 b6b8 61b2 3b35 95b5 f83d
000000e0: 0839 e7b3 0bba b7b1 afb0 71a4 fcb3 44bd
000000f0: 6abb 08b6 b1b7 ce3d 37be 41ae 09be 36bb
00000100: 6cb0 7aac 5ab1 33ae 17b0 f631 5134 ec38
00000110: 64b5 ffb6 4e3a 57b2 1ab3 79b5 36aa 1ab8
00000120: c7af b520 4c2e 8aa2 97b5 e1b4 9729 292a
00000130: 55b2 1aae 9b34 632c 1d36 0cb5 4134 d227
00000140: a52a de39 4834 a6b0 472e 21b1 a9b0 e9b5
00000150: a333 92b6 53a9 7833 82b1 3eb3 a2b6 6b3b
00000160: 7538 ac33 e930 5e32 b236 452d 97b7 8f3a
00000170: 9936 c7b2 82ad e8bb 1a3c efb3 4b3a afa9
00000180: 5831 efb5 1031 6d23 b5b9 07b9 3b36 ae2f
00000190: 3ab6 e9b8 09b7 d2b2 81b5 ba34 c931 5b2a
000001a0: 92b7 31ba e234 2ab6 3a32 6aa9 8831 8132
000001b0: 54b8 8235 deb4 5c33 47b4 9c38 daaf 07bc
000001c0: b732 9ab8 c131 beb6 7338 862c 6a30 5c24
000001d0: 4834 a1ac d51d 71a9 95a1 92b4 9234 13b3
000001e0: beb9 b228 9eb3 29b8 afb5 3334 45b2 2439
000001f0: 29af ef38 d0a9 3837 2bb7 75b7 9bbc 67b2

model_1/model/batch_normalization_18/FusedBatchNormV3 f2 [16]
-0.153 0.761 -0.1613 0.002493 0.646 -0.3586 -0.2334 0.2145
0.7573 -0.1401 -0.723 -0.6523 -0.495 0.504 -0.49 0.6177
00000000: e5b0 173a 29b1 1b19 2b39 bdb5 78b3 dd32
00000010: 0f3a 7cb0 c9b9 38b9 ecb7 0838 d7b7 f138

model_1/model/batch_normalization_19/FusedBatchNormV3;model_1/model/depthwise_conv2d_9/depthwise f2 [1, 3, 3, 16]
0.2152 0.3474 -0.117 -0.2668 -0.5884 0.813 -0.11 0.2465
-0.03342 0.272 0.3965 -0.03017 -0.0955 -0.4604 -1.092 0.585
0.3655 1.064 0.03705 0.0628 0.0891 0.3108 0.01312 -0.0454
0.3125 -0.1906 0.741 -2.975 1.403 -0.4695 0.2317 0.6963
0.4402 0.0661 0.0232 0.12146 0.4531 -0.00631 0.0341 -0.3606
-0.02632 0.0284 -0.6177 -1.598 1.201 0.1647 -0.7944 0.491
-0.0466 -1.164 0.4905 -0.8735 -2.404 -1.077 0.4688 0.63
-0.8325 -0.2347 -3.059 -0.347 0.3142 -0.6953 0.2223 0.3699
1.11 0.5654 0.3315 0.2617 -1.343 -1.559 0.4392 -0.688
-1.0 -0.3435 -3.156 1.649 -1.938 0.3855 3.242 0.4558
0.1129 0.4482 0.1412 0.272 0.365 -1.437 -0.012924 -0.485
1.009 0.0835 -3.746 -3.822 -0.1265 0.8066 2.143 0.37
-0.04236 0.10443 0.07794 -0.02682 1.797 0.2119 0.2896 -0.2408
-0.6675 -0.42 -0.7153 0.374 0.2396 0.2439 0.2634 -0.1481
0.3306 -1.68 0.3394 -0.06824 -1.124 0.272 0.597 0.0575
-1.852 -0.4026 0.2096 3.154 -1.816 0.566 0.539 0.246
0.4011 -0.9604 0.03503 0.0721 0.295 0.1533 0.07166 -0.06616
0.591 -0.559 0.00229 2.324 -0.1973 -0.045 0.7593 -0.01794
00000000: e332 8f35 7daf 45b4 b5b8 813a 0aaf e333
00000010: 47a8 5a34 5836 b9a7 1dae 5eb7 5ebc ae38
00000020: d935 423c be28 052c b42d f934 b822 d0a9
00000030: 0035 19b2 ee39 f3c1 9d3d 83b7 6a33 9239
00000040: 0b37 3b2c f025 c62f 4037 769e 5d28 c5b5
00000050: bda6 4527 f1b8 64be ce3c 4531 5bba db37
00000060: f7a9 a8bc d937 fdba cfc0 4fbc 8037 0a39
00000070: a9ba 83b3 1ec2 8db5 0735 90b9 1d33 eb35
00000080: 713c 8638 4e35 3034 5fbd 3cbe 0737 81b9
00000090: 00bc 7fb5 50c2 993e c1bf 2b36 7c42 4b37
000000a0: 3a2f 2c37 8530 5a34 d735 bfbd 9ea2 c3b7
000000b0: 093c 582d 7ec3 a5c3 0cb0 743a 4940 ec35
000000c0: 6ca9 af2e fd2c dea6 303f c832 a234 b5b3
000000d0: 57b9 b8b6 b9b9 fc35 ab33 ce33 3734 bdb0
000000e0: 4a35 b8be 6e35 5eac 7fbc 5a34 c738 5c2b
000000f0: 68bf 71b6 b532 4f42 44bf 8738 5038 df33
00000100: 6b36 afbb 7c28 9d2c b834 e830 962c 3cac
00000110: ba38 79b8 b118 a640 50b2 c3a9 133a 98a4

model_1/model/batch_normalization_19/FusedBatchNormV3 f2 [16]
-1.495 0.925 -0.808 0.3096 1.796 0.5547 -0.8022 0.605
1.87 0.7495 1.035 0.009705 0.1699 -0.4421 -0.483 -2.18
00000000: fbbd 663b 77ba f434 2f3f 7038 6bba d738
00000010: 7b3f ff39 243c f820 7031 13b7 bab7 5cc0

model_1/model/batch_normalization_20/FusedBatchNormV3;model_1/model/depthwise_conv2d_41/depthwise;model_1/model/conv2d_10/Conv2D f2 [64]
0.1257 -1.275 0.0671 -0.8 0.303 -0.0982 -0.3027 -0.271
-1.027 -0.2378 -1.569 -0.1937 -1.535 -0.4575 -1.299 -1.167
-0.4749 1.08 -2.777 0.07263 -0.6074 -0.623 -0.8906 0.2998
0.9976 1.74 -0.7896 2.088 -0.0828 1.156 -0.5996 0.331
1.6045 3.775 0.3608 0.3918 1.18 -0.6025 -0.5586 -1.488
-1.059 -0.568 -0.819 1.574 0.4492 -1.3545 0.497 -0.7827
-0.3196 -0.696 0.7935 0.4893 -0.06415 0.05228 0.05087 0.2463
-0.471 1.061 0.9595 -0.504 -0.3586 -1.873 -0.1722 0.862
00000000: 0630 1abd 4b2c 66ba d934 49ae d8b4 56b4
00000010: 1cbc 9cb3 47be 33b2 24be 52b7 32bd abbc
00000020: 99b7 523c 8ec1 a62c dcb8 fcb8 20bb cc34
00000030: fb3b f63e 51ba 2d40 4dad a03c ccb8 4c35
00000040: 6b3e 8d43 c635 4536 b83c d2b8 78b8 f4bd
00000050: 3cbc 8bb8 8dba 4c3e 3037 6bbd f437 43ba
00000060: 1db5 91b9 593a d437 1bac b12a 832a e233
00000070: 89b7 3e3c ad3b 08b8 bdb5 7ebf 83b1 e53a

model_1/model/activation_44/Relu;model_1/model/batch_normalization_82/FusedBatchNormV3;model_1/model/conv2d_44/BiasAdd/ReadVariableOp/resource;model_1/model/conv2d_44/BiasAdd;model_1/model/conv2d_46/Conv2D;model_1/model/conv2d_44/Conv2D f2 [48]
-0.1069 -0.00911 -0.0627 -0.05618 0.2328 0.0881 0.1045 0.325
-0.05753 -0.4207 -0.506 0.04306 0.10236 0.0186 -0.00638 -0.1077
0.01619 -0.706 0.0258 0.11786 -0.01811 -0.05484 0.02826 0.002577
0.05875 0.0585 0.10913 0.04398 -0.00923 -0.11224 0.1512 0.0735
-0.08484 -0.02148 0.1937 -0.0482 0.1224 -0.2727 0.056 -0.07733
-0.08704 -0.00926 -0.5713 0.2025 -0.0689 -0.092 -0.0846 0.2864
00000000: d7ae aaa0 03ac 31ab 7333 a32d b02e 3335
00000010: 5dab bbb6 0cb8 8329 8d2e c324 889e e5ae
00000020: 2524 a6b9 9b26 8b2f a3a4 05ab 3c27 4719
00000030: 852b 7d2b fc2e a129 baa0 2faf d730 b42c
00000040: 6ead 80a5 3332 2baa d52f 5db4 2b2b f3ac
00000050: 92ad bea0 92b8 7b32 69ac e3ad 6aad 9534

model_1/model/batch_normalization_21/FusedBatchNormV3;model_1/model/depthwise_conv2d_10/depthwise;model_1/model/depthwise_conv2d_41/depthwise f2 [1, 3, 3, 64]
0.04535 -0.04156 -0.02446 0.2161 0.01271 -0.149 -0.2124 0.2625
0.2394 0.4424 0.1965 0.2311 -0.01183 -0.303 -0.02773 -0.484
-0.0622 -0.2744 0.01305 -0.2905 0.27 0.2391 -0.06836 0.0798
-0.1711 0.3357 0.0333 0.3171 -0.3088 0.01614 0.3828 0.1357
0.03638 0.1736 0.1465 0.03543 -0.2201 0.2747 0.1321 0.7305
0.2766 -0.1687 -0.1306 -0.0177 0.006683 -0.254 -0.3032 -0.2227
0.4238 -0.1556 -0.06824 0.05637 -0.2573 0.1348 0.3208 -0.02687
-0.229 -0.02872 -0.194 -0.1829 -0.356 -0.3105 -0.2291 0.14
0.2489 -0.1625 -0.166 0.3066 -0.3267 -0.145 0.1282 0.0993
0.4487 0.714 0.359 0.2979 0.522 -0.3682 -0.322 -0.2311
-0.1392 -0.2224 -0.001265 -0.3372 0.3242 0.2542 0.01514 0.248
-0.2388 0.2396 -0.03802 0.3457 -0.1813 -0.04114 0.639 0.3694
-0.012276 0.1592 0.2322 -0.0351 0.08527 0.3223 0.2003 0.854
0.5195 -0.2294 -0.1285 -0.0936 -0.02812 -0.449 -0.3845 -0.6055
0.6475 -0.1283 -0.03014 0.001991 -0.3262 0.1497 0.3208 0.1353
-0.2747 -0.269 -0.3857 -0.521 -0.7134 -0.2744 -0.687 0.3948
0.2174 -0.276 0.03038 0.1295 -0.077 -0.05713 0.2284 -0.0686
0.344 0.332 0.2133 0.1165 0.5 -0.1733 -0.346 0.02963
-0.0256 0.02512 -0.01477 -0.1538 0.163 0.0718 -0.04474 0.145
-0.1864 -0.09467 -0.0668 0.111 -0.0493 -0.1571 0.5156 0.2822
-0.03986 0.2368 0.0916 -0.0857 0.2808 0.11633 0.06198 0.3286
0.2622 -0.1807 0.03827 -0.1467 -0.0328 -0.178 -0.1039 -0.3342
0.4265 0.001541 0.0665 -0.0809 -0.0629 0.0407 0.0554 0.01367
-0.1261 -0.246 -0.3254 -0.4485 -0.4744 -0.1213 -0.4973 0.1932
0.363 -0.0988 -0.2136 0.285 -0.1914 -0.3994 -0.1592 0.17
0.3003 0.5127 0.0086 0.246 -0.2399 -0.6475 0.0846 -0.713
-0.2144 -0.3762 -0.03595 -0.391 0.3994 0.2712 0.2019 -0.06223
-0.3286 0.5195 0.2502 0.498 -0.2374 -0.08014 0.613 0.1394
0.0979 0.3372 0.339 0.1221 -0.2002 0.394 0.1919 0.791
0.3982 -0.345 -0.2465 0.08636 0.0405 -0.4307 -0.0921 -0.37
0.701 -0.1283 0.4985 -0.03915 -0.2507 0.1694 0.4888 0.2742
-0.4282 -0.2632 0.03278 -0.1554 -0.5825 -0.5127 -0.2803 0.4392
00000000: ce29 52a9 43a6 ea32 8222 c5b0 ccb2 3334
00000010: a933 1437 4a32 6533 0fa2 d9b4 19a7 beb7
00000020: f6ab 64b4 ae22 a6b4 5234 a733 60ac 1b2d
00000030: 7ab1 5f35 4328 1335 f1b4 2224 2036 5830
00000040: a828 8e31 b030 8928 0bb3 6534 3a30 d839
00000050: 6d34 66b1 2eb0 88a4 d81e 10b4 dab4 20b3
00000060: c836 fbb0 5eac 372b 1eb4 5030 2235 e1a6
00000070: 54b3 5aa7 35b2 dab1 b2b5 f8b4 55b3 7b30
00000080: f733 33b1 50b1 e834 3ab5 a4b0 1a30 5b2e
00000090: 2e37 b639 be35 c434 2d38 e4b5 27b5 65b3
000000a0: 74b0 1eb3 2e95 65b5 3035 1134 c023 f033
000000b0: a4b3 ab33 dea8 8835 cdb1 44a9 1d39 e935
000000c0: 49a2 1831 6e33 7ea8 752d 2835 6932 d53a
000000d0: 2838 57b3 1db0 fead 33a7 2fb7 27b6 d8b8
000000e0: 2e39 1bb0 b7a7 1418 38b5 ca30 2235 5430
000000f0: 65b4 4eb4 2cb6 2bb8 b5b9 64b4 7fb9 5136
00000100: f532 6ab4 c727 2530 eeac 50ab 4f33 64ac
00000110: 8135 5035 d332 752f 0038 8cb1 89b5 9627
00000120: 8ea6 6e26 90a3 ecb0 3731 982c baa9 a430
00000130: f7b1 0fae 46ac 1b2f 4faa 07b1 2038 8434
00000140: 1aa9 9433 dd2d 7cad 7e34 722f ef2b 4235
00000150: 3234 c8b1 e628 b2b0 33a8 b2b1 a6ae 59b5
00000160: d336 5016 422c 2dad 07ac 3629 172b 0023
00000170: 09b0 dfb3 35b5 2db7 97b7 c3af f5b7 2f32
00000180: cf35 53ae d6b2 8f34 20b2 64b6 18b1 7131
00000190: ce34 1a38 6720 df33 adb3 2eb9 6a2d b4b9
000001a0: dcb2 05b6 9aa8 42b6 6436 5734 7632 f7ab
000001b0: 42b5 2838 0134 f837 99b3 21ad e738 7630
000001c0: 442e 6535 6d35 d02f 68b2 4e36 2432 543a
000001d0: 5f36 85b5 e3b3 872d 2f29 e4b6 e5ad ecb5
000001e0: 9c39 1bb0 fa37 03a9 03b4 6c31 d237 6334
000001f0: dab6 36b4 3228 f9b0 a9b8 1ab8 7cb4 0737

model_1/model/batch_normalization_21/FusedBatchNormV3 f2 [64]
-2.748 1.34 1.945 -1.686 1.937 1.26 0.004837 -1.296
-1.176 -1.673 -0.1526 -1.173 -0.839 1.121 0.991 0.7666
2.334 3.953 0.3704 2.152 -0.767 -1.669 -1.774 -0.8145
3.604 -7.25 -0.11304 -7.312 0.2401 1.906 -1.296 -2.07
-1.374 -7.645 -2.072 -0.01168 -2.656 -1.381 -1.414 -0.6357
-0.768 1.583 2.002 -1.433 1.024 0.904 1.679 0.8774
-0.746 1.27 -2.504 1.425 2.025 -1.354 -1.582 -1.077
0.992 -0.6587 3.135 1.5 1.39 0.987 1.591 -2.68
00000000: 7fc1 5c3d c83f bebe bf3f 0a3d f41c 2fbd
00000010: b4bc b1be e2b0 b1bc b6ba 7c3c ee3b 223a
00000020: ab40 e843 ed35 4e40 23ba adbe 19bf 84ba
00000030: 3543 40c7 3caf 50c7 af33 a03f 2fbd 24c0
00000040: 7fbd a5c7 25c0 fba1 50c1 86bd a8bd 16b9
00000050: 25ba 553e 0140 bbbd 193c 3b3b b73e 053b
00000060: f8b9 143d 02c1 b33d 0d40 6abd 54be 4fbc
00000070: f03b 45b9 4542 003e 8f3d e53b 5d3e 5cc1

model_1/model/batch_normalization_22/FusedBatchNormV3 f2 [32]
0.7153 0.589 0.4387 0.696 0.5034 0.4321 0.564 0.669
0.7324 0.7354 0.7095 0.497 0.771 0.3296 0.948 0.4553
0.4822 0.8066 0.513 0.6113 0.328 0.681 0.846 0.5845
0.749 0.4949 0.8784 0.838 0.7266 0.396 0.7275 0.681
00000000: b939 b638 0537 9139 0738 ea36 8338 5a39
00000010: dc39 e239 ad39 f437 2b3a 4635 963b 4937
00000020: b737 743a 1b38 e438 3f35 7339 c53a ad38
00000030: fe39 eb37 073b b43a d039 5636 d239 7339

model_1/model/batch_normalization_23/FusedBatchNormV3 f2 [32]
0.9707 -0.782 -1.277 -2.361 -0.3066 -1.511 -0.656 -2.795
-0.7007 -0.4463 1.389 -0.66 1.716 1.735 0.06805 -1.51
-1.596 0.5664 -1.277 -1.595 1.045 -1.85 -1.813 1.26
-1.74 -0.2384 -1.38 -1.951 0.232 1.177 1.323 0.1324
00000000: c43b 42ba 1cbd b9c0 e8b4 0bbe 3fb9 97c1
00000010: 9bb9 24b7 8e3d 48b9 dd3e f13e 5b2c 0abe
00000020: 62be 8838 1cbd 61be 2e3c 66bf 41bf 0a3d
00000030: f6be a1b3 85bd cebf 6d33 b53c 4b3d 3d30

model_1/model/batch_normalization_23/FusedBatchNormV3;model_1/model/depthwise_conv2d_11/depthwise;model_1/model/depthwise_conv2d_37/depthwise f2 [1, 3, 3, 32]
0.11 -0.4197 0.1754 0.1516 0.07623 0.1493 0.1063 0.01707
-1.613 -0.0958 -0.2391 0.00948 0.586 -0.4268 -0.2008 -0.3188
-0.03217 0.307 -0.1339 0.015144 0.04764 -0.1365 -0.3396 0.0363
0.217 -0.2683 -0.137 0.1545 -0.0532 -0.4487 -0.1727 0.4639
0.6016 1.075 -0.3499 1.394 0.4495 0.1293 0.01868 0.2673
0.881 -0.9893 -1.656 -0.02316 0.7085 -1.192 0.1807 -0.0903
0.2854 -0.4148 -0.1824 -0.193 -0.2678 -1.303 -1.211 0.0091
-0.3105 -0.4534 -0.6016 -0.2312 0.07806 -0.4512 0.4705 -0.8
1.007 0.6035 -0.2256 0.2932 0.1912 -0.0586 0.1656 0.1583
2.908 -0.3066 -0.23 -0.0341 -0.03165 0.4998 0.294 0.39
0.768 -0.1255 0.3013 0.0718 -0.5264 -0.5 -0.345 -0.08795
0.3843 0.1702 0.4321 0.436 -0.2014 -0.0455 0.3044 -0.7705
-0.509 -0.6426 0.2161 -0.1708 0.2109 0.832 0.482 0.496
-0.6387 -0.6016 0.1722 0.2069 0.4622 -0.2158 -1.34 -0.1016
0.1852 0.63 -0.571 -0.1317 0.11115 -0.0642 0.1252 -0.004013
0.5366 -0.595 0.4775 -0.422 0.0985 -0.7593 -1.802 1.137
-2.47 1.436 -0.5796 1.182 -0.07166 1.231 -1.42 1.369
0.0861 -0.7563 -0.4194 1.113 -3.11 -0.81 -2.572 2.088
0.482 0.08246 1.235 0.9854 -0.8438 0.3914 3.021 -0.581
0.1995 1.023 -1.912 1.084 -0.2013 0.02412 0.2173 0.9243
0.1907 0.2903 0.8594 0.215 -0.6045 -0.574 0.7983 0.4622
0.013565 1.358 0.00585 -1.001 0.6226 -0.11694 1.795 -0.1869
0.9243 -2.473 1.439 1.442 -1.097 1.608 -0.3516 -0.6597
-0.2827 1.026 2.16 1.247 -2.621 0.2769 0.643 -1.329
-0.1909 0.09015 0.001868 0.1816 -0.4666 -0.004208 0.1087 -0.311
-0.3438 -0.2693 0.03098 0.2152 -0.1779 -0.1664 -0.2124 0.11774
0.2964 0.4966 0.03195 -0.1754 0.03323 0.0533 0.46 0.2091
0.2449 -0.1115 -0.0991 -0.4705 0.1345 -0.3638 -0.2094 0.1643
0.2568 -0.701 0.986 -0.2136 0.0831 1.165 0.4275 1.015
0.2947 1.925 0.2019 0.752 -1.505 -0.4158 0.289 0.3845
-0.0248 0.7656 -0.1658 0.00962 0.1907 1.173 0.2642 -0.196
1.919 -1.23 0.345 1.325 1.147 -0.06494 -2.227 0.4207
00000000: 0a2f b7b6 9d31 da30 e12c c730 ce2e 5f24
00000010: 74be 22ae a7b3 db20 b038 d4b6 6db2 1ab5
00000020: 1ea8 e934 49b0 c123 192a 5eb0 6fb5 a528
00000030: f232 4bb4 62b0 f230 cfaa 2eb7 87b1 6c37
00000040: d038 4d3c 99b5 933d 3137 2330 c824 4734
00000050: 0c3b eabb a0be eea5 ab39 c5bc c831 c7ad
00000060: 9134 a3b6 d6b1 2db2 49b4 36bd d8bc a920
00000070: f8b4 41b7 d0b8 66b3 ff2c 38b7 8737 66ba
00000080: 073c d438 38b3 b134 1e32 80ab 4d31 1131
00000090: d141 e8b4 5cb3 5da8 0da8 ff37 b434 3d36
000000a0: 253a 04b0 d234 982c 36b8 00b8 85b5 a1ad
000000b0: 2636 7231 ea36 fa36 72b2 d3a9 df34 2aba
000000c0: 12b8 24b9 ea32 77b1 c032 a83a b637 f037
000000d0: 1cb9 d0b8 8331 9f32 6537 e8b2 5cbd 81ae
000000e0: ed31 0a39 91b8 37b0 1d2f 1cac 0230 1c9c
000000f0: 4b38 c3b8 a437 c1b6 4e2e 13ba 35bf 8c3c
00000100: f1c0 be3d a3b8 ba3c 96ac ed3c aebd 7a3d
00000110: 832d 0dba b6b6 743c 38c2 7bba 25c1 2d40
00000120: b637 472d f13c e23b c0ba 4336 0b42 a6b8
00000130: 6232 183c a6bf 563c 71b2 2d26 f432 653b
00000140: 1a32 a534 e03a e132 d6b8 98b8 633a 6537
00000150: f222 6f3d fe1d 01bc fb38 7caf 2e3f fbb1
00000160: 653b f2c0 c23d c53d 63bc 6f3e a0b5 47b9
00000170: 86b4 1b3c 5240 fd3c 3ec1 6e34 2539 51bd
00000180: 1cb2 c52d a717 d031 77b7 4f9c f52e fab4
00000190: 80b5 4fb4 ee27 e332 b1b1 53b1 ccb2 892f
000001a0: be34 f237 1728 9db1 4128 d32a 5c37 b132
000001b0: d633 23af 58ae 87b7 4e30 d2b5 b3b2 4231
000001c0: 1c34 9cb9 e33b d6b2 522d a93c d736 0f3c
000001d0: b734 b33f 7632 043a 05be a7b6 a034 2736
000001e0: 59a6 203a 4eb1 ed20 1a32 b13c 3a34 46b2
000001f0: ad3f ecbc 8535 4d3d 973c 28ac 74c0 bb36

model_1/model/batch_normalization_24/FusedBatchNormV3 f2 [128]
0.9736 0.3044 0.10706 1.661 0.7837 0.9424 -0.05 0.0616
0.1181 0.0844 0.397 1.011 0.2183 0.655 -0.3162 1.56
-0.555 -0.04358 0.6113 0.4587 0.3198 0.07544 -0.4417 -0.105
0.1032 -0.05832 -0.0391 -0.1335 0.006176 0.9707 0.3477 0.515
-0.0988 1.119 1.277 0.3435 -0.303 0.912 -0.2546 -0.384
0.796 -0.07965 0.7236 -0.296 -0.0844 0.577 0.478 1.228
-0.331 0.2795 0.2474 0.7095 0.632 1.638 0.2218 -0.3684
0.4468 -0.01984 0.3342 -0.1897 0.7173 0.506 -0.447 -0.151
-0.4473 0.9336 0.4817 0.776 0.1572 -0.9614 0.5747 -0.735
0.1991 0.08685 -0.6865 0.4197 0.36 0.3296 -0.04245 0.6304
0.2249 -0.5205 0.623 0.04282 0.5464 -0.1959 -0.441 0.2593
0.5117 0.3435 -0.2362 0.2893 1.702 2.15 0.636 0.2427
0.429 0.7764 0.6465 0.3103 0.3555 -0.7485 -0.5405 0.65
0.5913 0.1151 1.235 1.082 0.2534 -0.3313 0.08215 1.003
1.288 -0.4602 -0.7173 0.3035 0.493 -0.3765 -0.653 0.9795
0.05655 -0.013756 0.04703 -0.3506 -0.55 -0.3188 1.861 -0.7866
00000000: ca3b df34 da2e a53e 453a 8a3b 66aa e32b
00000010: 8f2f 672d 5a36 0b3c fc32 3d39 0fb5 3d3e
00000020: 71b8 94a9 e438 5737 1e35 d42c 11b7 b8ae
00000030: 9b2e 77ab 01a9 46b0 531e c43b 9035 1f38
00000040: 53ae 7a3c 1c3d 7f35 d9b4 4c3b 13b4 25b6
00000050: 5e3a 19ad ca39 bcb4 67ad 9e38 a637 e93c
00000060: 4cb5 7934 eb33 ad39 0e39 8d3e 1933 e5b5
00000070: 2637 14a5 5935 12b2 bd39 0c38 27b7 d5b0
00000080: 28b7 783b b537 353a 0831 b1bb 9938 e1b9
00000090: 5f32 8f2d 7eb9 b736 c335 4635 6fa9 0b39
000000a0: 3233 2ab8 fc38 7b29 5f38 45b2 0eb7 2634
000000b0: 1838 7f35 8fb3 a134 cf3e 4d40 1739 c433
000000c0: dd36 363a 2c39 f734 b035 fdb9 53b8 3339
000000d0: bb38 5e2f f13c 543c 0e34 4db5 422d 033c
000000e0: 273d 5db7 bdb9 db34 e337 06b6 39b9 d63b
000000f0: 3d2b 0ba3 052a 9cb5 66b8 1ab5 723f 4bba

model_1/model/batch_normalization_25/FusedBatchNormV3 f2 [128]
-1.587 1.727 1.232 2.81 1.966 0.4382 -0.6885 -0.6206
1.378 -0.7617 0.634 -1.3545 -0.583 -1.63 -0.6807 -0.652
1.408 -1.003 0.612 2.225 -0.3606 -0.0689 0.4822 -0.578
-0.7124 -0.791 -0.2369 -1.058 1.14 -1.616 1.508 1.064
0.953 0.847 -2.547 0.8853 1.322 -0.363 0.752 -0.914
2.41 1.144 2.69 -0.661 0.2952 -0.699 1.505 -2.783
-0.741 -0.10297 -2.492 1.791 -1.191 -1.463 -1.169 -0.423
1.296 -1.162 2.223 0.08673 -0.3518 -0.683 0.9414 -0.9316
-0.613 -0.69 1.632 -0.8477 -0.765 0.1163 1.53 -0.2512
0.5137 -0.1396 -0.5894 -0.62 0.975 -0.441 -0.1958 -1.73
-1.626 -0.12354 -0.5728 1.463 -0.5215 -0.11505 -0.628 0.7305
-0.4553 0.63 0.701 1.476 -1.386 -3.752 1.345 0.639
0.32 -1.175 0.7104 -0.7114 -1.392 -0.5083 0.522 2.23
-1.032 -0.2952 0.7563 2.361 -0.991 0.552 -0.0277 0.738
0.9526 -0.9644 0.94 -0.972 -1.618 0.814 -0.1545 0.93
0.53 0.2778 0.691 0.10895 0.5923 -0.2019 -0.7373 0.8945
00000000: 59be e83e ee3c 9f41 dd3f 0337 82b9 f7b8
00000010: 833d 18ba 1239 6bbd aab8 85be 72b9 37b9
00000020: a23d 03bc e538 7340 c5b5 69ac b737 a0b8
00000030: b3b9 54ba 95b3 3bbc 8f3c 77be 083e 423c
00000040: a03b c73a 18c1 153b 4a3d cfb5 043a 50bb
00000050: d240 933c 6141 4ab9 b934 98b9 053e 91c1
00000060: eeb9 97ae fcc0 2a3f c4bc dabd adbc c5b6
00000070: 2f3d a6bc 7240 8d2d a1b5 77b9 883b 74bb
00000080: e7b8 85b9 873e c8ba 1fba 712f 1f3e 05b4
00000090: 1c38 78b0 b7b8 f6b8 cd3b 0eb7 44b2 ecbe
000000a0: 81be e8af 95b8 da3d 2cb8 5daf 06b9 d839
000000b0: 49b7 0a39 9c39 e73d 8bbd 81c3 613d 1d39
000000c0: 1f35 b3bc af39 b1b9 91bd 11b8 2d38 7640
000000d0: 21bc b9b4 0d3a b940 eebb 6a38 17a7 e739
000000e0: 9f3b b7bb 853b c7bb 79be 833a f2b0 713b
000000f0: 3d38 7234 8739 f92e bd38 76b2 e6b9 283b
