mediapipe/model_maker/python/vision/gesture_recognizer/testdata/metadata/custom_gesture_classifier.tflite (tflite, 6872 bytes, 1 tensors)

model/dense/MatMul1 f4 [11, 128]
00000000: 13f3 093e 2080 233c 22d6 d4bd 90eb 233c
00000010: 8e92 9ebd e06e 5dbc 78d0 0b3d 8ec9 b83d
00000020: 20cd 23bd 8659 f6bd 71b4 103e 68bf 8c3c
00000030: a067 023d 782b 47be 96df 12be 71ce 4b3e
00000040: 6b11 bebd 054c 423e be18 b9bd 8f5a 403e
00000050: 2b44 1f3e 0024 81bd c445 5b3d 78e6 6bbd
00000060: aaa5 fb3d cd1a 51be 8c17 48bd 8746 3d3e
00000070: e6be d13d 482b ba3c 59b2 483e 2077 6bbc
00000080: 0afd ee3d 749e 5cbd a92d 193e 7011 b63c
00000090: 04cf 42be 7072 4dbe 8fef 3fbe fed0 4cbe
000000a0: 64d8 35be 3478 403d 2f1f 2cbe b0f2 0dbd
000000b0: 0be5 013e 9665 90bd 345d 583d e1b6 c8bd
000000c0: f827 213d bd18 343e 9086 da3c 0855 5abd
000000d0: 3084 46bd 947e 77bd 0f26 37be 1096 54bd
000000e0: fc59 8cbd e183 193e dc2f 17bd 13f5 113e
000000f0: d021 45bc 534d 023e a4dc 7b3d 48d5 2ebe
00000100: 84df 583d 3805 dbbc 606d 01bd a19e 1f3e
00000110: f2b2 2dbe f21b b03d 3694 97bd f6cb ff3d
00000120: 9d1a 353e e668 e73d 92af d43d df3c 183e
00000130: 4cf5 35be 9dd2 3a3e 8646 953d 4a30 2dbe
00000140: 53e5 3f3e a0d8 9f3b 08e4 ec3c a62d 903d
00000150: 181e b43c 976e 323e 8da3 e0bd 12e7 e53d
00000160: 785f e4bd 3ec6 8d3d b20a e53d 88d4 43bd
00000170: 61d6 05be e007 fdbb 883f 06be f2f4 883d
00000180: f733 523e 3a05 e63d cb9a 4cbe 5e32 ac3d
00000190: 7b3e 543e 0a5d c9bd d2de b63d 7a31 96bd
000001a0: 2e87 ee3d 09bd 183e d091 dbbd 5df0 293e
000001b0: 4ea7 27be b818 d0bc 163e 883d d3ed 263e
000001c0: ea0f ff3d b049 d53c 98f7 fa3c e8b2 efbd
000001d0: ccf1 e8bd 9bc8 063e d777 fdbd e035 f43c
000001e0: 990d 1e3e 68a8 ca3c 7c86 1d3d 13c9 3b3e
000001f0: 097e abbd 1c35 483d be8e cc3d f06a 063c
00000200: f3c6 23be 386b de3c 7638 973d 5562 ccbd
00000210: a6ac fa3d 742a 72bd e0e0 53bc 070b 30be
00000220: 903c 61bd e39b 323e 607e 0cbd ab67 063e
00000230: 7772 cebd df9b 543e 0a15 d23d d638 b13d
00000240: a023 fb3c bc1d 0a3d 293f 003e be52 19be
00000250: 7ef6 a53d adc1 123e 5192 023e 3f7e 123e
00000260: 2f95 0e3e 78ed a23c ce32 e13d 0744 25be
00000270: 05c3 483e 8916 173e 1c32 3c3d c2ce ba3d
00000280: 5435 1b3d 926e ce3d 58a6 96bd feb4 31be
00000290: 5884 fbbc e6c1 ee3d 8b1f 2c3e de3c f53d
000002a0: 17f4 20be 107b bdbc bdc0 f8bd f0ce 053c
000002b0: 64d5 92bd 5201 9a3d 6cbf cbbd 905a 01bd
000002c0: e80c 35bd 35fd 173e bbf6 2abe 9a78 01be
000002d0: bf10 293e f10a 313e 8645 07be e41d 06be
000002e0: d013 32be d07c d43c aea6 8f3d b390 b1bd
000002f0: 8e7d 2fbe 5f43 0c3e ada3 d1bd 6cf5 cabd
00000300: 64c6 53be 00b0 d8b8 1cd9 10be fc50 7c3d
00000310: 66e9 9b3d 169c b5bd 762f a43d 6639 e4bd
00000320: f430 783d 1271 a4bd b114 353e 69c5 353e
00000330: fdbe ecbd de5c f4bd cc45 713d b456 173d
00000340: 32f9 c43d f078 8dbd 66dc a03d 3c6f 5b3d
00000350: 1055 63bd 1729 473e 0de6 173e bafe f13d
00000360: cff4 293e 1e8a 84bd c150 26be 6c49 79bd
00000370: 1246 c83d a0ee 36bc faf8 923d 8fee 433e
00000380: e007 7ebc 9c8a 7c3d 1866 4cbd 144c 433d
00000390: b528 b7bd 0209 fa3d 7091 93bc 4ac9 c33d
000003a0: e66d 53be 56c3 40be 781c 17be dadd 853d
000003b0: 60c5 2bbe 32bb ea3d 85dd 09be a082 003c
000003c0: d427 0fbd ea5a dd3d 1029 193c ecf8 423d
000003d0: 527a 893d e1b6 243e 7cd1 673d cb7f 413e
000003e0: 1035 24be fcf8 2f3d 3ce8 0abe 228b ab3d
000003f0: ac3d 583d f03c 0ebc 1578 363e 4674 cabd
0.13471632 0.009979278 -0.10392405 0.010004893 -0.07742797 -0.013515204 0.03413436 0.090228185
-0.039990544 -0.12028794 0.14131333 0.017181113 0.031837106 -0.19450176 -0.14343104 0.1990297
-0.09280666 0.18974312 -0.09037922 0.18784545 0.15553348 -0.063056946 0.05353333 -0.05759284
0.12287457 -0.2042038 -0.04885058 0.18483935 0.10241489 0.022725716 0.19599284 -0.014371663
0.11669357 -0.05386205 0.14958824 0.022225112 -0.19024283 -0.20063186 -0.18743728 -0.20001599
-0.17758328 0.046989635 -0.1680877 -0.034655273 0.12685029 -0.07050626 0.05282326 -0.098005064
0.039344758 0.17587562 0.026675493 -0.05330375 -0.048465908 -0.06042345 -0.17885612 -0.051900923
-0.06853101 0.14991714 -0.036910877 0.14253645 -0.012031987 0.1272481 0.061489716 -0.17073548
0.052947536 -0.026735887 -0.03159845 0.15587856 -0.16962793 0.0859908 -0.07401316 0.12490074
0.17685933 0.11299305 0.1038505 0.1486697 -0.17769355 0.18244405 0.07288842 -0.16912952
0.18739824 0.0048781186 0.028917328 0.07039957 0.021987006 0.17424999 -0.10968695 0.11225714
-0.11151022 0.06922577 0.111836806 -0.047810107 -0.1307006 -0.007721886 -0.13110173 0.066873446
0.20527636 0.11231466 -0.19980924 0.08408044 0.2072696 -0.09832199 0.08929218 -0.07333656
0.11646877 0.14915861 -0.10721171 0.16595598 -0.16372415 -0.025402412 0.06652467 0.1630166
0.12454207 0.026036114 0.03063564 -0.117040455 -0.11374244 0.13162462 -0.12376373 0.029810846
0.15434875 0.024738505 0.038458332 0.18338422 -0.08373649 0.048878774 0.099881634 0.008204207
-0.15993862 0.027150735 0.07383816 -0.09979693 0.12239961 -0.059122518 -0.012932032 -0.17191707
-0.054989398 0.17442279 -0.034300208 0.13125484 -0.10080426 0.20762585 0.10257919 0.08653419
0.030656636 0.033719763 0.12524094 -0.1497297 0.08103655 0.14331694 0.12751128 0.14305972
0.13924097 0.019888625 0.10996018 -0.16139232 0.19605644 0.1475469 0.045946226 0.09121467
0.037892655 0.10079683 -0.07355946 -0.173542 -0.030702755 0.11658077 0.16808908 0.119745
-0.15718113 -0.02312997 -0.12146137 0.0081670135 -0.07169607 0.07519783 -0.0994862 -0.031580508
-0.04420176 0.14842685 -0.16695683 -0.12643662 0.16510294 0.1728933 -0.13210115 -0.1309734
-0.1739037 0.025938421 0.070142135 -0.08670177 -0.17137739 0.13697575 -0.10236297 -0.09910092
-0.20681149 -0.00010332465 -0.1414532 0.06160067 0.076128766 -0.08867662 0.08016865 -0.111437604
0.06059356 -0.08029379 0.17683674 0.17751087 -0.115598656 -0.119317755 0.058904454 0.03694792
0.09617843 -0.069078326 0.07854538 0.05357288 -0.055501044 0.19449268 0.14833851 0.11816163
0.16597293 -0.06471656 -0.16241743 -0.060861036 0.0977899 -0.011165291 0.07176395 0.19133972
-0.015504807 0.061655626 -0.04990205 0.047679976 -0.08943311 0.12208749 -0.018013686 0.09559877
-0.20647392 -0.18824515 -0.14756954 0.065364555 -0.16774511 0.11461486 -0.13463409 0.007843643
-0.034950092 0.10808356 0.009348169 0.04760067 0.06712784 0.16085388 0.056596264 0.18896405
-0.16035867 0.04296206 -0.13565153 0.08376147 0.05279319 -0.008681521 0.17819245 -0.09885459
