mediapipe2/models/knift_float_1k.tflite (tflite, 233420 bytes, 30 tensors)

siamese_neural_congas_1/Mixed7a/Branch_0/Conv2d_0a_1x1/Conv2D_bias f4 [32]
0	0x3e69b46f	0.22822736
1	0x3e17fd9f	0.14842843
2	0x3e15d052	0.14630249
3	0x3ee9b31e	0.45644468
4	0xbc8b70ab	-0.017021498
5	0xbeb3941b	-0.35073933
6	0xbe666411	-0.2249911
7	0xbe1c79f4	-0.15280896
8	0xbedb7f85	-0.42870727
9	0x3dec5b42	0.115408435
10	0x3e3a4769	0.18191303
11	0x3f1f4388	0.6221242
12	0xbe0184ff	-0.1264839
13	0x3e6bcf83	0.23028378
14	0x3f5703b7	0.83990043
15	0x3e53c62f	0.2068107
16	0x3e9cae50	0.3060174
17	0x3e9a3147	0.3011572
18	0x3f2cd265	0.67508537
19	0x3e0d8b7f	0.13822745
20	0xbded3716	-0.115827724
21	0xbf2c7850	-0.6737108
22	0xbd8bc0ed	-0.06823907
23	0x3ed3cddd	0.41368
24	0xbe5bba3d	-0.21457763
25	0x3e3ed0bd	0.18634315
26	0xbe99f002	-0.30065924
27	0x3ef1d7f2	0.47235066
28	0x3e62b0da	0.22137776
29	0xbea28265	-0.31740108
30	0x3db6714a	0.08908327
31	0xbe583933	-0.2111557

siamese_neural_congas_1/Mixed7a/Branch_0/Conv2d_0a_1x1/Conv2D_weights f4 [32, 1, 1, 64]
0	0xbe74ad82	-0.23894313
1	0x3dc8841b	0.09790822
2	0x3e0f8c9b	0.1401848
3	0xbdd0b4d6	-0.10190742
4	0xbe00de07	-0.12584697
5	0xbd82700f	-0.0636903
6	0xbdccbc12	-0.09996809
7	0xbc5b964f	-0.013402536
8	0x3d9d16b6	0.076703474
9	0x3e72d59d	0.237143
10	0xbdb6d6ae	-0.08927666
11	0x3d79a3d1	0.060947243
12	0x3e68e5d3	0.22743921
13	0xbdebc18d	-0.11511526
14	0xbe0f769f	-0.14010094
15	0xbd2bd1f2	-0.041948266
16	0x3d6f2f05	0.05839445
17	0x3ce96723	0.028491562
18	0x3d825ae4	0.06364992
19	0x3cdcab95	0.026937285
20	0x3e56c32f	0.20972894
21	0x3ef8ab1f	0.48568055
22	0x3e4c3ae2	0.19944337
23	0xbdcd6352	-0.100287095
24	0x3c81eca6	0.015859913
25	0xbd00ae99	-0.03141651
26	0xbdc53e02	-0.09630968
27	0xbd00785c	-0.031364784
28	0xbe0a93bb	-0.13532917
29	0x3dc5b829	0.096542664
30	0xbdad837e	-0.08472346
31	0xbe8e653f	-0.2781162
32	0xbd8a0369	-0.06738932
33	0xbda51f5a	-0.080626205
34	0x3d0c45f0	0.034246385
35	0xbd28e076	-0.041229688
36	0xbd6e2082	-0.05813647
37	0xbe2f8995	-0.17142327
38	0x3ca86a34	0.020558454
39	0xbe757c21	-0.23973133
40	0xbcf48123	-0.029846733
41	0xbe23e4f2	-0.16005304
42	0x3db1993c	0.08671805
43	0xbdbd6e63	-0.0924957
44	0x3cbc7c1e	0.023008402
45	0x3d326de4	0.04356183
46	0x3da84a97	0.08217352
47	0xbcf2f74f	-0.029658942
48	0xbda01753	-0.07816949
49	0xbe371a69	-0.17881168
50	0x3dcacb12	0.09902014
51	0xbd865d70	-0.065607905
52	0xbe5d29bd	-0.21597953
53	0xbcfdac1a	-0.030965853
54	0xbe82c853	-0.2554346
55	0x3d28b059	0.041183803
56	0x3da866fd	0.082227685
57	0x3b9b16b1	0.0047329296
58	0x3e88964f	0.26677176
59	0xbdd8e254	-0.10590044
60	0xbe3e38c6	-0.18576345
61	0xbe1eb508	-0.15498745
62	0xbd1a7382	-0.037707813
63	0x3dc61887	0.09672647
64	0xbe9da85b	-0.30792508
65	0xbde3be2c	-0.11120257
66	0xba31ee94	-0.0006787565
67	0xbec3d1e3	-0.38246068
68	0xbe842686	-0.2581064
69	0x3db32d3b	0.087488614
70	0xbe70439b	-0.2346329
71	0xbc162e69	-0.0091663385
72	0xbd8654b8	-0.065591276
73	0x3d9841e5	0.074344434
74	0xbdff4507	-0.12464338
75	0xbd31a81c	-0.043373212
76	0xbd364db7	-0.04450771
77	0xbe9982fd	-0.2998275
78	0x3e45c495	0.19313271
79	0x3e1c45da	0.15261021
80	0xbed13a9c	-0.40865028
81	0x3da7375b	0.08164855
82	0x3ca9813d	0.020691508
83	0x3a722db4	0.00092383777
84	0x3f045910	0.516984
85	0x3d700b06	0.058604263
86	0x3df9aab5	0.12190763
87	0x3e9b00ec	0.3027414
88	0xbf00714b	-0.5017287
89	0xbd950cd0	-0.072778344
90	0x3e62ed27	0.22160779
91	0x3cecb18b	0.028893253
92	0xbdd89f10	-0.10577214
93	0xbee012c7	-0.43764326
94	0x3f2899f8	0.6585994
95	0xbf2735f2	-0.6531669
96	0xbd8c1a2d	-0.0684093
97	0xbd34abbc	-0.04410909
98	0x3e8b7bbf	0.27242848
99	0x3e382650	0.17983365
100	0x3e501cf4	0.20323545
101	0x3cdd2fb0	0.027000278
102	0x3e6d5dfb	0.23180382
103	0xbdd96b46	-0.10616164
104	0x3e598b51	0.21244551
105	0x3e933077	0.28747913
106	0xbea76d80	-0.3270073
107	0x3e5320cf	0.20617984
108	0x3d17cc47	0.03706005
109	0xbe673c59	-0.22581615
110	0x3e2cf53d	0.16890426
111	0x3e1b580c	0.15170306
112	0xbd7e1924	-0.062035695
113	0x3c2e0454	0.010621149
114	0x3d8e9e9a	0.069638446
115	0xbcf61dd2	-0.030043516
116	0x3c616292	0.013756411
117	0xbb95cc37	-0.0045714634
118	0x3d534bd5	0.05158599
119	0xbe38e1b4	-0.18054849
120	0x3ecbcf3e	0.3980655
121	0x3ed6b1aa	0.41932422
122	0x3c36c9ce	0.011156512
123	0xbe4ec9b0	-0.20194125
124	0x3df7cde8	0.120998204
125	0x3d9ae1de	0.07562612
126	0xbde2223d	-0.11041687
127	0x3e2f95f9	0.17147054
128	0xbdca0b9b	-0.09865495
129	0x3dc18d5b	0.094507895
130	0x3de34f90	0.1109916
131	0xbdf566e8	-0.119825184
132	0x3d9afdf0	0.07567966
133	0xbe4d82e7	-0.20069467
134	0xbe0ffa92	-0.14060429
135	0x3db80794	0.089858204
136	0xbe05f7dc	-0.13082832
137	0xbe19202a	-0.14953676
138	0x3d3583c4	0.044315115
139	0x3d29245c	0.04129444
140	0xbdbec20d	-0.09314356
141	0x3d6473d9	0.055774543
142	0x3dbf904e	0.09353696
143	0x3e909f14	0.28246367
144	0x3f0503c2	0.5195886
145	0x3dfcfda1	0.123530634
146	0x3e0becf7	0.13664614
147	0x3e8ac572	0.27103764
148	0x3e8bd578	0.273113
149	0xbe5d1168	-0.21588671
150	0xbdc9d072	-0.09854211
151	0xbe961818	-0.29315257
152	0x3ec7a7c7	0.3899519
153	0xbd861154	-0.06546274
154	0xbe0685f9	-0.13137044
155	0x3cd62040	0.026138425
156	0xbdc16f0b	-0.09445008
157	0xbed849c9	-0.42243794
158	0x3e474695	0.19460519
159	0xbe4c4401	-0.19947816
160	0x3d1775ff	0.036977764
161	0x3ce2e45d	0.027696783
162	0xbd51e1fc	-0.051240906
163	0x3b0bd0b9	0.0021334125
164	0xbd218e34	-0.039442256
165	0x3c856beb	0.01628681
166	0x3de3bcab	0.1111997
167	0xbd8cd3cd	-0.06876335
168	0xbd36a700	-0.044592857
169	0x3ca6c5be	0.020357963
170	0x3def8edb	0.116971694
171	0x3c8387bc	0.016055934
172	0x3c90f8a4	0.017696686
173	0xbdf04293	-0.11731448
174	0x3e96c47e	0.29446787
175	0xbd79146c	-0.06081049
176	0xbd139d33	-0.03603859
177	0x3ae2b061	0.0017294997
178	0xbd12a556	-0.035802208
179	0xbba18845	-0.0049295747
180	0xbcae1b4a	-0.021253247
181	0x3daacd00	0.08339882
182	0xbe20a39f	-0.15687416
183	0x3ddf66b7	0.10908263
184	0x3e214140	0.15747547
185	0x3e262827	0.16226254
186	0x3e0e7afa	0.139141
187	0x3d45671e	0.048194043
188	0xbdd2b7b5	-0.102889456
189	0xbd85a45d	-0.065254904
190	0xbd8cc528	-0.06873542
191	0x3e0536f6	0.13009247
192	0xbebff5ef	-0.3749232
193	0x3e499242	0.19684699
194	0xbe6db127	-0.2321211
195	0xbe0d5eb4	-0.13805658
196	0xbed0a9fd	-0.4075469
197	0xbeadf0c6	-0.33972758
198	0xbf004226	-0.50100935
199	0x3e3904b5	0.18068202
200	0xbc379c3e	-0.011206685
201	0x3d9136ed	0.070905544
202	0xbdc3d2b3	-0.09561672
203	0x3e9d181c	0.30682456
204	0xbddfa35a	-0.10919829
205	0xbe1fb5d4	-0.15596706
206	0xbd525474	-0.051350072
207	0xbe9be8f7	-0.30451176
208	0xbd94b6b7	-0.072614126
209	0xbe31d49c	-0.1736626
210	0x3d88e356	0.06683986
211	0xbe9ee02a	-0.310304
212	0x3eaed46a	0.34146434
213	0xbe6f67e5	-0.23379476
214	0x3d5d89dc	0.05408655
215	0x3d9445c3	0.072398685
216	0x3ea322f6	0.3186261
217	0x3ef0d41f	0.47036836
218	0xbbd07c02	-0.006362439
219	0xbe51a829	-0.20474304
220	0x3f1bbb15	0.6083234
221	0xbeda9759	-0.42693594
222	0x3db1c35b	0.08679839
223	0x3e07ad06	0.13249597
224	0x3d167c3e	0.03673958
225	0xbd440881	-0.047859672
226	0xbe2ff398	-0.17182767
227	0x3e86fd0e	0.2636494
228	0x3d8f59bb	0.069995366
229	0x3d3b1737	0.045676436
230	0xbdec82f5	-0.115484156
231	0xbd9467b6	-0.07246344
232	0xbd393aaa	-0.045221962
233	0x3d16af89	0.036788497
234	0x3e929f6b	0.2863725
235	0x3d0d7968	0.03453961
236	0xbe891c97	-0.26779625
237	0x3d68662b	0.05673806
238	0x3e129f64	0.14318615
239	0xbe932298	-0.2873733
240	0x3eb68470	0.35647917
241	0xbe8ef8d6	-0.27924222
242	0x3dfdb04a	0.1238714
243	0xbe2c3fb4	-0.16821176
244	0x3d1f79cb	0.03893451
245	0xbc86e535	-0.016466716
246	0x3db79719	0.089643665
247	0xbdc27ede	-0.09496854
248	0x3ba53001	0.005041123
249	0x3d30c925	0.043160576
250	0xbc0e374d	-0.008680177
251	0xbe901422	-0.2814036
252	0xbeb93ea5	-0.36180606
253	0x3d4b7c62	0.049679168
254	0xbe0db6a8	-0.13839209
255	0x3daa7fd9	0.08325166

siamese_neural_congas_1/Mixed7a/Branch_0/Conv2d_0b_3x3/Conv2D_bias f4 [32]
0	0x3ec2018f	0.37891814
1	0xbda69504	-0.08133891
2	0xbe563163	-0.20917277
3	0xbe408890	-0.18802094
4	0x3ef45ffc	0.4772948
5	0xbedcb4eb	-0.4310678
6	0xbd272ef4	-0.040816262
7	0xbf242721	-0.64122206
8	0x3f00fa28	0.5038171
9	0x3e59fa04	0.2128678
10	0x3e0a0f34	0.13482362
11	0xbf482a5b	-0.7818963
12	0x3f3aee19	0.7301956
13	0xbdcb117f	-0.099154465
14	0x3e10f53f	0.14156054
15	0xbef0837f	-0.46975324
16	0xbe8d727f	-0.27626416
17	0x3e83aded	0.25718632
18	0xbd6c14c3	-0.057636987
19	0xbedfb0fd	-0.4368972
20	0x3eacc78e	0.33745998
21	0xbd3de02d	-0.04635637
22	0xbf70ae7f	-0.9401626
23	0xbb252025	-0.0025196162
24	0xbf0db2b3	-0.553508
25	0x3d7d6407	0.06186297
26	0xbd87f90b	-0.06639298
27	0x3ecde6e3	0.40215215
28	0xbe71a21e	-0.23596999
29	0x3e88a600	0.26689148
30	0xbe60dbe8	-0.21958888
31	0xbe754bcf	-0.239547

siamese_neural_congas_1/Mixed7a/Branch_0/Conv2d_0b_3x3/Conv2D_weights f4 [32, 3, 3, 32]
0	0x3d3b6ad8	0.04575619
1	0xbda74bae	-0.08168732
2	0x3d30d43b	0.04317115
3	0xbde03435	-0.10947458
4	0x3d140ef8	0.036147088
5	0xbdf1a585	-0.117991485
6	0xbd8e9c34	-0.06963387
7	0xbd63db6a	-0.05562917
8	0x3cf84bf2	0.030309651
9	0x3ad75e67	0.0016431332
10	0xbca55488	-0.02018191
11	0x3d567e1d	0.052366365
12	0xbd379453	-0.044819187
13	0x3cf36ad9	0.029714035
14	0x3d5bd68d	0.05367141
15	0xbd5d0e23	-0.05396856
16	0x3d56e424	0.052463666
17	0x3c8e27b5	0.017352918
18	0x3c9d0273	0.019166207
19	0x3d734510	0.059392035
20	0xbd1cda1e	-0.03829395
21	0xbd03538e	-0.032062106
22	0xbd7dbc2d	-0.061947037
23	0x3c6f1ed1	0.01459475
24	0xbc0fc34a	-0.008774588
25	0x3d30bb0c	0.04314713
26	0x3d8d05b7	0.06885856
27	0xbcc2e63c	-0.023791425
28	0xbd90e4f4	-0.07074919
29	0xbdaf6fa0	-0.08566213
30	0x3ca83e8f	0.020537643
31	0xbd72c0e7	-0.059265997
32	0xbd3b4f77	-0.04573008
33	0xbd94f5c2	-0.07273437
34	0x3dc6e935	0.097124495
35	0xbde7241f	-0.112861864
36	0x3d7f67e7	0.06235495
37	0xbded6f86	-0.11593537
38	0xbd916c67	-0.07100754
39	0xbd7ac6aa	-0.061224617
40	0xbd68cd42	-0.056836374
41	0xbca1a851	-0.01973358
42	0x3cd57dfc	0.02606105
43	0x3a75b155	0.0009372433
44	0xbd9975bf	-0.074931614
45	0xbc978c19	-0.018499421
46	0x3d00dd2e	0.031460933
47	0xbd150d72	-0.036389776
48	0xbc4332d1	-0.011913971
49	0xbd28818d	-0.041139174
50	0x3dc7299e	0.09724735
51	0xba1db78c	-0.00060164253
52	0xbd6dd82f	-0.058067497
53	0xbdf34494	-0.118783146
54	0xbd52212d	-0.05130117
55	0x3c89abf0	0.016805619
56	0x3d27581d	0.040855516
57	0x3d3e9b9b	0.046535116
58	0x3cd271b5	0.025688985
59	0xbd9816c2	-0.07426216
60	0xbc45aefa	-0.012065643
61	0xbdb97ae0	-0.0905664
62	0x3d37779c	0.044791803
63	0xbdbcab04	-0.09212306
64	0xbcd32531	-0.02577457
65	0x3ccfb8ab	0.025356611
66	0x3d571c0c	0.052516982
67	0xbdad06ec	-0.08448586
68	0x3bdada67	0.0066788676
69	0xbce9816f	-0.028504102
70	0xbc851201	-0.016243936
71	0x3c1408c2	0.009035291
72	0xbd6e25c4	-0.058141485
73	0xbda1ef25	-0.07906941
74	0xba522dd5	-0.0008017694
75	0xbb311284	-0.0027019093
76	0xbc834355	-0.016023317
77	0x3cb1183d	0.021618003
78	0xbd4473a3	-0.047961842
79	0x3ba710ff	0.0050984616
80	0x3dbb166c	0.09135136
81	0xbd94d309	-0.07266814
82	0xbcb1cad7	-0.021703167
83	0x3d7ce3e2	0.061740763
84	0x3c891cfd	0.016737456
85	0xbd978af7	-0.07399552
86	0xbd98b998	-0.07457274
87	0x3cee9297	0.029122634
88	0x3da17bff	0.078849785
89	0x3b986bec	0.004651537
90	0x3cd89b78	0.02644132
91	0xbd2ad8d7	-0.0417107
92	0x3cc20835	0.023685554
93	0xbd4faf57	-0.050704326
94	0x3d7bd67b	0.06148384
95	0xbd15a774	-0.03653665
96	0xbd4f7e55	-0.05065759
97	0xbaec9949	-0.0018051054
98	0x3d2a46d9	0.04157147
99	0xbe01b7bc	-0.12667745
100	0x3c91fc2b	0.017820438
101	0xbe18ecd1	-0.14934088
102	0x3baf2220	0.005344644
103	0xbd3943d4	-0.0452307
104	0xbabd66fc	-0.0014450247
105	0xbc63c7a4	-0.0139025785
106	0x3d1c1395	0.038104612
107	0x3c4bf935	0.012449552
108	0xbdab26a8	-0.083569825
109	0x3c3e3ec5	0.011611645
110	0x3c919954	0.017773308
111	0xbd21b863	-0.039482486
112	0x3da837bb	0.08213755
113	0xbd80ecf2	-0.06295194
114	0x3db3f05d	0.0878608
115	0x3dcc42e4	0.09973696
116	0x3d1bb885	0.03801777
117	0xbd53887d	-0.051643837
118	0xbdac2316	-0.084051296
119	0xbd5baa91	-0.05362946
120	0x3d6683f1	0.056278173
121	0x3d9ebf02	0.077512756
122	0x3d8b1876	0.06791775
123	0xbcb35a79	-0.021893727
124	0xbc1c66a7	-0.009545959
125	0xbdc0c5fa	-0.09412761
126	0x3d1e0845	0.038582105
127	0xbc7af9cd	-0.015318346
128	0xbdce4f95	-0.10073773
129	0xbd193e8b	-0.03741316
130	0x3de2aab1	0.11067713
131	0xbe236ea0	-0.15960169
132	0x3a97d6a4	0.0011584354
133	0xbdb3b47c	-0.08774659
134	0xbdd2ef18	-0.1029951
135	0xbdd2d503	-0.10294535
136	0xbd31afd9	-0.043380592
137	0xbd22c641	-0.03973985
138	0x3d901bda	0.07036562
139	0x3d08f479	0.033436272
140	0xbd8222df	-0.063543074
141	0x3d409afd	0.04702281
142	0x3cf08cea	0.029364068
143	0xbd805c90	-0.06267655
144	0xbbf08ea8	-0.0073412247
145	0xbdf91b6b	-0.12163433
146	0x3e11bca0	0.14232111
147	0x3dcdb088	0.10043436
148	0xbd086368	-0.033297926
149	0xbe25b33b	-0.16181652
150	0xbdf977b4	-0.12181035
151	0x3c7250f1	0.014789806
152	0x3da3f34c	0.080053896
153	0x3da075fa	0.07835002
154	0x3da928b5	0.082597174
155	0xbd926aac	-0.07149252
156	0x3db6b7eb	0.08921798
157	0xbd225f41	-0.039641622
158	0x3d82d39e	0.06388019
159	0xbd246536	-0.040135585
160	0x3d6bb8d7	0.057549324
161	0xbd1c8c61	-0.038219813
162	0x3db3beef	0.08776652
163	0xbd94fe3c	-0.07275054
164	0xbd685f8c	-0.056731746
165	0xbd93f5c5	-0.07224611
166	0xbc96dfaa	-0.018417198
167	0xbd021a5b	-0.031763416
168	0x3d5849ac	0.052804634
169	0xbcc00089	-0.023437755
170	0x3d0cb8a5	0.03435578
171	0x3d2f6d15	0.042828638
172	0x3c8aa59e	0.016924676
173	0xbbc826dc	-0.006108148
174	0xbc8b011f	-0.016968308
175	0xbc8d6ef5	-0.017264822
176	0xbb10af8d	-0.0022077293
177	0xbd1ad0c8	-0.037796766
178	0x3c3b339b	0.011425878
179	0x3d080188	0.033204585
180	0xbd347246	-0.044054292
181	0xbdb6ac78	-0.089196146
182	0xbd00558a	-0.031331576
183	0x3d734f52	0.059401818
184	0x3d7ce372	0.061740346
185	0x3c21f5c6	0.009885257
186	0x3da9adab	0.08285078
187	0xbd0029f4	-0.03129001
188	0x3bb6ae07	0.005574945
189	0xbd60628f	-0.054781493
190	0x3d899c22	0.06719233
191	0xbd6e6afc	-0.058207497
192	0x3b34f026	0.002760896
193	0xb9532d97	-0.00020139512
194	0x3d097e46	0.03356769
195	0xbcdf2b5d	-0.027242357
196	0x3afa17ed	0.0019080617
197	0xbdf189cb	-0.1179386
198	0xbcdbedc7	-0.02684678
199	0xbca77d38	-0.020445451
200	0x3d25de7c	0.04049538
201	0xbc79ca3c	-0.01524597
202	0x3d5178cf	0.051140603
203	0xbc06c346	-0.008225268
204	0x3c9c8e71	0.01911089
205	0xbd4cb79c	-0.04997979
206	0x3c66500a	0.014057169
207	0xbcb6c08e	-0.022308614
208	0x3c3ccec0	0.011523902
209	0xbdb70053	-0.08935609
210	0x3d37234b	0.044711392
211	0x3d5c712f	0.053818878
212	0x3d84d201	0.064853676
213	0xbd8f4518	-0.069956005
214	0xbb02c882	-0.0019955938
215	0xbc595009	-0.013263711
216	0x3bf70c2a	0.007539292
217	0x3d44e1da	0.04806695
218	0x3d16ffad	0.036864925
219	0xbc394e64	-0.011310194
220	0x3d8d1b73	0.06890001
221	0xbce1b139	-0.027550327
222	0x3b29168d	0.0025800795
223	0xbd3acbd1	-0.04560453
224	0xbd3fcdc2	-0.046827085
225	0xbc8c60ac	-0.01713594
226	0x3dc52cca	0.096276835
227	0xbdb2e161	-0.08734394
228	0xbd05a5f9	-0.032628987
229	0xbdae48a8	-0.08509952
230	0xbc6b003d	-0.0143433185
231	0xbc85d6f7	-0.016337855
232	0x3c546879	0.012964361
233	0xbb06ab4c	-0.0020548878
234	0x3d1c9cab	0.038235348
235	0x3db01fb2	0.085997954
236	0x3c2713ae	0.010197563
237	0xbd10a930	-0.0353176
238	0xbc1fc1c5	-0.009750788
239	0xbd9b077c	-0.07569787
240	0x3da1740e	0.07883464
241	0xbd96a83a	-0.073563054
242	0x3d37f76a	0.044913687
243	0x3d879d7e	0.06621836
244	0x3c0f1ffb	0.008735652
245	0xbdc04a95	-0.093892254
246	0xbd7969b1	-0.06089181
247	0xbd2c2276	-0.042025052
248	0x3b5e8b34	0.0033957483
249	0x3d070bb1	0.032970134
250	0x3dbaa214	0.09112945
251	0x3c90339d	0.017602736
252	0x3d464e7a	0.048414685
253	0xbd43ec1a	-0.047832586
254	0x3d4529a9	0.048135433
255	0xbccc4d28	-0.024939135

siamese_neural_congas_1/Mixed7a/Branch_1/Conv2d_1a_1x1/Conv2D_bias f4 [32]
0	0xbd568fb6	-0.052383147
1	0x3b6b8d6d	0.003594245
2	0xbd63b380	-0.055591106
3	0xbf48ffcc	-0.78515315
4	0x3f574d01	0.84101874
5	0xbe4807c4	-0.19534212
6	0x3f0b6e44	0.54465127
7	0xbe6804d9	-0.22658099
8	0x3f373813	0.7156994
9	0x3f905da6	1.1278579
10	0xbe2799f0	-0.16367316
11	0x3f59b443	0.8504068
12	0x3e240eda	0.1602129
13	0xbe58f283	-0.21186261
14	0x3ee430fb	0.4456862
15	0xbe6cc971	-0.23123719
16	0x3e2044d9	0.15651263
17	0x3f854414	1.0411401
18	0x3cfc4e21	0.030798974
19	0xbe883f81	-0.2661095
20	0x3e616a67	0.22013246
21	0xbe1502bc	-0.14551824
22	0x3e9f8064	0.31152642
23	0x3eee2568	0.46512914
24	0x3e031585	0.12801178
25	0xbf73ec31	-0.95282274
26	0x3f4a9d7d	0.7914656
27	0x3ec70cea	0.3887704
28	0x3e67b1d7	0.22626434
29	0x3f685b34	0.90764165
30	0xbe5b8664	-0.21437985
31	0xbd3391e9	-0.043840323

siamese_neural_congas_1/Mixed7a/Branch_1/Conv2d_1a_1x1/Conv2D_weights f4 [32, 1, 1, 64]
0	0x3d8e596b	0.06950649
1	0x3db538fb	0.08848759
2	0xbcd69bc2	-0.026197318
3	0xbdece58b	-0.11567219
4	0xbd02de8a	-0.03195051
5	0x3c9a956b	0.018870076
6	0xbe0f43e9	-0.1399075
7	0xbd081ccd	-0.03323059
8	0xbda90855	-0.08253542
9	0x3d3231ee	0.043504648
10	0x3e040a86	0.1289464
11	0xbba3f04d	-0.0050030113
12	0x3bb7f2bf	0.0056136544
13	0xbd8aab4d	-0.06770954
14	0xbcad02ea	-0.021119554
15	0x3cf61fb8	0.030044422
16	0xbdcc168d	-0.09965239
17	0x3eb71376	0.35757035
18	0xbd91363d	-0.07090423
19	0xbdd0975b	-0.10185119
20	0xbc440f4a	-0.011966536
21	0x3dc3266e	0.09528814
22	0xbe353624	-0.17696434
23	0x3ea7d2f8	0.32778144
24	0xbe0ca24d	-0.13733788
25	0x3e37301c	0.17889446
26	0x3e32721f	0.17426346
27	0x3cdaf891	0.026729854
28	0xbe2faf9b	-0.17156832
29	0xbee1943e	-0.44058412
30	0xbdc129c6	-0.09431796
31	0x3f05e5b6	0.52303636
32	0x3cb257d7	0.0217704
33	0xbddb3e86	-0.10705285
34	0xbdd851c8	-0.105624735
35	0xbd123aa2	-0.035700448
36	0xbe056a9b	-0.13028948
37	0x3e591226	0.2119833
38	0x3e2c464b	0.1682369
39	0x3e722eef	0.23650716
40	0xbe05114d	-0.12994881
41	0x3d29998f	0.04140621
42	0x3ec31e47	0.38109037
43	0x3d27b359	0.040942524
44	0xbd4b6a01	-0.04966164
45	0xbc8562d5	-0.016282478
46	0x3e38acde	0.18034694
47	0x3df2d163	0.118563436
48	0xbd3e77c3	-0.046500932
49	0xbe0bbd1d	-0.1364636
50	0xbe19f512	-0.15034893
51	0x3d6661ea	0.056245722
52	0x3dea0ee8	0.114286244
53	0xbcf2861a	-0.02960496
54	0xbe4fc4c4	-0.20289904
55	0x3e59261b	0.21205942
56	0x3cfa611f	0.03056389
57	0xbd9229fa	-0.07136913
58	0x3e6c9e6a	0.23107305
59	0xbc5ccf1b	-0.013477112
60	0xbe1ccc6d	-0.15312357
61	0xbe70bcf2	-0.23509577
62	0xbdca123b	-0.098667584
63	0x3e0fb541	0.14033987
64	0x3e41fdbc	0.18944448
65	0xbdc494c8	-0.0959869
66	0x3d03b880	0.032158375
67	0x3da34c16	0.079734966
68	0xbd92ce5e	-0.07168268
69	0x3d0974ff	0.03355884
70	0x3dd52811	0.10408033
71	0xbd8ca7dc	-0.06867954
72	0xbde3c67d	-0.11121843
73	0x3ccb7494	0.024835862
74	0x3b671266	0.003525877
75	0x3dd69634	0.10477868
76	0xbd0a0d0a	-0.03370384
77	0x3ddd121b	0.10794469
78	0xbc285cab	-0.010276
79	0x3d69b88d	0.057060767
80	0x3e5497ef	0.20761083
81	0xbe17ab28	-0.14811385
82	0x3e917243	0.28407487
83	0x3eaf5d9e	0.34251112
84	0x3d790eb1	0.060805026
85	0x3cf87d55	0.0303332
86	0x3e527d7b	0.2055568
87	0x3d699577	0.057027306
88	0x3e76c50e	0.24098608
89	0xbe2758e4	-0.16342503
90	0x3d3e6f25	0.046492714
91	0xbd6fae06	-0.05851557
92	0xbd98a68b	-0.074536406
93	0xbe1ea233	-0.15491562
94	0xbe590995	-0.21195062
95	0xbec43a9d	-0.38325968
96	0xbda43538	-0.08017963
97	0xbdbc66a4	-0.09199265
98	0xbcb2fc4b	-0.021848818
99	0xbc7095cd	-0.014684153
100	0x3d6ab665	0.05730285
101	0x3c89ff9a	0.016845513
102	0x3de714cf	0.11283266
103	0xbdaddcaa	-0.08489354
104	0x3e3eac9d	0.18620534
105	0x3d8cdc76	0.06877987
106	0xbe817db9	-0.2529123
107	0xbdd56921	-0.104204424
108	0x3cb84846	0.0224954
109	0xbe03aadc	-0.12858146
110	0xbc19a3f1	-0.009377466
111	0x3c871ea0	0.016494095
112	0x3d0b3aad	0.033991504
113	0x3d7c2932	0.061562724
114	0xbb239a51	-0.0024963806
115	0x3d52a3b6	0.05142566
116	0x3e19d3a6	0.15022144
117	0xbd14fe1e	-0.036375158
118	0xbced354f	-0.028956084
119	0x3d11b8a2	0.03557647
120	0x3c1a69dd	0.009424654
121	0x3dc98bb5	0.098411
122	0xbdb6af02	-0.08920099
123	0x3cb27626	0.021784853
124	0xbb942578	-0.004521068
125	0x3df6c107	0.12048536
126	0xbcf07e6f	-0.029357163
127	0x3db6d992	0.08928217
128	0xbdfa4365	-0.12219886
129	0x3d96ec3b	0.07369276
130	0xbdca77eb	-0.09886154
131	0x3e5ca93d	0.21548934
132	0xbcafe8e5	-0.021473357
133	0x3ea13041	0.31482127
134	0x3d4d72f2	0.05015845
135	0xbd80803c	-0.06274459
136	0x3db67ab1	0.0891012
137	0xbe0de7b0	-0.13857913
138	0x3e1ccda7	0.15312825
139	0x3e6e0eec	0.2324788
140	0xbd8f9e75	-0.07012645
141	0xbd08f3a6	-0.033435486
142	0x3cdcbd74	0.026945807
143	0x3d5d248f	0.053989943
144	0x3d02e1a4	0.03195347
145	0xbd9113f0	-0.07083881
146	0x3d40285f	0.0469135
147	0xbd907713	-0.070539616
148	0x3e36f263	0.178659
149	0x3ca54927	0.020176483
150	0xbe5c2381	-0.21497919
151	0xbdb22342	-0.08698131
152	0x3d02dea0	0.031950593
153	0x3d2a6394	0.04159887
154	0xbda42cfc	-0.080163926
155	0xbbe780c5	-0.007064911
156	0x3d2892c2	0.041155584
157	0xbec22c76	-0.37924546
158	0xbd9b1bc3	-0.075736545
159	0x3db64b07	0.08901029
160	0xbda833ee	-0.0821303
161	0x3d032d13	0.032025408
162	0x3dd57bb5	0.10423986
163	0xbd2ec1d9	-0.042665336
164	0x3caa55b1	0.020792814
165	0xbd3865a8	-0.045018822
166	0x3e2d1f43	0.16906457
167	0x3e063609	0.1310655
168	0x3da6ac78	0.081383646
169	0xbd488ecc	-0.048964307
170	0x3e0102ad	0.12598677
171	0x3d1639d6	0.03667625
172	0x3dc1b447	0.09458213
173	0x3d8bf319	0.068334766
174	0x3cb9af98	0.022666737
175	0xbe25179f	-0.16122292
176	0xbcd6f163	-0.026238149
177	0x3e0e758e	0.13912031
178	0xbca28e6e	-0.019843306
179	0xbd1f0353	-0.03882153
180	0xbc9300ec	-0.017944776
181	0xbcfd93d3	-0.030954277
182	0x3db7aa86	0.08968072
183	0xbe3dfab2	-0.18552664
184	0x3e9ed2b7	0.31020138
185	0x3c365917	0.011129639
186	0xbbefdaa3	-0.0073197647
187	0x3de22bfa	0.11043544
188	0x3e1c7cb7	0.1528195
189	0x3d9c3f06	0.07629208
190	0x3b7c0466	0.003845477
191	0x3aafbda5	0.0013407959
192	0x3dd1e6b5	0.10249082
193	0x3dececcb	0.11568602
194	0x3e443c9e	0.19163749
195	0xbdcda8d3	-0.10041966
196	0xbb7a7134	-0.0038214447
197	0xbe8c77d8	-0.27435184
198	0x3d1d3961	0.0383848
199	0xbe0e264c	-0.13881797
200	0x3f08f013	0.53491324
201	0x3e1ad595	0.15120538
202	0xbe8ef354	-0.2792002
203	0x3dba9621	0.09110666
204	0x3e855aaa	0.26045734
205	0xbd819b25	-0.063284196
206	0x3e8915db	0.26774487
207	0xbba43f5a	-0.005012435
208	0xbbc7095b	-0.0060741133
209	0x3d884118	0.06653041
210	0x3e6c994f	0.23105358
211	0xbe1b8d51	-0.15190627
212	0x3e5d6978	0.21622264
213	0x3eb79443	0.35855302
214	0x3b5929f3	0.0033136576
215	0x3d3d16c6	0.046164297
216	0x3ea9c6c3	0.33159456
217	0x3ddae439	0.10688061
218	0x3cd2eeeb	0.02574869
219	0xbe880b78	-0.2657125
220	0xbe905cac	-0.28195703
221	0x3e0e916d	0.13922663
222	0x3e41c75a	0.18923703
223	0x3e013223	0.12616782
224	0xbe55cbb1	-0.20878483
225	0xbe07b776	-0.13253579
226	0x3e71b4ae	0.2360408
227	0x3d80d41d	0.062904574
228	0xbcfe469e	-0.031039532
229	0x3e2b4084	0.1672383
230	0xbe9fa808	-0.31182885
231	0xbd005a61	-0.031336192
232	0xbd3fa862	-0.04679144
233	0xbe3b5c65	-0.18296964
234	0x3ded0024	0.115722924
235	0x3e01b7f2	0.12667826
236	0xbe1fe64e	-0.15615198
237	0x3c3bdbce	0.01146598
238	0xbc2ce9c9	-0.010553786
239	0x3e2ad4e0	0.16682768
240	0xbdc7a352	-0.09747948
241	0xbe545091	-0.20733859
242	0xbbfe57bb	-0.007761923
243	0xbe841d1b	-0.25803456
244	0xbd945ef4	-0.07244673
245	0xbe878bec	-0.2647394
246	0xbe54929f	-0.20759057
247	0x3df3a88b	0.118973814
248	0x3ddcd2c3	0.10782387
249	0x3d5df180	0.05418539
250	0x3ddc0e7d	0.10744951
251	0xbe372d3f	-0.17888354
252	0xbde885ee	-0.1135367
253	0xbe0b30b6	-0.135928
254	0xbe1193a9	-0.14216484
255	0x3db68a1e	0.089130625

siamese_neural_congas_1/Mixed7a/Branch_1/Conv2d_1b_1x7/Conv2D_bias f4 [32]
0	0x3f9df2a3	1.2339672
1	0x3d357cc9	0.044308458
2	0xbd05449b	-0.03253613
3	0xbcce9dcb	-0.025221726
4	0x3e94b988	0.290478
5	0x3e642836	0.22280964
6	0x3e3202b3	0.17383842
7	0x3e2fdea0	0.17174768
8	0x3d165b0c	0.036707923
9	0x3f2b8cff	0.6701202
10	0x3d775fb8	0.06039402
11	0x3e76bc4f	0.24095272
12	0xbe78acd1	-0.24284674
13	0x3f30051a	0.68757784
14	0x3ee39f23	0.4445735
15	0x3e682139	0.22668923
16	0x3e92cb79	0.28670862
17	0x3f68983d	0.908573
18	0xbee33c14	-0.44381773
19	0x3e8c9740	0.27459145
20	0x3b56511f	0.003270216
21	0xbec7068e	-0.38872188
22	0x3f73eee5	0.952864
23	0xbe841cdc	-0.25803268
24	0xbe7fb46e	-0.24971172
25	0xbcc7f405	-0.02440835
26	0x3f7a1faf	0.97704595
27	0x3e74fd44	0.23924738
28	0xbe874a8f	-0.2642407
29	0x3ef6ad66	0.48179168
30	0x3e200f5e	0.15630862
31	0xbee3fb50	-0.44527674

siamese_neural_congas_1/Mixed7a/Branch_1/Conv2d_1b_1x7/Conv2D_weights f4 [32, 1, 7, 32]
0	0xbdd1e68d	-0.10249052
1	0xbd3a67f7	-0.045509305
2	0x3d401d18	0.046902746
3	0x3ccc8163	0.02496404
4	0x3d9ee454	0.07758394
5	0x3d485812	0.048912115
6	0x3da2e65b	0.07954093
7	0xbc9bea07	-0.019032491
8	0x3d210829	0.039314423
9	0xbd213035	-0.039352614
10	0xbca944e2	-0.020662729
11	0xbe390d2f	-0.18071435
12	0x3c14d8d4	0.009084899
13	0x3d0d77d8	0.03453812
14	0x3d810682	0.063000694
15	0xbd3111f9	-0.04323003
16	0xbd8a5710	-0.06754887
17	0x3e194b39	0.14970101
18	0xbda41168	-0.080111325
19	0x3c64b998	0.013960265
20	0x3e0e3f74	0.13891393
21	0x3e0476d2	0.12935951
22	0xbdbf5177	-0.0934171
23	0xbcde86ef	-0.02716395
24	0x3d267366	0.040637396
25	0x3d98c357	0.07459133
26	0x3d67108e	0.056412272
27	0x3d3c8d62	0.04603327
28	0xbd99f2ee	-0.07517038
29	0xbd089354	-0.033343628
30	0x3de7834f	0.11304342
31	0x3e16f022	0.14740041
32	0x3c58fbc0	0.013243616
33	0x3a129ea6	0.00055930985
34	0x3d3677e8	0.044547945
35	0x3daf01e8	0.085452855
36	0xbc217566	-0.00985465
37	0x3b49af1a	0.0030774535
38	0xbd0258f0	-0.0318231
39	0x3ce2138f	0.027597217
40	0x3cc4a071	0.024002286
41	0xbdfd1a57	-0.123585396
42	0x3d1eb91a	0.038750745
43	0x3cccebbd	0.025014753
44	0xbdeee6d2	-0.11665119
45	0xbc3854ee	-0.011250718
46	0x3e1b6589	0.15175451
47	0xbcbeba3c	-0.023282163
48	0xbdfb6f35	-0.122770704
49	0x3df228b1	0.118241675
50	0xbe21e1c0	-0.15808773
51	0xbd02faac	-0.03197734
52	0xbcb347d6	-0.02188484
53	0xbd29d123	-0.041459214
54	0x3c930abc	0.017949454
55	0xbcdda482	-0.027055983
56	0xbd1e53f7	-0.038654294
57	0x3daf36cf	0.08555376
58	0xbca9ff34	-0.020751573
59	0xbd1853ca	-0.037189282
60	0xbd292d39	-0.041302893
61	0x3c8ba43d	0.017046088
62	0x3b4dd445	0.003140704
63	0x3e1674f1	0.14693047
64	0xbd90e832	-0.07075538
65	0xbd06fa1c	-0.032953367
66	0xbd258569	-0.040410433
67	0x3dcb4317	0.09924906
68	0x3b4afe47	0.0030974315
69	0x3da806b5	0.08204404
70	0xbd5154c7	-0.05110624
71	0xbd84a309	-0.06476409
72	0x3c4d9764	0.012548301
73	0xbd7bd2e7	-0.06148043
74	0x3c26b890	0.010175839
75	0xbd14c640	-0.03632188
76	0xbcb19678	-0.021678194
77	0x3db75ecf	0.0895363
78	0x3c470567	0.012147284
79	0xbdbbeed1	-0.0917641
80	0x3c08b758	0.008344494
81	0x3c0066d2	0.007837014
82	0xbc1709f9	-0.009218686
83	0xbdbc18df	-0.09184431
84	0xbd0bced7	-0.034132805
85	0x3d769acd	0.060206223
86	0x3dd7dba1	0.10539938
87	0xbd9d79fd	-0.07689283
88	0xbcf37ccf	-0.0297226
89	0x3da1baec	0.07896981
90	0xbd62be37	-0.055357184
91	0xbe0682ad	-0.13135786
92	0xbcd00f38	-0.025397882
93	0xbd05fae3	-0.032709967
94	0xbcc1de72	-0.02366564
95	0x3be8c8fc	0.0071040373
96	0xbd9c8071	-0.07641686
97	0x3d0d73d2	0.034534283
98	0x3dafdd8f	0.08587181
99	0xbd46f746	-0.048575662
100	0x3c38a627	0.011270083
101	0xbc5c4677	-0.0134445345
102	0x3d101482	0.035175808
103	0x3b36848c	0.002785
104	0x3dde4d32	0.108545676
105	0xbd9260a9	-0.07147343
106	0xbb752ed0	-0.0037411936
107	0xbd97c11a	-0.07409878
108	0xbc4fee0f	-0.012691035
109	0x3cf923a1	0.030412497
110	0x3d677463	0.05650748
111	0xbd8a5c6c	-0.06755909
112	0x3da6efab	0.08151182
113	0x3d276809	0.0408707
114	0xbd40fd2a	-0.047116436
115	0x3cb26ca2	0.021780316
116	0x3d371ad9	0.04470334
117	0x3dff24ec	0.12458214
118	0xbc1ade47	-0.009452409
119	0xbd05dfca	-0.032684125
120	0x3da93c44	0.08263448
121	0xbd1a2fba	-0.03764317
122	0x3dd14b24	0.1021941
123	0x3da2993b	0.07939383
124	0x3d58ebc5	0.052959222
125	0x3c968db4	0.018378116
126	0x3d763755	0.060111362
127	0x3ddfb71d	0.10923598
128	0xbbb807cc	-0.005616164
129	0x3c619531	0.01376848
130	0xbd8a8d3e	-0.06765221
131	0x3cc0dc62	0.023542587
132	0x3c91fdbe	0.017821189
133	0x3ca265ef	0.019823996
134	0xbcd385ba	-0.025820602
135	0x3d27f6d0	0.041006863
136	0xbcc60072	-0.024170134
137	0xbd551553	-0.05202229
138	0xbbf47776	-0.00746053
139	0xbcb119cf	-0.021618752
140	0x3d16f10d	0.036850978
141	0xbb61454e	-0.0034373584
142	0xbdbf3a37	-0.093372755
143	0xbc2e52e7	-0.010639883
144	0xbd115ec3	-0.035490762
145	0xb9ebdb64	-0.00044986152
146	0xbd8b147d	-0.06791017
147	0xbe15c1b8	-0.14624679
148	0xbc9774fa	-0.018488396
149	0x3ccc1996	0.024914544
150	0xbc8dfd7b	-0.017332783
151	0xbcb4099f	-0.021977244
152	0xbd6af628	-0.05736366
153	0xba89df45	-0.001051881
154	0xbdb00869	-0.08595354
155	0x3c0a5cb6	0.008444956
156	0xbbfc8037	-0.007705714
157	0x3ad00d09	0.0015873025
158	0x3d5c6f2d	0.053816963
159	0xbd840826	-0.06446867
160	0xbdb921d7	-0.090396576
161	0xbdd95daa	-0.10613568
162	0x3cfcb2f0	0.030847043
163	0x3d836bda	0.064170554
164	0xbd2ef909	-0.042717967
165	0xbd8e733f	-0.06955575
166	0xbd34ae0e	-0.044111304
167	0x3d486c6a	0.048931517
168	0xbc3706b1	-0.011171029
169	0xbd8d27c1	-0.06892348
170	0x3d74a279	0.05972526
171	0xbc33fcb6	-0.010985544
172	0xbce2fa6d	-0.027707303
173	0x3ccadbcf	0.024763016
174	0x3d2b3438	0.041797847
175	0xbdeadbe3	-0.11467721
176	0xbd5da228	-0.054109722
177	0x3c1479cb	0.009062241
178	0xbdd71c5c	-0.10503456
179	0xbd480559	-0.048833225
180	0xbdd15152	-0.10220589
181	0xbd5db136	-0.05412408
182	0xbdedbfa2	-0.11608817
183	0xbe2e807f	-0.17041205
184	0xbdd99093	-0.106232785
185	0x3ddca51f	0.10773682
186	0xbd409d65	-0.047025103
187	0xbdf47cb8	-0.11937851
188	0xbca026d7	-0.01954977
189	0xbd57ed20	-0.052716374
190	0x3d8ab8b0	0.067735076
191	0xbd8f6e98	-0.07003516
192	0xbb3d71e0	-0.0028906986
193	0x3c888eed	0.016669715
194	0xbd0d26f0	-0.03446096
195	0xbe132106	-0.14368066
196	0xbbf85e00	-0.007579565
197	0xbe0ae6e6	-0.13564643
198	0xbe38bcb9	-0.18040742
199	0xbe79e7ec	-0.24404877
200	0xbe13c9bd	-0.14432426
201	0x3da134d7	0.078714065
202	0xbd2ac6a2	-0.041693337
203	0xbd119fcc	-0.035552785
204	0xbd2a326b	-0.04155199
205	0xbe3b4f2c	-0.1829192
206	0xbd3261b8	-0.043550223
207	0xbdef447f	-0.116829865
208	0xbdf4d31c	-0.119543284
209	0xbe56c437	-0.20973288
210	0xbd1cea72	-0.038309522
211	0xbd47e7ba	-0.048804976
212	0x3d0592a1	0.03261054
213	0xbe212be6	-0.15739402
214	0xbd82ef1a	-0.06393261
215	0xbdf3d94c	-0.119066805
216	0xbdb4bd78	-0.08825201
217	0x3c7ebd37	0.015548042
218	0xbdb1e333	-0.08685913
219	0x3d90cfeb	0.07070907
220	0xbe069ff2	-0.13146952
221	0xbdee6225	-0.11639813
222	0x3c0d5f25	0.008628641
223	0xbde8a43e	-0.11359452
224	0xbb2e680d	-0.0026612312
225	0xbdcbd76d	-0.099531986
226	0xbc648d75	-0.013949742
227	0x3e38fc77	0.18065058
228	0xbcccbc40	-0.024992108
229	0xbd03ce9f	-0.03217947
230	0x3c01edb1	0.007930205
231	0x3d705823	0.058677804
232	0xbdfc7432	-0.1232685
233	0xbd9aff6e	-0.075682506
234	0xbd53ef6c	-0.051742002
235	0xbdd136a7	-0.10215502
236	0x3d2cd1a7	0.042192128
237	0xbce85e36	-0.028365236
238	0xbd876916	-0.066118404
239	0x3c009fce	0.0078506
240	0xbd2e11bf	-0.042497393
241	0x3daad0ea	0.083406284
242	0x3d850d56	0.06496684
243	0x3d726ef4	0.059187844
244	0xbe057128	-0.13031447
245	0xbd1306f9	-0.03589532
246	0xbc344c86	-0.011004573
247	0x3d0515b3	0.032491397
248	0xbca7c82d	-0.020481193
249	0x3c77f9ae	0.015135212
250	0xbcc97686	-0.02459265
251	0xbd2db1a8	-0.042405754
252	0xbc8a1c13	-0.01685909
253	0xbd32188f	-0.043480452
254	0xbbecd258	-0.0072272234
255	0x3c9a78f4	0.018856503

siamese_neural_congas_1/Mixed7a/Branch_1/Conv2d_1c_7x1/Conv2D_bias f4 [32]
0	0x3e0f154e	0.13972971
1	0x3f24d193	0.64382285
2	0xbe927216	-0.28602666
3	0xba89a017	-0.0010499981
4	0x3f973e9b	1.1815981
5	0xbeb2532a	-0.34829074
6	0x3e10df65	0.14147718
7	0x3cacb2a1	0.02108127
8	0xbf422358	-0.7583518
9	0x3d3f3735	0.04668351
10	0xbde35dcc	-0.11101875
11	0x3e98781c	0.29779136
12	0xbed91f3f	-0.4240665
13	0x3e06e9c8	0.13175118
14	0x3d5100fc	0.05102633
15	0xbe751902	-0.23935321
16	0xbe883a2f	-0.2660689
17	0xbb9ffc0b	-0.004882341
18	0x3dc3191a	0.09526272
19	0xbe965aa4	-0.29366028
20	0x3d0fb933	0.03508873
21	0x3ddc913c	0.10769889
22	0xbf3499a5	-0.7054694
23	0xbf32a845	-0.6978801
24	0x3df6e836	0.120560095
25	0xbe5159a2	-0.20444348
26	0xbddde139	-0.108339734
27	0x3ccc2e41	0.0249244
28	0xbeb18f0e	-0.34679455
29	0xbe12c26c	-0.14331979
30	0x3d659e01	0.056058887
31	0x3d8690e7	0.06570607

siamese_neural_congas_1/Mixed7a/Branch_1/Conv2d_1c_7x1/Conv2D_weights f4 [32, 7, 1, 32]
0	0xbd0d06a3	-0.034430157
1	0xbd21a147	-0.039460447
2	0x3cdb999d	0.026806647
3	0xbbc758fb	-0.0060836053
4	0xbd265a0a	-0.04061321
5	0x3d5cd7d4	0.053916767
6	0xbd111372	-0.035418935
7	0xbc1023cf	-0.0087976
8	0x3d9b885a	0.07594366
9	0xbd8a51e5	-0.067539014
10	0xbd8c3992	-0.06846918
11	0x3ca2c8f0	0.019871205
12	0xbcacc10c	-0.021088146
13	0xbd10220c	-0.03518872
14	0xbb555568	-0.0032552127
15	0x3a32536f	0.00068025937
16	0x3d0192de	0.031634204
17	0xbba84275	-0.0051348754
18	0x3d9c259a	0.076243594
19	0xbc5bf5b0	-0.013425276
20	0x3a8efdfb	0.0010909432
21	0x3cb83cad	0.02248987
22	0xbe0046a8	-0.12526953
23	0xbd96cec9	-0.0736366
24	0xbdbb269e	-0.09138225
25	0xbd9639f4	-0.073352724
26	0x3dae4700	0.08509636
27	0x3d229916	0.039696775
28	0xbc24af5a	-0.010051573
29	0xbd73d0de	-0.059525363
30	0xbc945046	-0.018104684
31	0x3c1e40f2	0.009659039
32	0x3d0bd0dd	0.034134734
33	0x3d55e82e	0.052223377
34	0x3d84ebc0	0.06490278
35	0xbb38c919	-0.0028196035
36	0x3ccdfc78	0.0251448
37	0xbd7ff7fb	-0.062492352
38	0x3c779dec	0.015113335
39	0xbd64a429	-0.055820618
40	0xbd3baa60	-0.04581678
41	0x3bd564d6	0.0065122647
42	0xbd194304	-0.037417427
43	0xbd9119ba	-0.07084985
44	0x3b4055a8	0.002934793
45	0xbd82e4b0	-0.06391275
46	0xbd387c4e	-0.04504042
47	0x3d02bb09	0.031916652
48	0xbce7f558	-0.028315231
49	0x3d2949c8	0.04133013
50	0xbb7e2ccc	-0.0038784025
51	0xbccab4a8	-0.024744347
52	0x3d3edbe9	0.04659644
53	0x3d464cb2	0.048412986
54	0x3b9c272c	0.004765412
55	0xbdb8b8f3	-0.09019651
56	0x3d0331f1	0.03203005
57	0xbc4f5124	-0.012653623
58	0xbd19196b	-0.037377756
59	0xbd97170a	-0.07377441
60	0xbde084d9	-0.10962839
61	0xbdd312c7	-0.10306316
62	0x3bdf6959	0.0068179783
63	0xbd0be7ee	-0.034156732
64	0x3ad2d879	0.0016086242
65	0xbd07d784	-0.033164516
66	0x3c12c3ab	0.008957784
67	0x3cf6e542	0.030138616
68	0x3da05733	0.07829132
69	0xbd0f87f6	-0.03504177
70	0xbd005672	-0.03133244
71	0xbd6a3d5b	-0.05718742
72	0xbd1c7a0d	-0.038202334
73	0x3b8f600f	0.0043754647
74	0xbb12048b	-0.002228054
75	0xbc6fbfbe	-0.014633117
76	0xbd2dac76	-0.0424008
77	0x3ba1e815	0.0049409964
78	0xbd30db02	-0.043177612
79	0x3c1f5f11	0.009727255
80	0xbdcb8066	-0.099365994
81	0xbd03e50c	-0.032200858
82	0xbcae8faf	-0.021308748
83	0x3d34b11b	0.044114213
84	0x3dae12b8	0.08499664
85	0xbb4b4289	-0.0031015
86	0x3ca9aa8d	0.020711208
87	0xbce164ce	-0.027513888
88	0xbd3b6fca	-0.045760907
89	0x3d4fd36d	0.05073874
90	0xbc83628b	-0.0160382
91	0xbd907996	-0.07054441
92	0x3d165d57	0.03671011
93	0xbccd7f1e	-0.025085028
94	0x39ba2b8b	0.00035509127
95	0xbbc57911	-0.006026395
96	0x3c699831	0.014257477
97	0x3c8af1e1	0.01696104
98	0x3d900cef	0.07033717
99	0x3bcdcde7	0.006280649
100	0x3d1a175a	0.037619926
101	0xbcbb4d7d	-0.022864098
102	0xbd9685b8	-0.073497236
103	0xbd8dde9e	-0.069272265
104	0x3acd30a4	0.0015654755
105	0x3b347f26	0.0027541607
106	0xbd02fe3b	-0.031980734
107	0xbcd44b2a	-0.025914747
108	0xbda166a3	-0.078809045
109	0xbd136df2	-0.035993524
110	0x3d783b84	0.060603634
111	0x3e219031	0.15777661
112	0xbda5ec74	-0.081017405
113	0x3d572ddc	0.05253397
114	0xbd834cb9	-0.06411118
115	0xbbb4d63f	-0.005518704
116	0x3c9035cf	0.017603783
117	0x3d22a3d3	0.039707016
118	0xbd007ae2	-0.03136719
119	0x3d10acfa	0.035321213
120	0x3da2b812	0.07945265
121	0xbd45c200	-0.048280716
122	0xbc70746a	-0.014676193
123	0xbcf5bf5a	-0.02999847
124	0x3cc16882	0.023609404
125	0x3d369099	0.044571493
126	0x3dcbb3ff	0.09946441
127	0x3d9b5250	0.07584059
128	0x3cb68351	0.022279413
129	0xbd73defe	-0.059538834
130	0xbd3ec273	-0.04657216
131	0xbd4b797c	-0.049676403
132	0xbd2e50d9	-0.04255757
133	0xbde73661	-0.11289669
134	0x3cc43fd6	0.02395622
135	0xbd8c8bf9	-0.06862635
136	0xbd20c075	-0.03924604
137	0xbc9838f4	-0.018581845
138	0x3dfaf20e	0.122531995
139	0x3dc175b1	0.09446276
140	0x3d80a1de	0.06280874
141	0x3c8fa2ea	0.017533738
142	0x3b9228c8	0.004460428
143	0x3d82415d	0.06360123
144	0x3bc964bc	0.0061460417
145	0x3d25f5d8	0.040517658
146	0xbda1eebd	-0.07906864
147	0x39b3dce9	0.0003430613
148	0x3db9d9fa	0.09074779
149	0xbd79abf2	-0.060954995
150	0xbcf7d05d	-0.030250723
151	0x3cc708b1	0.024296137
152	0x3ca36a6b	0.019948205
153	0x3ddc22e6	0.10748844
154	0x3d483349	0.048877034
155	0xbd7a0b20	-0.061045766
156	0xbcf7cec4	-0.03024996
157	0xbd493f87	-0.04913285
158	0x3dba4b8a	0.09096439
159	0x3d8260f0	0.063661456
160	0x3cd0fa4a	0.025509972
161	0xbd644f70	-0.05573982
162	0xbd2568a6	-0.040383004
163	0x3ce46c8a	0.027883787
164	0x3c240b4c	0.010012459
165	0xbd043f97	-0.032287207
166	0xbd2c2541	-0.042027716
167	0xbd4410ee	-0.047867708
168	0xbb236319	-0.0024930893
169	0xbcafd31c	-0.02146297
170	0x3da48bc0	0.08034468
171	0x3deeca00	0.11659622
172	0xbc9045f3	-0.01761148
173	0x3c8b032b	0.016969284
174	0x3d392e87	0.045210388
175	0x3a09e252	0.00052598596
176	0xbbe9adac	-0.007131299
177	0x3d056e2f	0.032575782
178	0xbda4e444	-0.08051351
179	0x3d74f956	0.059808098
180	0x3da10f04	0.07864192
181	0x3c5b1f75	0.013374199
182	0xbd72b1c2	-0.059251554
183	0xbcef4dce	-0.029211905
184	0x39c59bcb	0.00037690843
185	0x3d6a12c2	0.057146795
186	0x3cd6a6dd	0.026202613
187	0x3c970739	0.018436061
188	0x3d68e867	0.05686226
189	0x3dc85b4b	0.09783038
190	0x3d87cb29	0.066305466
191	0xbbf55fa6	-0.007488209
192	0xbd933b63	-0.071890615
193	0x3da1f494	0.07907978
194	0xbccb8bf4	-0.024847008
195	0x3dc36f74	0.09542742
196	0x3bf8f43e	0.0075974753
197	0xbc0f2849	-0.008737632
198	0xbda9c892	-0.08290209
199	0x3d8d2f6e	0.06893812
200	0x3d1d6b50	0.03843242
201	0xbccceb0d	-0.025014425
202	0x3c7ccd8e	0.015429867
203	0x3d844055	0.06457583
204	0x3d9b43bd	0.075812794
205	0xbd3af19a	-0.045640565
206	0x3d08462f	0.033270057
207	0xbd54d8ac	-0.051964447
208	0x3d3fdf91	0.04684407
209	0x3d8ffe62	0.070309415
210	0xbd71708c	-0.058945224
211	0x3d075368	0.033038527
212	0xbc8cbefd	-0.017180914
213	0x3ceb8649	0.028750556
214	0xbcd25473	-0.025675034
215	0x3caee9fc	0.021351807
216	0x3ca67117	0.020317597
217	0xbcf342af	-0.029694883
218	0xbc62ca01	-0.013842107
219	0x3cd3fa2f	0.025876133
220	0x3db45717	0.088056736
221	0x3d8df75f	0.06931948
222	0x3d6380ef	0.055542883
223	0xbc56431f	-0.013077526
224	0xbc46a6b4	-0.012124706
225	0xbd32aa3b	-0.043619376
226	0xbbf25ebe	-0.007396548
227	0xbd098f81	-0.03358412
228	0x3b87b0e0	0.004140958
229	0x3d0f71aa	0.035020508
230	0xbd7c9166	-0.0616621
231	0xbd37289e	-0.04471647
232	0x3c861345	0.01636661
233	0xbd231844	-0.039818063
234	0xbdcd9206	-0.100376174
235	0x3d096cc7	0.033551004
236	0x3d5ce8eb	0.053933065
237	0xbd1d1b25	-0.038355965
238	0xba0e0bb4	-0.0005418614
239	0xbd75c96c	-0.060006544
240	0xbd72510c	-0.059159324
241	0x3e07e2b0	0.13270068
242	0x3c9d0055	0.019165197
243	0xbdcd55bc	-0.10026118
244	0xbb12b948	-0.0022388268
245	0x3d83b86c	0.0643166
246	0xbd03b67e	-0.03215646
247	0x3c984007	0.018585218
248	0xbd07c9fc	-0.03315161
249	0x3c042e8a	0.008067736
250	0xbce89c93	-0.028394973
251	0xbd75cbba	-0.060008742
252	0x3dbfc6c0	0.093640804
253	0x3c7d88aa	0.015474478
254	0x3c6d314d	0.014477086
255	0xbde97488	-0.1139918

siamese_neural_congas_1/Mixed7a/Branch_1/Conv2d_1d_3x3/Conv2D_bias f4 [32]
0	0x3e25ef13	0.16204481
1	0x3da1171a	0.078657344
2	0x3e18f91a	0.14938775
3	0x3d1f5de8	0.038907915
4	0x3cd10774	0.02551625
5	0x3dabe1c9	0.083926745
6	0x3e73de11	0.2381518
7	0xbdc48f58	-0.09597653
8	0x3b7d9b81	0.0038697424
9	0x3e713782	0.23556331
10	0x3d558048	0.05212429
11	0x3e3f70fc	0.18695444
12	0x3c8b6169	0.017014222
13	0xbe6212ba	-0.22077456
14	0xbeea4f3e	-0.45763582
15	0x3db0b92d	0.086290695
16	0xbcde9b65	-0.027173707
17	0xbdcdb6c3	-0.10044625
18	0x3dc9134b	0.09818133
19	0xbd120da7	-0.03565755
20	0x3d68b95a	0.05681739
21	0x3d011f66	0.031524085
22	0x3e122f86	0.14275941
23	0x3e53a11f	0.20666932
24	0xbe5daad4	-0.21647197
25	0xbded5a73	-0.115895174
26	0x3df37032	0.11886634
27	0xbd7c61b2	-0.061616607
28	0xbdf258be	-0.118333325
29	0x3e6896fa	0.22713843
30	0x3e355a66	0.17710266
31	0x3e12490d	0.14285679

siamese_neural_congas_1/Mixed7a/Branch_1/Conv2d_1d_3x3/Conv2D_weights f4 [32, 3, 3, 32]
0	0xbda52bd7	-0.080650024
1	0x3c89999c	0.01679688
2	0x3cf75049	0.03018965
3	0xbcb6a85e	-0.02229708
4	0xbe157eb6	-0.14599118
5	0xb9a3357d	-0.00031129635
6	0x3cc7b162	0.024376575
7	0x3de4ac8d	0.11165724
8	0xbd912e2b	-0.07088884
9	0xbd58b3dc	-0.052905902
10	0xbcb4c894	-0.0220683
11	0x3ca51299	0.02015047
12	0xbc491ecf	-0.012275412
13	0xbdf6ef11	-0.12057317
14	0xbe549f79	-0.20763959
15	0x3d3d509d	0.046219457
16	0x3d7af9a8	0.061273247
17	0x3d0f37f6	0.034965478
18	0xbce194d3	-0.027536785
19	0xbd0f9a6d	-0.03505938
20	0xbcaa5f1d	-0.020797307
21	0x3d82fdd8	0.06396073
22	0xbdd3912c	-0.10330424
23	0x3c78f67a	0.015195483
24	0xbd1cd90a	-0.038292922
25	0xbdbd7160	-0.0925014
26	0xbcd940c3	-0.026520139
27	0x3df0d79a	0.11759873
28	0x3e140ddd	0.14458413
29	0x3c63bd80	0.013900161
30	0xbc1838b9	-0.0092908675
31	0x3dc74ba2	0.09731223
32	0x3da39ee2	0.07989289
33	0x3d91c61a	0.07117863
34	0xbdaade03	-0.083431266
35	0x3dd1a709	0.102369376
36	0xbcef7d8d	-0.029234672
37	0xbdea91b5	-0.11453573
38	0x3e0b9cf5	0.13634093
39	0x3b78d7c9	0.0037970415
40	0xbd9b375e	-0.0757892
41	0xbcb63b11	-0.022244962
42	0xbc112f18	-0.008861326
43	0x3d2c2d40	0.04203534
44	0x3d2535a3	0.040334355
45	0x3c52f431	0.012875603
46	0xbdff9b2e	-0.1248077
47	0xbd1d5779	-0.0384135
48	0x3da111e1	0.07864738
49	0x3e221b71	0.1583078
50	0xbb521565	-0.003205621
51	0xbd9b5416	-0.075843975
52	0xbc523689	-0.012830385
53	0x3d989a6f	0.07451331
54	0xbe66ee2f	-0.22551797
55	0xbdf7c724	-0.1209853
56	0x3d82215c	0.06354019
57	0xbe0df7a9	-0.13864006
58	0xbae7d9c5	-0.0017688802
59	0xba9ec73a	-0.0012113818
60	0x3db21306	0.08695035
61	0xbd76fcce	-0.060299687
62	0xbdb2654f	-0.08710729
63	0x3d46fed4	0.048582867
64	0x3dc13202	0.09433366
65	0x3e126acc	0.14298552
66	0x3d28eaad	0.04123943
67	0x3d2c8d4f	0.04212695
68	0xbc8ce322	-0.01719815
69	0x3dd53f9d	0.10412524
70	0x3c6b6910	0.014368311
71	0x3dd34b1d	0.10317061
72	0xbdef9104	-0.116975814
73	0xbd0d7f6b	-0.034545343
74	0x3cc324ad	0.0238212
75	0x3d9331a7	0.07187205
76	0xbdcc54da	-0.09977122
77	0xbd94be1d	-0.07262824
78	0xbd0f8d67	-0.03504696
79	0x3cb445fc	0.022006027
80	0xbd69cc30	-0.057079494
81	0x3ceab2f5	0.028649786
82	0x3c00fc13	0.007872599
83	0xbdaae349	-0.083441325
84	0x3d56a1a4	0.052400246
85	0x3d47f155	0.048814137
86	0xbdf4702f	-0.1193546
87	0xbe1562e1	-0.145885
88	0x3d51f4ac	0.051258728
89	0xbd3dfec9	-0.04638556
90	0x3d96f3f7	0.07370751
91	0xbd66c83e	-0.05634331
92	0x3cd8b689	0.026454227
93	0xbca3beeb	-0.019988498
94	0xbd9090c8	-0.07058865
95	0xba94f938	-0.0011365777
96	0x3d072ed1	0.033003632
97	0x3cbae020	0.02281195
98	0x3cfab307	0.030602945
99	0xbda4dc0a	-0.080497816
100	0xbd841d1b	-0.06450864
101	0x3cb0246c	0.021501742
102	0xbc84f164	-0.016228385
103	0x3db21562	0.08695485
104	0x3cb06e8f	0.021537093
105	0xbcf616a7	-0.030040098
106	0xbc4c3fbb	-0.012466366
107	0x3ca3203d	0.019912833
108	0x3ca09449	0.019601958
109	0x3cc404b2	0.02392802
110	0xbe84ef99	-0.25964049
111	0x3d60d865	0.05489387
112	0xbcf38e92	-0.029731069
113	0x3e1bd54d	0.15218087
114	0xbd87a002	-0.06622316
115	0x3d1441bf	0.036195513
116	0x3b4b39c5	0.0031009775
117	0xbce28c99	-0.027654933
118	0xbe17265a	-0.14760724
119	0xbe200d8a	-0.15630165
120	0xbdf73106	-0.12069897
121	0xbd92a271	-0.071598895
122	0xbd3ea7d0	-0.046546757
123	0x3c9c523f	0.019082187
124	0x3e2efc40	0.17088413
125	0xbbe74172	-0.0070573622
126	0xba98f7dd	-0.0011670549
127	0x3ddbb452	0.10727753
128	0x3d02ac7d	0.03190278
129	0xbdded022	-0.10879542
130	0xbdba7db9	-0.09106011
131	0xbc5b66b3	-0.013391185
132	0x3cca4241	0.024689795
133	0x3e0e53e6	0.13899192
134	0xbc978c21	-0.018499436
135	0x3e7acef9	0.24493016
136	0x3b1009a8	0.0021978412
137	0xbc9710f6	-0.018440705
138	0xbcfc70c8	-0.030815497
139	0xbbf031fa	-0.0073301764
140	0xbc0f8fcd	-0.008762312
141	0x3b9aede2	0.004728065
142	0xbe83cfa4	-0.25744355
143	0x3dd9702c	0.10617098
144	0xbdb6db4b	-0.089285456
145	0x3dc8b831	0.09800757
146	0xbdd5c32b	-0.10437616
147	0x3dcc4100	0.09973335
148	0x3d9ec619	0.07752628
149	0xbdb90f62	-0.09036137
150	0xbdfceb91	-0.12349618
151	0xbe2d0400	-0.16896057
152	0x3dac987c	0.084275216
153	0xbd4027e2	-0.046913035
154	0x3d721e86	0.05911114
155	0xbd483a34	-0.04888363
156	0x3dc1d1b6	0.09463827
157	0x3c108c1d	0.008822468
158	0xbe0403d7	-0.1289209
159	0x3d28222a	0.041048206
160	0x3a49c71f	0.0007697213
161	0xbcf84364	-0.030305572
162	0xbd991780	-0.074751854
163	0xbc8ceabf	-0.01720178
164	0x3bee2ca9	0.0072685075
165	0x3bff0994	0.007783124
166	0x3d36ae37	0.044599738
167	0xbcea3f50	-0.028594643
168	0xbc755565	-0.014973973
169	0x3d8baa8a	0.06819637
170	0xbb499555	-0.0030759175
171	0x3dca3940	0.09874201
172	0xbd9d966a	-0.07694705
173	0x3d5945d9	0.053045128
174	0xbdfba268	-0.12286836
175	0x3d0a816f	0.033814844
176	0xbd9bdbf5	-0.07610313
177	0x3d98551d	0.07438109
178	0xbd894b85	-0.06703857
179	0xbdb550a7	-0.08853274
180	0x3d140314	0.036135748
181	0xbd443247	-0.04789951
182	0xbb70b0da	-0.0036726505
183	0xbd46271f	-0.048377153
184	0x3e2b99d9	0.16757907
185	0xbdc56730	-0.09638822
186	0x3d487a26	0.048944615
187	0xbd0ae834	-0.033912852
188	0xbd335824	-0.04378523
189	0x3d0770f1	0.033066694
190	0x3c85de13	0.016341245
191	0xbc87d06a	-0.016578872
192	0xbd6bf861	-0.05760992
193	0x3db4a580	0.08820629
194	0xbdfa84c7	-0.122323565
195	0xbdc6c9b7	-0.09706443
196	0x3d679712	0.056540556
197	0xbe042687	-0.12905322
198	0x3d3257ae	0.04354065
199	0x3c387846	0.011259144
200	0x3cc8b7e7	0.024501754
201	0x3ce02f03	0.027366167
202	0xbd14ed96	-0.036359392
203	0x3d827063	0.06369092
204	0x3d769b33	0.060206603
205	0x3cc5172f	0.024058906
206	0xbd370b73	-0.044688653
207	0xbca2d51f	-0.019877015
208	0xbd437af1	-0.047724668
209	0x3e5d2f9e	0.21600196
210	0xbdb38fb8	-0.087676466
211	0xbccfa262	-0.025345985
212	0x3d8920bd	0.066956975
213	0xbd97979d	-0.07401965
214	0xbd2daba9	-0.042400036
215	0xbe02a91b	-0.12759821
216	0xbd9b508a	-0.07583721
217	0xbe227c87	-0.15867816
218	0x3c88e72d	0.016711796
219	0x3dc4d2c6	0.09610514
220	0xbdca5902	-0.09880258
221	0x3e43ba7f	0.19114111
222	0xbd6fba97	-0.058527555
223	0x3c72a9b6	0.01481097
224	0x3c98329d	0.018578822
225	0x3d84fec9	0.06493909
226	0xbdc7209e	-0.09723018
227	0xbdeb5bce	-0.1149212
228	0x3d877b04	0.0661526
229	0x3d010cd0	0.03150636
230	0x3da276cb	0.07932814
231	0x3dc14496	0.0943691
232	0xbd0fcbb6	-0.035106383
233	0xbc461b4d	-0.01209147
234	0x3d04cf09	0.032424007
235	0x3e38c379	0.18043317
236	0x3cc6777f	0.024226902
237	0x3dabc8c5	0.08387903
238	0xbe48a8e4	-0.19595677
239	0xbca6c9ae	-0.02035984
240	0xbe25bf89	-0.16186346
241	0x3de20cad	0.11037574
242	0xbd1b7c6a	-0.037960447
243	0x3cf94c32	0.03043184
244	0x3e1e89f3	0.15482311
245	0xbcb4b9b0	-0.022061199
246	0xbdfc10b3	-0.123078726
247	0xbd41b1f6	-0.047288857
248	0xbc2a5acf	-0.010397627
249	0xbe1c2f89	-0.15252508
250	0x3da62199	0.08111877
251	0xbc5001ba	-0.012695724
252	0xbda7a7c3	-0.08186295
253	0xbe25852a	-0.1616408
254	0xbd125263	-0.0357231
255	0x3dcbb352	0.09946312

siamese_neural_congas_1/Mixed_6a/Branch_0/Conv2d_0a_1x1/Conv2D_bias f4 [16]
0	0x3d89e776	0.06733601
1	0x3eb75b66	0.3581192
2	0x3db8d5d1	0.09025157
3	0xbf366f96	-0.71264017
4	0xbe9cc9bf	-0.3062267
5	0x3ea97b8f	0.3310208
6	0x3f58a8d2	0.846326
7	0x3fa6b733	1.3024658
8	0x3e13de41	0.14440252
9	0x3ea267e0	0.31719875
10	0x3da318d4	0.0796372
11	0x3da47e82	0.08031942
12	0xbe57449c	-0.21022266
13	0xbd85074e	-0.06495534
14	0x3f1d99bd	0.6156271
15	0x3d9b5ea2	0.07586409
