mediapipe/models/face_detection_front.tflite (tflite, 229032 bytes, 73 tensors)

conv2d/Kernel f2 [24, 5, 5, 3]
00000000: e729 4c28 5311 dc27 fd20 c590 c313 20a3
00000010: 279b 1b22 851c 9623 1c27 5524 2325 b525
00000020: 5b24 5790 00a2 f39b 1520 1ead d3a9 ff99
00000030: edab d8a5 ae24 d6a8 91a0 ee24 b9a2 d113
00000040: ff15 cbad 75a6 649e 98ae 32a4 3725 1fae
00000050: 72a0 e624 65aa 5323 fe26 55a4 c612 92a2
00000060: d4aa 4a1c 6110 60ab f324 d025 bdab 1622
00000070: 6f1b 9da4 1128 3a24 6323 5720 70a4 faa0
00000080: 131f 78a4 dca3 8c18 7198 28a5 4721 27a0
00000090: 3ca1 fb26 b022 7e9a 1a1e 522d 072a 5dad
000000a0: 88ad ed30 da9d 7baf 2f30 be9a 37ad b31e
000000b0: dda7 f5a9 c0b0 da9f a130 c3b1 b0b1 b69f
000000c0: b32d 77a9 a9a9 e730 1329 18aa d620 45a7
000000d0: 63ad b2b2 7e29 e331 00b5 6faa 9e30 97af
000000e0: 55ad 351e 7a2c 5fa2 e4a7 dd2a 5599 d5a9
000000f0: e3a3 162c 8a2b 32ab 1a30 de32 07b0 15a3
00000100: 6d2d 5aa9 cbaa eba3 8528 13a2 12a8 982c
00000110: 9525 44ad 432d 752c 8122 4122 de9c 39a7
00000120: 9927 8312 02a0 372c bf22 1022 5eb1 bd29
00000130: c32e 99b0 992e 9d2f a0af 4e2e 6023 7eaf
00000140: 0c31 80a8 8ead a732 a3ae a728 a9b0 2430
00000150: 5532 84b3 ea22 c231 b3b1 1ea8 0aa6 5021
00000160: ce9a 2bb1 6d31 8322 2e31 14b4 522f d035
00000170: 36b8 e8ac 2135 e2b5 79ac 84a1 d8ab e429
00000180: b3b3 bc31 7f2c 242d 3ab2 d330 f632 e0b5
00000190: 0128 6532 90b4 ba29 c4aa 24a8 852d 0eb2
000001a0: 4832 f326 03a0 3aaf 7f2c 982b c7ae cb2d
000001b0: e02a 92ae d92c 4aaa fc98 502a f3ad c22e
000001c0: 3fa8 162c be2a 60a2 772c 062c 7b1a 7927
000001d0: 6b21 31a9 91aa 4cad 8ead 25ae c6af ccad
000001e0: 0c2c c12c 48a4 7e2b bb2e 4528 e328 d12c
000001f0: 8729 89a9 afa7 f6a4 a6ac b8ac c6a9 b228
0.0461 0.03357 0.00065 0.0307 0.00974 -0.000582 0.0009475 -0.013916
-0.003492 0.011925 0.004414 0.01482 0.02777 0.01692 0.02007 0.0223
0.01701 -0.00053 -0.01172 -0.003881 0.00797 -0.07996 -0.0455 -0.002928
-0.06192 -0.02283 0.01828 -0.03778 -0.00892 0.01926 -0.01313 0.000954
0.001464 -0.0905 -0.02522 -0.00624 -0.103 -0.01639 0.02037 -0.09564
-0.00868 0.01913 -0.04996 0.014305 0.02731 -0.01692 0.000827 -0.01283
-0.05334 0.00419 0.0005345 -0.05762 0.01933 0.0227 -0.06046 0.01189
0.00363 -0.01802 0.03177 0.01651 0.01443 0.00848 -0.01733 -0.00972
0.00691 -0.01746 -0.01535 0.00222 -0.002169 -0.02014 0.01031 -0.00811
-0.01022 0.02727 0.01306 -0.00317 0.00596 0.0831 0.0471 -0.0838
-0.0864 0.1539 -0.005714 -0.1169 0.1307 -0.003292 -0.0815 0.006542
-0.03072 -0.04654 -0.1484 -0.007668 0.1447 -0.18 -0.1777 -0.00753
0.08905 -0.0427 -0.04422 0.1532 0.03964 -0.0476 0.009445 -0.0284
-0.08417 -0.2092 0.0429 0.184 -0.3125 -0.05026 0.1443 -0.1186
-0.0833 0.00606 0.06995 -0.01244 -0.03082 0.05362 -0.002604 -0.04556
-0.0154 0.06384 0.0589 -0.0562 0.1282 0.2146 -0.1259 -0.01383
0.0848 -0.0418 -0.05307 -0.015465 0.0353 -0.01186 -0.0318 0.0718
0.0218 -0.0823 0.0822 0.06964 0.0127 0.012215 -0.004753 -0.02821
0.02968 0.000795 -0.00783 0.06586 0.013176 0.01184 -0.1677 0.04483
0.10565 -0.1437 0.1031 0.11896 -0.11914 0.0985 0.014404 -0.11707
0.1577 -0.03516 -0.0868 0.2079 -0.1037 0.03635 -0.1456 0.1294
0.1979 -0.2349 0.013504 0.1799 -0.1781 -0.03217 -0.02359 0.010376
-0.003323 -0.1615 0.1696 0.01272 0.1619 -0.255 0.1144 0.3633
-0.5264 -0.07666 0.3206 -0.3677 -0.0699 -0.01077 -0.06128 0.04602
-0.2406 0.1792 0.07025 0.0803 -0.1946 0.1508 0.2175 -0.3672
0.03128 0.1998 -0.2852 0.04474 -0.05286 -0.03235 0.08624 -0.1892
0.1963 0.02715 -0.007835 -0.1129 0.07025 0.05933 -0.1059 0.0905
0.0537 -0.10266 0.07574 -0.04913 -0.002434 0.04932 -0.09296 0.1056
-0.03317 0.06384 0.05267 -0.01245 0.06976 0.06287 0.003164 0.02919
0.01058 -0.04056 -0.0513 -0.08276 -0.0868 -0.096 -0.12146 -0.0906
0.06323 0.0743 -0.01672 0.05853 0.10516 0.03336 0.03818 0.07526
0.04318 -0.04324 -0.03001 -0.01938 -0.07263 -0.0737 -0.0451 0.03668

conv2d/Bias f2 [24]
00000000: a92d 9130 0835 512e efbb 6f33 ef30 0eaf
00000010: b6a0 43bc 9930 fd37 013c f7ac d0a7 9933
00000020: 5034 a22b 83b1 3d36 2da7 b6a5 2cb9 6635
0.08844 0.1427 0.3145 0.0987 -0.9917 0.2323 0.1542 -0.1102
-0.0092 -1.065 0.1437 0.4993 1.001 -0.0776 -0.03052 0.2374
0.2695 0.05963 -0.1722 0.39 -0.02803 -0.02231 -0.6465 0.3374

depthwise_conv2d/Kernel f2 [1, 3, 3, 24]
00000000: afb2 7e36 a43b 732a 8819 39b0 963f 4ab8
00000010: 6b2d ff35 ffb1 5730 b238 3621 d239 9038
00000020: bb38 b9af 0837 5bb4 b333 76b2 32b1 be34
00000030: a6ba 71be 80bd 02ac 203c 4b18 f133 7c20
00000040: ba41 2a39 52bd ee37 79bc 893c 453c 2db7
00000050: c33f a4b5 28ae febc 603f dfbd ab37 623d
00000060: 07bc 7abb 6db9 54b5 30b0 8d30 c9b4 caae
00000070: 993b 6939 6730 4724 ef39 b1b1 cdb9 9cbb
00000080: 5eb8 82bb 2737 9dbb 9d34 7db5 19b7 01bb
00000090: 44b3 3531 673a c2c0 4f34 5d40 ae3a 31c1
000000a0: 1aae ecb8 3abb 6238 e3b2 09ac 233a 3bb8
000000b0: 3139 6139 b333 5935 b7ae d3b7 51b8 9336
000000c0: adb7 8a3e c2ba 44bd 2736 62c0 e6be ac3d
000000d0: 4d3e 29c4 ebbd d0c0 2cc1 ef3f 0e34 d9be
000000e0: a53d 15c1 04be 2bb5 d3b6 07c2 8342 73c0
000000f0: 5aba 8cb9 24b8 8b36 4b3d 2c2c 20bc 423b
00000100: e931 01ba 19ab 1737 1c2f 6535 a2be bc2e
00000110: 6f30 4d40 1eba 52b9 6c35 9fb4 6b31 25b8
00000120: 6338 202f 39aa f8bd a824 ceb1 d5ae 4fba
00000130: 05b0 dfaf f210 a024 6037 fbae fcba 573c
00000140: 48ba 8caf fba8 b03a 0334 d233 0eb3 0631
00000150: 2335 7638 ce3b 9cb8 65bd 9b30 2ab5 91b8
00000160: 5fa8 71b6 5da9 5a36 4638 7bb1 98bb 093a
00000170: feb5 24bb 76bb af3f a334 1224 6eb4 ff29
00000180: b4b9 9732 5538 0723 01bb c8ad 12b4 d2b3
00000190: 3c21 14b2 c4a8 2932 9439 bea7 24b2 c438
000001a0: 0eb9 84b9 63bb 9e3a 8b31 4e2b 94b9 43a7
-0.2089 0.4058 0.955 0.05038 0.0027 -0.132 1.896 -0.536
0.08466 0.3748 -0.1874 0.1356 0.587 0.01018 0.7275 0.5703
0.5913 -0.12067 0.4395 -0.2722 0.2406 -0.2019 -0.1624 0.2964
-0.831 -1.61 -1.375 -0.0626 1.031 0.002096 0.2482 0.00876
2.863 0.6455 -1.33 0.4956 -1.118 1.134 1.067 -0.4485
1.94 -0.3525 -0.0962 -1.248 1.844 -1.468 0.4792 1.346
-1.007 -0.9346 -0.678 -0.333 -0.1309 0.1422 -0.299 -0.1061
0.9497 0.6763 0.1376 0.01671 0.7417 -0.1779 -0.725 -0.951
-0.546 -0.9385 0.447 -0.9517 0.2883 -0.343 -0.4436 -0.8755
-0.227 0.1627 0.8003 -2.379 0.2693 2.182 0.835 -2.596
-0.09534 -0.615 -0.9033 0.548 -0.2152 -0.06305 0.767 -0.529
0.649 0.6724 0.2406 0.3342 -0.1049 -0.489 -0.5396 0.411
-0.4797 1.635 -0.8447 -1.316 0.3845 -2.191 -1.725 1.418
1.575 -4.16 -1.4795 -2.406 -2.586 1.983 0.2534 -1.712
1.411 -2.541 -1.504 -0.323 -0.4265 -3.014 3.256 -2.225
-0.794 -0.6934 -0.5176 0.409 1.323 0.0652 -1.031 0.907
0.1847 -0.7505 -0.05545 0.443 0.1111 0.3372 -1.658 0.1052
0.1385 2.15 -0.7646 -0.665 0.3389 -0.2888 0.1693 -0.518
0.5483 0.1113 -0.0486 -1.492 0.01819 -0.1814 -0.10675 -0.7886
-0.1256 -0.123 0.0006037 0.01807 0.461 -0.1091 -0.873 1.085
-0.785 -0.1179 -0.0389 0.836 0.2507 0.2444 -0.2205 0.157
0.321 0.5576 0.9756 -0.576 -1.349 0.1439 -0.3228 -0.571
-0.03415 -0.4026 -0.0419 0.397 0.534 -0.1713 -0.949 0.7544
-0.3745 -0.8926 -0.9326 1.921 0.2898 0.0159 -0.2769 0.04684
-0.713 0.2059 0.5415 0.013725 -0.8755 -0.09033 -0.2544 -0.2444
0.01022 -0.19 -0.03723 0.1925 0.6973 -0.03024 -0.1919 0.5957
-0.632 -0.6895 -0.9233 0.827 0.1732 0.05707 -0.6973 -0.02837

depthwise_conv2d/Bias f2 [24]
00000000: 0000 0000 0000 0000 0000 0000 0000 0000
00000010: 0000 0000 0000 0000 0000 0000 0000 0000
00000020: 0000 0000 0000 0000 0000 0000 0000 0000
0.0 0.0 0.0 0.0 0.0 0.0 0.0 0.0
0.0 0.0 0.0 0.0 0.0 0.0 0.0 0.0
0.0 0.0 0.0 0.0 0.0 0.0 0.0 0.0

conv2d_1/Kernel f2 [24, 1, 1, 24]
00000000: e41e 8015 5fb6 8b2a 662d bf27 2f2f 0230
00000010: bd1b c8ad d2a3 91a6 7539 cf99 fd26 402a
00000020: 89aa 2630 46aa 3eac 65a3 011d 5e33 fea1
00000030: 3032 e12c bb2a 38a8 ce29 ac34 3e32 4e2f
00000040: feb0 3cac a82c 10b4 8d2f 13b1 1831 80ac
00000050: ea96 0f3a f4b1 ddb1 78a8 a82d 0d2e 54ab
00000060: 3437 3534 2bb8 1d2b f0ad f9a9 6738 dea5
00000070: f4a8 659c e72e 9ca1 0234 81b0 9735 02ad
00000080: d4b8 4faa 2ab9 0f30 6daf b128 1438 ea21
00000090: 7e30 3730 bb26 4c35 29ae 98a2 6f25 9aaf
000000a0: 76b0 0c30 0e2f b12e 7ead 03a9 73b0 79b1
000000b0: 0ca6 ea31 ffa8 4cac e72d 4530 3c21 99ac
000000c0: ceb1 c6ac 15b9 7e2d 8a28 55ad c231 09a4
000000d0: a429 a535 fb2b 592e 3b31 33b8 9f2b adb4
000000e0: ddb7 0e34 fb35 cc35 c22c f6a0 7eb0 1018
000000f0: 352b a42e 19af a5b5 6db2 4fad c42a 2da4
00000100: acb2 e820 3731 d22a 6ea2 54ab 2828 3ea5
00000110: 28a2 67ac ee25 3eaa aa2d e333 45a7 0136
00000120: 5f2a f131 e830 6435 b032 8ea5 a533 00b4
00000130: 3ba9 1bad fd2b 2329 7522 4f25 242c 6c25
00000140: 7924 592d ba29 5b14 0aa3 4d24 74ae 89af
00000150: a825 db25 7823 e6a1 40af 8e3c aeae d635
00000160: 72a4 bea9 2328 18a0 0711 57a5 c92e 45a9
00000170: 898b 0427 a8a0 3329 3fac 6228 cba0 d5ae
00000180: 5129 6535 2731 25ab 16b3 14af c618 3e2d
00000190: 0bb8 2e2d d7b4 5eac 8532 a9ba deb4 28b6
000001a0: c0b8 a4b4 532c cfaf 2d35 fa33 11b6 deac
000001b0: 34a5 8ba7 ee2f 03a1 4430 d19c 30b4 471c
000001c0: bfa4 f0be cea8 7a2b 7bad ae18 a5a8 dc2e
000001d0: d6ae 1728 e2a3 372d 1528 a428 fe3c 2c27
000001e0: 8ba9 7328 2c2f a831 3c35 3734 3839 8b2f
000001f0: 1e2f 00a6 fe31 4830 1328 03a8 0138 4835
0.00673 0.001343 -0.3982 0.05112 0.08435 0.03026 0.11224 0.1252
0.003778 -0.09033 -0.015274 -0.02565 0.682 -0.002836 0.0273 0.04883
-0.05106 0.1296 -0.049 -0.0663 -0.01444 0.004887 0.2302 -0.0117
0.1934 0.07623 0.05258 -0.03296 0.04535 0.292 0.1951 0.11414
-0.156 -0.06616 0.07275 -0.254 0.118 -0.1586 0.1592 -0.0703
-0.001688 0.7573 -0.186 -0.1832 -0.0349 0.0884 0.09454 -0.05725
0.4502 0.263 -0.521 0.05557 -0.0928 -0.04666 0.5503 -0.02292
-0.0387 -0.00429 0.10785 -0.010956 0.2505 -0.1407 0.3494 -0.07825
-0.6035 -0.0493 -0.6455 0.1268 -0.116 0.03665 0.51 0.01155
0.1404 0.1317 0.02629 0.331 -0.09625 -0.01288 0.02122 -0.1188
-0.1394 0.1265 0.1102 0.10455 -0.0858 -0.03915 -0.139 -0.171
-0.02362 0.1848 -0.03903 -0.06714 0.0922 0.1334 0.01022 -0.07184
-0.1814 -0.0746 -0.6353 0.0858 0.03546 -0.0833 0.1799 -0.01576
0.04407 0.3528 0.06235 0.0992 0.1635 -0.525 0.05954 -0.2922
-0.4915 0.2534 0.3738 0.3623 0.07434 -0.00969 -0.1404 0.001984
0.0563 0.10376 -0.1109 -0.3528 -0.2008 -0.08295 0.05286 -0.01631
-0.2085 0.00958 0.163 0.05328 -0.01256 -0.05725 0.03247 -0.02048
-0.012024 -0.0688 0.02316 -0.04877 0.0885 0.2465 -0.0284 0.3752
0.04977 0.1857 0.1533 0.337 0.209 -0.0217 0.2389 -0.25
-0.04086 -0.0798 0.0624 0.04013 0.01261 0.02074 0.0647 0.02118
0.01747 0.08356 0.04474 0.001063 -0.01375 0.0168 -0.1008 -0.11774
0.0221 0.02287 0.01459 -0.01152 -0.1133 1.139 -0.1044 0.3647
-0.01736 -0.04486 0.03232 -0.007996 0.0006137 -0.02086 0.106 -0.04117
-0.00023 0.0274 -0.009094 0.04062 -0.06635 0.03424 -0.00936 -0.10675
0.04153 0.3372 0.161 -0.05582 -0.2214 -0.1106 0.00233 0.0819
-0.5054 0.08093 -0.3025 -0.06824 0.2037 -0.8325 -0.3042 -0.3848
-0.5938 -0.29 0.06757 -0.122 0.3235 0.2493 -0.3792 -0.07605
-0.02032 -0.02946 0.1239 -0.00979 0.1333 -0.004704 -0.2617 0.004177
-0.01854 -1.734 -0.03754 0.0584 -0.08563 0.002285 -0.0363 0.1072
-0.1068 0.03195 -0.015396 0.0815 0.0319 0.03625 1.248 0.02802
-0.0433 0.03476 0.11206 0.1768 0.3271 0.2634 0.6523 0.11786
0.1112 -0.02344 0.1873 0.1338 0.03183 -0.03134 0.5005 0.33

conv2d_1/Bias f2 [24]
00000000: 1bb6 f936 553c 0d39 4c38 c13b b035 79a9
00000010: e436 6cc0 3dae d12e e837 1136 2a37 ba2c
00000020: d43a 6e32 503b 92ad 15b4 a1ab b53c 5d3a
-0.3816 0.4358 1.083 0.6313 0.537 0.969 0.3555 -0.04276
0.4307 -2.21 -0.0975 0.1065 0.4941 0.3792 0.4478 0.07385
0.8535 0.2009 0.914 -0.08704 -0.2551 -0.0596 1.177 0.7954

depthwise_conv2d_1/Kernel f2 [1, 3, 3, 24]
00000000: 09ba 4ab7 8834 4735 42b9 173c fdb8 4a35
00000010: 7cb5 0730 b23a 29b6 97b7 ec3c 0224 c838
00000020: c0b5 a930 a137 d1b2 6634 9f3d 9425 f2bd
00000030: b9b2 3836 68b2 77bc 13bc bc3f 1437 e13d
00000040: 4fb9 863c 9639 5fba d6bc 833a fa3b 2c3a
00000050: 26bd 833a d330 0a3c 27b9 dc3f 3fbb 7b3d
00000060: 81b1 b739 7b34 24bf 14af c7ad 743d e63a
00000070: 6e38 a239 b434 1632 8c8d fd2e 0194 2424
00000080: 30b8 56b4 92b1 4db8 e5b8 ec2b f6b9 79b5
00000090: 8634 e93a 77b9 bd3d b437 aa37 68bd 7e39
000000a0: 4530 9e3a 1136 0e3c 8faa 713c 52b1 673d
000000b0: c539 bd39 3c34 5eb8 2224 1f3f a03d f1bc
000000c0: 6c44 f8b7 b9c0 8dba fc3c cdb1 4138 fc3e
000000d0: a4bf 9b3d 0931 00ba 413d f33f cfc2 e13e
000000e0: 57b9 53a4 d4bb 623d 683f c841 963f 3a3e
000000f0: cf29 a73f 2738 71c0 95b7 8cb5 533d a13a
00000100: 79ac b531 8136 16b7 5733 6bb7 8935 77b2
00000110: 8db9 e2bc 13b7 c538 6bba cc3b e136 0aa3
00000120: a531 a939 9f37 c6b6 1bb6 20a6 53b8 d9a8
00000130: 7238 fdb6 23b3 b534 e5ad ccb6 dcb5 1f28
00000140: 0b38 0cb4 49b5 fb31 f23a 39aa 79b3 a8af
00000150: 003c ee29 cc30 083d 753e 9731 45b4 2b37
00000160: 33bd e427 ed3d c03b d438 3038 763c d9b1
00000170: 983e e6bf 9bba a1af 393b 8f34 dab8 8ba9
00000180: a738 9936 3035 9bb4 c0b7 2c1c 423c e435
00000190: 93b8 c8b2 5d2c b538 c032 99aa bc37 20bc
000001a0: 013b cbbe 0eb7 a02e 14b4 feac 3331 a3b0
-0.7544 -0.4556 0.2832 0.3298 -0.657 1.022 -0.6235 0.3306
-0.3428 0.1259 0.837 -0.385 -0.4744 1.23 0.01566 0.5977
-0.3594 0.1456 0.4768 -0.213 0.275 1.405 0.02179 -1.486
-0.2101 0.3887 -0.2002 -1.116 -1.019 1.934 0.4424 1.47
-0.6636 1.131 0.698 -0.7964 -1.209 0.814 0.997 0.7715
-1.287 0.814 0.1508 1.01 -0.644 1.965 -0.906 1.37
-0.172 0.7144 0.28 -1.785 -0.1106 -0.0903 1.363 0.8623
0.5537 0.704 0.294 0.1902 -0.0003386 0.1092 -0.0009775 0.01617
-0.5234 -0.271 -0.1741 -0.5376 -0.612 0.0619 -0.745 -0.342
0.2827 0.864 -0.683 1.435 0.4814 0.479 -1.352 0.6865
0.1334 0.827 0.3792 1.014 -0.05124 1.11 -0.1663 1.351
0.721 0.7173 0.2646 -0.546 0.01614 1.78 1.406 -1.235
4.42 -0.498 -2.361 -0.819 1.246 -0.1813 0.5317 1.746
-1.91 1.401 0.1573 -0.75 1.313 1.987 -3.404 1.72
-0.6675 -0.01689 -0.9785 1.346 1.852 2.89 1.896 1.557
0.04538 1.913 0.519 -2.22 -0.4739 -0.3467 1.331 0.8286
-0.0699 0.1783 0.4065 -0.4429 0.2294 -0.4636 0.346 -0.202
-0.694 -1.221 -0.4421 0.596 -0.8022 0.9746 0.43 -0.01375
0.1764 0.7075 0.4763 -0.4233 -0.3816 -0.02393 -0.5405 -0.03787
0.5557 -0.4368 -0.223 0.2942 -0.0921 -0.4248 -0.3662 0.0322
0.5054 -0.253 -0.3303 0.1869 0.868 -0.0486 -0.2335 -0.1196
1.0 0.04633 0.1499 1.258 1.614 0.1747 -0.2668 0.448
-1.3 0.03082 1.481 0.9688 0.6035 0.5234 1.115 -0.1827
1.648 -1.975 -0.8257 -0.1192 0.903 0.285 -0.6064 -0.0433
0.5815 0.4124 0.3242 -0.2878 -0.4844 0.004074 1.064 0.3682
-0.572 -0.2119 0.0682 0.5884 0.2109 -0.05154 0.4834 -1.031
0.8755 -1.698 -0.441 0.1035 -0.255 -0.078 0.1625 -0.1449

depthwise_conv2d_1/Bias f2 [24]
00000000: 0000 0000 0000 0000 0000 0000 0000 0000
00000010: 0000 0000 0000 0000 0000 0000 0000 0000
00000020: 0000 0000 0000 0000 0000 0000 0000 0000
0.0 0.0 0.0 0.0 0.0 0.0 0.0 0.0
0.0 0.0 0.0 0.0 0.0 0.0 0.0 0.0
0.0 0.0 0.0 0.0 0.0 0.0 0.0 0.0

conv2d_2/Kernel f2 [28, 1, 1, 24]
00000000: a6b1 b318 2624 ae96 c826 e39e 030c 5a28
00000010: 80aa e59d 6329 b5a3 0b15 6423 e9b2 42a8
00000020: 3daa 9f28 551d e1a6 4c9e 7ab0 3fad 6aa4
00000030: 60a1 59b4 1897 90b3 a7ac db9c 2c31 52a6
00000040: 6a12 dc23 fa29 bf30 0a9f c1ac 6620 cc27
00000050: 9dac bd1e 2ba8 f031 7b2f 182b 2fa7 e034
00000060: bbb4 992b 2231 c7a4 fe30 0a26 4e22 faac
00000070: f02a 1bb0 662c 7d9c 8ca4 03ad 01a8 cb26
00000080: 3326 552a 70b2 2eb0 ada7 6517 1013 72a8
00000090: c32f 96ac 5733 bd29 f2a0 41a3 56ad 66a6
000000a0: 23ab 32b1 15a8 a414 e828 d8ad 8222 5895
000000b0: 8f25 83ad 8235 632a a92e 9527 37a6 b7a0
000000c0: 21b4 ea25 b3b0 0832 7a30 aba6 a334 5e98
000000d0: 9834 652b eeb4 0c23 be36 ebaa a39d c6ab
000000e0: 3bb1 8931 83b4 c7a7 e3b1 3ba2 7faa ccab
000000f0: 25a9 109c 9bab e6ad 1c12 c7b1 022a b229
00000100: 1829 42a6 6819 6027 65a3 1524 5834 6caa
00000110: 9aa8 13a8 4aa9 4b28 c5a8 29ab 771d bbac
00000120: dba1 90a9 8fac 03b3 46ac 41ae 74b1 ca93
00000130: 74a7 a8a8 4028 321e 59a7 5a2e 56a4 22b0
00000140: c021 9528 7ea3 13ac caad 0fad c9a3 6b20
00000150: b01e 3e34 1c2b caad 4bb4 f2a8 f02c 9db2
00000160: 08a9 76a6 8eb4 c424 30b0 479a 9830 32b6
00000170: 7cb3 bd3a 1cb0 89ad 7d31 352c af28 0b28
00000180: 92a6 e1a7 dba1 bfab 392b aaaf fc2a 05ab
00000190: 9e34 df9a e828 74a8 c6ad 39ad 0633 7524
000001a0: 0b2e adac 0caa 7d2a 9e28 82ab fa30 d028
000001b0: 6c29 6da9 731e 57ad e42a 9db0 4bad 42b8
000001c0: bead 25b4 4b22 b42b 5fa6 a9ac 8fa6 382a
000001d0: d9af f720 7aae e0ae c425 6829 7cac cd25
000001e0: e59d 0eb1 3634 1f2c c230 452d 3028 7bac
000001f0: 8c29 0aa6 62b4 f7a8 7e24 b926 682c a6a9
-0.1765 0.002295 0.0162 -0.001631 0.02649 -0.006725 0.0002449 0.034
-0.05078 -0.005756 0.04208 -0.01505 0.001231 0.014435 -0.216 -0.03326
-0.04874 0.0361 0.005207 -0.02687 -0.00615 -0.1399 -0.082 -0.01724
-0.0105 -0.2717 -0.001732 -0.2363 -0.0727 -0.00474 0.1616 -0.02469
0.000783 0.01535 0.0467 0.1483 -0.006874 -0.0743 0.00859 0.03046
-0.0721 0.00658 -0.03256 0.1855 0.1169 0.05542 -0.02806 0.3047
-0.2957 0.05936 0.1604 -0.01866 0.156 0.02359 0.012314 -0.07776
0.0542 -0.1283 0.0687 -0.004383 -0.01776 -0.0783 -0.03128 0.02654
0.02422 0.04947 -0.2012 -0.1306 -0.02998 0.001805 0.000862 -0.03473
0.1213 -0.07166 0.2294 0.04483 -0.00966 -0.01417 -0.0834 -0.025
-0.05576 -0.1624 -0.0319 0.001133 0.03833 -0.0913 0.01271 -0.001305
0.02171 -0.0861 0.3442 0.0499 0.10406 0.02962 -0.02428 -0.00921
-0.258 0.0231 -0.1469 0.1885 0.1399 -0.02605 0.2898 -0.002132
0.287 0.05777 -0.308 0.01376 0.4214 -0.05405 -0.005505 -0.06073
-0.1635 0.173 -0.282 -0.03038 -0.184 -0.01217 -0.05075 -0.0609
-0.0402 -0.003967 -0.05942 -0.09216 0.000746 -0.1805 0.04694 0.0445
0.0398 -0.02444 0.00264 0.02881 -0.01444 0.01595 0.2715 -0.05017
-0.03595 -0.03183 -0.04132 0.03354 -0.03726 -0.05594 0.005337 -0.0739
-0.01144 -0.04346 -0.0712 -0.2191 -0.0668 -0.0977 -0.1704 -0.000951
-0.02911 -0.03638 0.0332 0.00605 -0.0287 0.09924 -0.01694 -0.1292
0.01123 0.0358 -0.01463 -0.06366 -0.09045 -0.07904 -0.015205 0.00863
0.00653 0.2651 0.05554 -0.09045 -0.2683 -0.03864 0.07715 -0.2067
-0.0393 -0.02524 -0.2847 0.01862 -0.1309 -0.003065 0.1436 -0.3872
-0.2339 0.8423 -0.1284 -0.0865 0.1715 0.06573 0.0366 0.0316
-0.02567 -0.03078 -0.01144 -0.06052 0.05643 -0.11975 0.05457 -0.05484
0.2886 -0.003355 0.03833 -0.0348 -0.0902 -0.0816 0.2195 0.01741
0.0944 -0.07306 -0.04724 0.0507 0.03607 -0.05865 0.1555 0.0376
0.04236 -0.0424 0.006298 -0.08344 0.05383 -0.1442 -0.0827 -0.532
-0.0897 -0.259 0.01229 0.06018 -0.02489 -0.0728 -0.02562 0.04858
-0.1226 0.0097 -0.1012 -0.1074 0.02252 0.04224 -0.07007 0.02266
-0.005756 -0.158 0.2632 0.0644 0.1487 0.08234 0.0327 -0.07
0.04333 -0.02359 -0.274 -0.0388 0.01755 0.02626 0.06885 -0.04413

conv2d_2/Bias f2 [28]
00000000: 3f2c b6b5 b430 6534 f528 c939 d321 2b3f
00000010: b932 403c d834 8134 fb3b 9fba d6b4 9bb5
00000020: 1cb0 88b3 c236 b438 4836 7022 4832 37bd
00000030: 3daf c1bb 37bb 8538
0.06635 -0.357 0.147 0.2747 0.03873 0.723 0.011375 1.792
0.2101 1.0625 0.3027 0.2815 0.9976 -0.8276 -0.3022 -0.3503
-0.1284 -0.2354 0.4224 0.588 0.3926 0.01257 0.1963 -1.304
-0.1131 -0.969 -0.902 0.565

depthwise_conv2d_2/Kernel f2 [1, 3, 3, 28]
00000000: 8a3c 03ba e2b8 313b 12b8 46bc b23a 43ba
00000010: e0b9 3a3d 89b8 c8b9 b1b3 15c0 ebb5 3f3d
00000020: e7bd 33b8 1cbc 973d 613d 36b7 e63c a6bb
00000030: 8038 81bd a640 5ebb 0140 50bc 4dbd f93c
00000040: 3cb8 02bc d73d b8a6 11be ee3d f4bd 78ba
00000050: 7fb5 4fc0 96bf 0640 8ebf 77bc 7cbb 963c
00000060: 713b 44bb ef3e 74bc ee3e d9bf ff3f 88b7
00000070: 493d 4eb9 2fbc 6539 fdb5 28b5 4935 2b38
00000080: 5cbb a038 71bc 76b4 b7ac f6bb 3fbf 283a
00000090: a2b9 59b9 e8b9 1130 7b2d 26ba e339 06b0
000000a0: 993f b6bd b1b8 3333 0f3e 33bc a939 2938
000000b0: 6dbc 07bd 3c38 9928 6ebc 963a e8bd 4bb9
000000c0: a9ba 17c0 fc3a d73e a5bc e3bb abba b43e
000000d0: 5740 13bc 153d f5bb 1938 85bb 8c42 75bd
000000e0: 3341 c0bf 6d36 ae3e 38bc bdbd 0b40 b439
000000f0: 55c0 5f3b d3c0 fcbc 70bd 39bd 6c38 db40
00000100: 44bf f2bd 15b9 ce3e 3e3e 25c0 c73f 74bd
00000110: 513f 9aba 9f41 bab9 903e 87bc 5fb4 ab3c
00000120: 13b6 61b5 743c d83a 76be 0f39 9bbd 6fb7
00000130: 2db9 1627 1cb6 b23b 34bc a3b9 98b0 2eb6
00000140: b8b0 68bd df3b 0fb5 4e3f babc ec35 8437
00000150: 193a 98b9 ab3d 6cb2 71ba 56b8 11b8 4a37
00000160: 2db8 ebb4 26bd a2b2 28b9 ba38 d038 9a3a
00000170: 2c32 51b5 90b0 fb25 003b 7ebc 8537 f6a8
00000180: 7eac dbba c641 09bc 0d3d 53bc 973d ee30
00000190: 45bc 16ba 213c c43a 26bd d3b2 ecbd 13b8
000001a0: 08bc 183d 653d 6538 a2b2 1cb8 a837 dc30
000001b0: 4a38 febd ea3a c9ac 5037 31bd 0340 e1a4
000001c0: 4539 23b7 2137 7439 51b4 fcaf cb3d 1734
000001d0: 20bb 362f 07b7 68b4 4fb7 573c 8239 a930
000001e0: ccb7 08b6 ce38 7bb5 afb2 91b9 3036 48b0
000001f0: 581e 02bd eb37 8e38
1.135 -0.7515 -0.6104 0.899 -0.509 -1.068 0.837 -0.7827
-0.7344 1.307 -0.567 -0.7227 -0.2404 -2.041 -0.3699 1.312
-1.476 -0.525 -1.027 1.397 1.345 -0.4507 1.225 -0.956
0.5625 -1.376 2.324 -0.921 2.002 -1.078 -1.325 1.243
-0.5293 -1.002 1.46 -0.02625 -1.517 1.482 -1.488 -0.8086
-0.3435 -2.154 -1.896 2.012 -1.889 -1.116 -0.9355 1.146
0.93 -0.908 1.733 -1.113 1.732 -1.962 1.999 -0.4707
1.321 -0.663 -1.046 0.6743 -0.3743 -0.3223 0.3303 0.521
-0.92 0.578 -1.11 -0.2788 -0.07367 -0.995 -1.812 0.7695
-0.704 -0.6685 -0.7383 0.1271 0.08563 -0.7686 0.736 -0.1257
1.899 -1.428 -0.5864 0.225 1.515 -1.05 0.7075 0.52
-1.106 -1.257 0.5293 0.03592 -1.107 0.823 -1.477 -0.6616
-0.8325 -2.045 0.873 1.71 -1.161 -0.986 -0.8335 1.676
2.17 -1.019 1.2705 -0.9946 0.512 -0.94 3.273 -1.364
2.6 -1.9375 0.4016 1.67 -1.055 -1.435 2.021 0.713
-2.166 0.9214 -2.412 -1.246 -1.359 -1.306 0.5527 2.428
-1.816 -1.486 -0.6353 1.701 1.561 -2.072 1.944 -1.363
1.829 -0.825 2.81 -0.716 1.641 -1.132 -0.2732 1.167
-0.3796 -0.3362 1.113 0.8555 -1.615 0.6323 -1.401 -0.4646
-0.647 0.02768 -0.3818 0.962 -1.051 -0.7046 -0.1436 -0.3862
-0.1475 -1.352 0.984 -0.3162 1.826 -1.182 0.37 0.4697
0.762 -0.699 1.417 -0.2007 -0.805 -0.542 -0.5083 0.4556
-0.522 -0.3074 -1.287 -0.2073 -0.6445 0.591 0.6016 0.825
0.1929 -0.3323 -0.1426 0.02336 0.875 -1.123 0.47 -0.03876
-0.0702 -0.857 2.887 -1.009 1.263 -1.081 1.397 0.154
-1.067 -0.7607 1.032 0.8457 -1.287 -0.2133 -1.48 -0.5093
-1.008 1.273 1.349 0.5493 -0.2073 -0.5137 0.4785 0.1519
0.536 -1.498 0.8643 -0.07477 0.457 -1.298 2.006 -0.01906
0.6587 -0.446 0.4456 0.6816 -0.2698 -0.12476 1.448 0.2556
-0.8906 0.1127 -0.4392 -0.2754 -0.4568 1.085 0.6885 0.1456
-0.4873 -0.377 0.6006 -0.3425 -0.2089 -0.696 0.3867 -0.1338
0.006195 -1.252 0.4949 0.5693

depthwise_conv2d_2/Bias f2 [28]
00000000: 0000 0000 0000 0000 0000 0000 0000 0000
00000010: 0000 0000 0000 0000 0000 0000 0000 0000
00000020: 0000 0000 0000 0000 0000 0000 0000 0000
00000030: 0000 0000 0000 0000
0.0 0.0 0.0 0.0 0.0 0.0 0.0 0.0
0.0 0.0 0.0 0.0 0.0 0.0 0.0 0.0
0.0 0.0 0.0 0.0 0.0 0.0 0.0 0.0
0.0 0.0 0.0 0.0

conv2d_3/Kernel f2 [32, 1, 1, 28]
00000000: 4fb0 ef9a e92f 84b0 8d9d fb33 62a0 9b31
00000010: 8cb0 61ab fb2c 8124 fd20 70ac 1e2a 31af
00000020: ab2c 1a21 8332 7c31 67ab a21b 5da5 2a1c
00000030: a62e 9227 b4af 72ac 922b 739d 5bae 1eae
00000040: 73a9 0bac 6d2e eba7 592f 0a2e e32c 86a7
00000050: d724 dbac c6ac 9c9c fc32 c821 6728 2c2e
00000060: b91e 012c 7890 a230 b22b 0ca5 3ab4 30ae
00000070: dc23 dda9 38a8 3b32 cbb0 f6a4 82ac bc94
00000080: 8126 87aa 1220 d0aa 9eb0 012c 57ab aa2b
00000090: 65ac 0b2c 2428 d6a8 092d 952b f108 b6aa
000000a0: 63ab 5921 32a5 b3aa a526 39a4 2dab b628
000000b0: cfad 859f ffa7 2423 d026 10ab 6aa8 42a0
000000c0: e0ae b4ac 86a7 262b fb2a 7929 4429 f1a3
000000d0: d0a8 d129 0ba7 b62c 6aab 012b e4af 6ca4
000000e0: 472a 9721 6ea1 71a4 852b 80a3 89a1 37ac
000000f0: f328 9e23 2fa9 7828 7030 3d14 739e a12b
00000100: bbac 83aa 7c22 b1b2 e9af 45a9 0422 3424
00000110: 8eaf efaa 9c2d 59a5 b22f 562f 4714 a9a0
00000120: 6a2a 8433 afa9 9d2d 01b6 beb0 b4ab c4a7
00000130: b128 502a 73af f0a8 cf29 5930 5a9e e4a8
00000140: 36a4 16ab a42f 8da8 3c99 989e 5024 0e1d
00000150: 9cb5 dbb0 4a28 2eaa 7125 1c2d 9eac cea2
00000160: 8c30 3d2c 132d 1226 661c 9c28 4ba8 6eae
00000170: 27ad 32af 8d2b 1225 3e29 54a9 53b1 31ab
00000180: 1aac 982f e3b0 94ad 1d28 caaa 612b c8ad
00000190: 6b28 9c25 7f29 a621 92a7 31a4 6f30 45ac
000001a0: 8c9d 60af dfa5 76b0 0d9b be20 c32e b230
000001b0: 0db1 2a2f 3a2e a91e 50aa 8ea5 d3b1 892c
000001c0: 452e dc2c c6a9 0baf 9a2b a1aa 8cad e6af
000001d0: 63a0 23aa 3b26 369e 6c2e 7aa3 1cb1 2eb1
000001e0: e92d 2ba6 1ba9 1129 df29 e0ac b52f 472c
000001f0: d6a4 822e 4cac 3fa4 452c 742a 7c27 85ad
-0.1346 -0.003386 0.1236 -0.1411 -0.00542 0.2494 -0.00856 0.1752
-0.1421 -0.05765 0.0778 0.0176 0.00974 -0.06934 0.0478 -0.11237
0.07294 0.009964 0.2035 0.1714 -0.05783 0.003727 -0.02095 0.004066
0.1039 0.02957 -0.12036 -0.06946 0.05914 -0.00532 -0.0993 -0.0956
-0.04257 -0.0632 0.1004 -0.03093 0.1148 0.09436 0.07635 -0.02939
0.0189 -0.07587 -0.0746 -0.0045 0.2183 0.01129 0.0344 0.09644
0.006565 0.06256 -0.0005455 0.1448 0.06012 -0.01971 -0.2642 -0.0967
0.01535 -0.0458 -0.03296 0.1947 -0.1498 -0.01938 -0.07043 -0.001156
0.0254 -0.051 0.00795 -0.05322 -0.1443 0.06256 -0.05734 0.05988
-0.06866 0.0632 0.03235 -0.03778 0.0787 0.05923 0.0001508 -0.05243
-0.0577 0.010445 -0.0203 -0.05234 0.02596 -0.0165 -0.05606 0.0368
-0.09076 -0.007343 -0.03123 0.01395 0.02661 -0.05518 -0.0345 -0.008316
-0.1074 -0.0735 -0.02939 0.05585 0.05453 0.04276 0.04114 -0.01551
-0.0376 0.04544 -0.02751 0.0736 -0.05792 0.05472 -0.1233 -0.01727
0.04904 0.01092 -0.010605 -0.01735 0.05875 -0.01465 -0.01081 -0.06586
0.03867 0.01488 -0.0405 0.0349 0.1387 0.001035 -0.006298 0.0596
-0.0739 -0.05087 0.012665 -0.2091 -0.1236 -0.04117 0.01175 0.01642
-0.11804 -0.05417 0.08765 -0.02089 0.12024 0.1146 0.001044 -0.0091
0.0501 0.2349 -0.0444 0.0877 -0.3752 -0.1482 -0.06018 -0.03033
0.03665 0.04932 -0.1164 -0.03857 0.04538 0.1359 -0.006203 -0.0382
-0.01645 -0.05536 0.1194 -0.03555 -0.002556 -0.00644 0.01685 0.004936
-0.3506 -0.1517 0.0335 -0.04828 0.02126 0.07983 -0.07214 -0.01329
0.1421 0.0662 0.0793 0.02371 0.004295 0.036 -0.03354 -0.10046
-0.0805 -0.1124 0.059 0.0198 0.04095 -0.04163 -0.1664 -0.05618
-0.0641 0.11865 -0.1527 -0.08716 0.03214 -0.05304 0.05765 -0.09033
0.03452 0.02191 0.04294 0.01103 -0.02957 -0.01637 0.1385 -0.0667
-0.005417 -0.11523 -0.02293 -0.1394 -0.003443 0.00926 0.10565 0.1467
-0.1578 0.11194 0.0973 0.006504 -0.04932 -0.0217 -0.182 0.07086
0.09796 0.0759 -0.0451 -0.11005 0.0594 -0.0518 -0.0867 -0.1234
-0.00857 -0.04794 0.02434 -0.006065 0.10034 -0.0146 -0.1597 -0.1619
0.09235 -0.0241 -0.0399 0.03958 0.04587 -0.0762 0.1204 0.06683
-0.01889 0.1017 -0.06714 -0.01659 0.0667 0.0504 0.02924 -0.08624

conv2d_3/Bias f2 [32]
00000000: 9240 13b9 51bd 513c 4d38 933e 823e 69b8
00000010: 8f39 67b9 85ba 9842 7d2f 373c 033d b638
00000020: a33c 9a37 0338 4f3c f53e fa41 5bbe d5b2
00000030: 6b2f 4c3c e2bf 362f 6139 4139 0e37 a937
2.285 -0.6343 -1.329 1.079 0.5376 1.644 1.627 -0.5513
0.695 -0.6753 -0.815 3.297 0.117 1.054 1.253 0.589
1.159 0.475 0.5015 1.077 1.739 2.988 -1.589 -0.2135
0.1159 1.074 -1.971 0.1127 0.6724 0.6567 0.441 0.4788

depthwise_conv2d_3/Kernel f2 [1, 3, 3, 32]
00000000: 3db8 feb9 63b7 973b e2b9 2836 1a39 feb4
00000010: cb3a 31ae 3531 9631 66b0 d8b7 12bc 8838
00000020: beb8 b4bb ccb6 5335 8eb1 f9b5 0d3a a1b4
00000030: 18b9 53bb 5234 dca8 5fa9 08bb 5bbb b9bc
00000040: b9b9 e1b9 9ebd c93c aabb 1abb fb32 6bb3
00000050: 603d 2db6 e737 8e3a 8d32 993f bbb9 9841
00000060: 8433 85bc 453c 11bd 3939 6bbb a839 ccb7
00000070: a7be fcbd d23b 7bb6 3140 3c40 c7c1 8e40
00000080: f038 09b8 45b3 d8b4 deba f636 71b9 8734
00000090: ca2e bab5 2328 f32c 3fa9 3d3b 9939 2333
000000a0: c63d 2a34 ea3a 43b9 3939 d732 5538 b827
000000b0: adbd 08b9 7d3a 03b7 60b5 bf31 c4c0 cd40
000000c0: adbb a7ab 3732 153d a034 bfb8 f0bf a1ba
000000d0: f236 c7b9 1936 7f37 01ab ffbb b7b9 503c
000000e0: e0bd f1ba 47bd 113a 4fb8 aca3 662d c9ae
000000f0: bbb9 45bc a340 40b6 fb38 f8c1 2c39 dabc
00000100: 893c 74bd 4aad 6f37 f63e 67c0 0930 e7b7
00000110: 1137 dac0 4f41 3641 9ebf 93b1 2ab8 a7b3
00000120: c1b9 f7bc 5bb3 1a40 703e 883d 2143 2642
00000130: afb1 5ec0 9d40 36bf 7542 6c3f 0441 3e39
00000140: 223e 77ba 1935 b9b8 e5b5 9e31 fb3c 2432
00000150: 25b7 01ba 0faa 8625 9eb9 7d3b 8fb6 3ab3
00000160: 773c 512b dc3d cdbe b13c c535 d033 972a
00000170: 61ba 7eba 643b 4cb7 91b9 0935 f6a7 5a3c
00000180: b4ad c2b5 7e3b e4af 9938 1d37 ffb5 1bba
00000190: 88b8 95aa 522c cda8 b3b4 7b24 7435 3938
000001a0: 2bb8 a0b1 0ebc 3a31 09bc f626 00a2 0fa5
000001b0: 13b9 c623 913b 39b8 4935 f5b9 7bac d4bc
000001c0: 733a a036 993d 0fb8 a93d 00ab b436 d1bd
000001d0: 9db5 b0b3 15ac fea6 aab9 b9ba c83c e631
000001e0: 3db7 2519 58b7 e93b 6435 6234 20b5 4db0
000001f0: 8abf dfb7 4237 c0bc 6c33 0ebb a02d c6ac
-0.53 -0.749 -0.4617 0.9487 -0.7354 0.3848 0.6377 -0.312
0.849 -0.09674 0.1627 0.1746 -0.1375 -0.4902 -1.018 0.5664
-0.593 -0.963 -0.4248 0.3328 -0.1736 -0.3733 0.7563 -0.2893
-0.6367 -0.9155 0.27 -0.03796 -0.04196 -0.879 -0.9194 -1.181
-0.7153 -0.735 -1.404 1.196 -0.958 -0.8877 0.2181 -0.2318
1.344 -0.386 0.494 0.8193 0.2047 1.899 -0.7163 2.797
0.2349 -1.13 1.067 -1.267 0.653 -0.9272 0.707 -0.4873
-1.663 -1.496 0.9775 -0.405 2.096 2.117 -2.889 2.277
0.617 -0.5044 -0.2272 -0.3027 -0.8584 0.435 -0.68 0.283
0.1061 -0.358 0.03232 0.07733 -0.041 0.905 0.6997 0.223
1.443 0.2603 0.8643 -0.6577 0.653 0.2137 0.5415 0.03015
-1.419 -0.629 0.811 -0.4382 -0.336 0.1796 -2.383 2.4
-0.9595 -0.05978 0.1942 1.2705 0.289 -0.5933 -1.984 -0.8286
0.434 -0.722 0.381 0.4685 -0.05472 -0.9995 -0.7144 1.078
-1.469 -0.8677 -1.319 0.7583 -0.5386 -0.014984 0.08435 -0.106
-0.7163 -1.067 2.318 -0.3906 0.6226 -2.984 0.6465 -1.213
1.134 -1.363 -0.08264 0.4646 1.74 -2.201 0.1261 -0.494
0.4417 -2.426 2.654 2.605 -1.904 -0.1742 -0.5205 -0.2391
-0.719 -1.241 -0.2299 2.05 1.609 1.383 3.564 3.074
-0.1776 -2.184 2.307 -1.803 3.229 1.855 2.508 0.6553
1.533 -0.808 0.3186 -0.5903 -0.3684 0.1755 1.245 0.1919
-0.4465 -0.7505 -0.04733 0.02158 -0.702 0.936 -0.41 -0.2258
1.116 0.05716 1.465 -1.7 1.173 0.3606 0.2441 0.05148
-0.7974 -0.8115 0.924 -0.456 -0.696 0.3147 -0.0311 1.088
-0.0891 -0.3599 0.9365 -0.1233 0.5747 0.4446 -0.3748 -0.763
-0.5664 -0.05142 0.0675 -0.0375 -0.2937 0.0175 0.3408 0.528
-0.521 -0.1758 -1.014 0.1633 -1.009 0.02719 -0.01172 -0.01976
-0.6343 0.01518 0.946 -0.528 0.3303 -0.7446 -0.07 -1.207
0.806 0.414 1.399 -0.5073 1.415 -0.0547 0.419 -1.454
-0.3508 -0.2402 -0.0638 -0.02731 -0.708 -0.8403 1.195 0.1843
-0.4524 0.002512 -0.459 0.989 0.337 0.274 -0.3203 -0.1344
-1.885 -0.492 0.4536 -1.1875 0.2319 -0.882 0.0879 -0.0746

depthwise_conv2d_3/Bias f2 [32]
00000000: 0000 0000 0000 0000 0000 0000 0000 0000
00000010: 0000 0000 0000 0000 0000 0000 0000 0000
00000020: 0000 0000 0000 0000 0000 0000 0000 0000
00000030: 0000 0000 0000 0000 0000 0000 0000 0000
0.0 0.0 0.0 0.0 0.0 0.0 0.0 0.0
0.0 0.0 0.0 0.0 0.0 0.0 0.0 0.0
0.0 0.0 0.0 0.0 0.0 0.0 0.0 0.0
0.0 0.0 0.0 0.0 0.0 0.0 0.0 0.0

conv2d_4/Kernel f2 [36, 1, 1, 32]
00000000: 9bb1 3325 af28 362e 7e29 4fa5 c329 681e
00000010: b5a9 baa5 d5a6 eb18 ed25 c622 dfa3 6a2a
00000020: 572e 2a21 5b21 98a5 2129 76aa 8b02 a7a6
00000030: 8e1c 52a4 9eae b1aa 6e98 232a cb28 0ca6
00000040: 93aa 842e 5031 4617 efa3 7fa8 062f 46ae
00000050: 3729 0e28 57a9 fd2e dcaa d7a9 112d 8c2d
00000060: 9430 1f2b 49aa b02f b1a2 60aa ed27 6128
00000070: 27a1 3a23 7ab3 34ae 9e2f 7bb6 5eac e22c
00000080: aca9 a22d a8ad d8ad 1b9b fcaa dd2a e127
00000090: 7c2b 4029 5a1f 632d 7a23 4e2c 1eac 09af
000000a0: ee2a a82a 09b1 7c1c eba5 3594 03ab 8422
000000b0: d028 5d27 c6b0 381e dba9 8e25 7f2c 141f
000000c0: d527 80a3 4ca5 a2a4 a3aa 7d28 0528 8321
000000d0: caac 84ac c928 1c2a 9bab 7521 74a5 cb24
000000e0: 801b 612a a922 ae24 d2a7 8499 0fac fd22
000000f0: 3f9c 2c26 3fae 362b 03a7 b9a6 401d 8d2d
00000100: 6aae 3baa 2bb0 5630 4fb2 07ac 102d 69a2
00000110: 3a2c 980e 7928 eb28 34a2 27a3 b831 e728
00000120: 672f 2c26 2baf 8b33 82ad 6ca9 e7ab 2ca6
00000130: b7ad 392f 41b2 c92f 2b28 e9b0 27b3 be33
00000140: a624 68a0 b0aa 8ea9 2fa9 482f e9ac 69ad
00000150: 272c 14ad a8ac 189c 70ac ca2b dbac 8daf
00000160: 3ba6 e1a5 d82e 53aa 50b0 ff1a e3aa 5ea6
00000170: ada5 d9a9 e5a0 5020 deab c62a 832c 4bad
00000180: 3ca5 94ac 162d f31e 8da6 be2c 0624 6420
00000190: cdb0 1d32 41ab 8b24 e9a2 3eae ed25 6022
000001a0: 88aa 1298 ee28 c9a9 d525 b3a4 4601 74a6
000001b0: 04aa fc2e dfab aaa8 16a2 9d10 372b ecad
000001c0: 2db0 eda3 e70a 532c fea9 b0a2 4ead c233
000001d0: 1f2b 7291 b2a9 4f1e 949f 33af 7bab 4832
000001e0: f72b 7c26 0820 dd2d d2aa ef17 f0ab 3998
000001f0: 2925 9e2c 7baa d0a8 8914 dab0 6d2c b430
-0.1752 0.02031 0.0366 0.09705 0.0429 -0.02074 0.045 0.006256
-0.0446 -0.02237 -0.02669 0.002401 0.02315 0.01323 -0.01537 0.0501
0.09906 0.010086 0.01046 -0.02185 0.04007 -0.05048 3.88e-05 -0.02599
0.004448 -0.01688 -0.1034 -0.05228 -0.002163 0.04794 0.03745 -0.02362
-0.05136 0.1018 0.166 0.001776 -0.015495 -0.03513 0.10974 -0.098
0.04074 0.03168 -0.04172 0.1092 -0.0536 -0.04562 0.07916 0.0867
0.1431 0.05563 -0.0491 0.1201 -0.01307 -0.0498 0.03096 0.0342
-0.01006 0.014114 -0.2336 -0.0969 0.119 -0.405 -0.06824 0.0763
-0.0443 0.088 -0.0884 -0.0913 -0.00347 -0.05457 0.05362 0.03078
0.05847 0.04102 0.00718 0.08417 0.0146 0.06726 -0.06433 -0.1099
0.05414 0.052 -0.1573 0.00438 -0.02312 -0.001027 -0.05478 0.012726
0.0376 0.02876 -0.1492 0.006073 -0.04575 0.0217 0.07025 0.006912
0.0306 -0.01465 -0.02069 -0.0181 -0.05185 0.03506 0.0314 0.010765
-0.0748 -0.07056 0.03738 0.04773 -0.05942 0.01066 -0.0213 0.01872
0.003662 0.04984 0.01301 0.01828 -0.03055 -0.002693 -0.0634 0.01365
-0.004147 0.02411 -0.0976 0.05634 -0.02739 -0.02626 0.005127 0.08673
-0.1002 -0.04868 -0.1302 0.1355 -0.1971 -0.0629 0.0791 -0.01252
0.06604 0.0004025 0.03494 0.03842 -0.012115 -0.01397 0.1787 0.0383
0.11566 0.02411 -0.112 0.2357 -0.08606 -0.04236 -0.06174 -0.02411
-0.0893 0.11285 -0.1954 0.12164 0.03256 -0.1534 -0.2235 0.242
0.01816 -0.008606 -0.05225 -0.0434 -0.0405 0.1138 -0.0767 -0.08453
0.0649 -0.07935 -0.07275 -0.003998 -0.06934 0.06085 -0.07587 -0.118
-0.02434 -0.02296 0.10693 -0.0494 -0.1348 0.003416 -0.0538 -0.02487
-0.02217 -0.0457 -0.00956 0.00842 -0.06146 0.05292 0.0705 -0.0827
-0.02045 -0.07153 0.07947 0.006786 -0.02559 0.0741 0.01572 0.008575
-0.15 0.191 -0.05667 0.01775 -0.0135 -0.09753 0.02315 0.01245
-0.05103 -0.001987 0.0385 -0.0452 0.02278 -0.01836 1.943e-05 -0.0252
-0.047 0.10913 -0.0615 -0.03644 -0.01189 0.000563 0.05637 -0.0925
-0.1305 -0.01548 0.0002106 0.06757 -0.0468 -0.01306 -0.0829 0.2424
0.05563 -0.0006647 -0.0445 0.00616 -0.0074 -0.1125 -0.05844 0.1963
0.06223 0.02533 0.00787 0.0916 -0.05328 0.001937 -0.062 -0.002062
0.02016 0.07214 -0.05063 -0.0376 0.001107 -0.1516 0.06915 0.147

conv2d_4/Bias f2 [36]
00000000: 7b25 c0bd bb2d ab37 dabd 9838 a938 66b2
00000010: 293c b23e e03b 25bb a5b9 053a 1fb8 5c37
00000020: 183f 1741 bb33 ddb9 8132 da1f 7eb4 a53e
00000030: 183f f8ba e23c 29b2 11b8 8031 8437 603c
00000040: 0a35 5a32 1639 0b31
0.02141 -1.4375 0.08954 0.4792 -1.463 0.574 0.5825 -0.2
1.04 1.674 0.9844 -0.893 -0.7056 0.7524 -0.515 0.46
1.773 2.545 0.2416 -0.733 0.2032 0.007668 -0.2808 1.661
1.773 -0.871 1.221 -0.1925 -0.5083 0.1719 0.4697 1.094
0.315 0.1985 0.6357 0.1576

depthwise_conv2d_4/Kernel f2 [1, 3, 3, 36]
00000000: eebb d835 683c a23b cb3b 1ba8 7135 773c
00000010: 45b8 8438 8536 9dbb 682f 57be f936 0aba
00000020: e237 9e2e ebbc 84bd 103e e8b8 ae3c 0a38
00000030: 37bc f030 c3b0 af39 5640 8eb3 bfc0 73bc
00000040: a5b5 4a41 3839 79b4 81be 0f29 663c c72f
00000050: 75b4 d2bb e6bc f83e f634 ca3d 133d 6cb5
00000060: c024 4bbf 5a3a 57bc 3a3b 8098 09bd 9ea8
00000070: 3338 efb3 b82d 7039 f5b7 943c e2bd 213e
00000080: 823d fdba bebd 94c0 0ec0 d73d 3bbd 42be
00000090: 46bc 1134 feb2 09bb 6fbb ffb6 f6b7 263c
000000a0: 8b2c 0534 0d34 d739 6db5 dfb0 4438 7dbc
000000b0: e72c b7b4 03b8 b43c 61b5 8a24 6ebb 853c
000000c0: fa36 3f26 5ebb be3d 673d ceb1 7a3b 21bc
000000d0: 7dbb 66be 62bb fdc0 8fbc 36b5 7439 353b
000000e0: 7d3b 702f 09bc cf37 16bd a4ac 6036 01be
000000f0: 28b8 91ad 41b8 8038 2e3d 5623 3c34 28bc
00000100: a33c 89bc b13e 89af 6abe 58b6 8533 2f3c
00000110: f33d adbc 25bb da34 46b8 ac40 1140 4138
00000120: c236 7bbf 143c 51b1 60b9 61bf 07be 903e
00000130: 3837 c83d 813e 6ab7 89bf 4235 c6bb eba1
00000140: 593e 3cc1 b33d 72aa 0840 57b8 b635 30c0
00000150: 193b 5c41 a5bf 003f d925 0a35 642f 2cc0
00000160: 83c0 aa3f a53a d1bf 2e24 712b acb9 2cbe
00000170: 1cbd 1dbc ec36 5233 333b b238 cb3e f43c
00000180: c4b9 9a38 02bb 5bb8 699d 86aa b138 803e
00000190: f62d 05ac b9bb d3b8 f039 ac37 1eb9 153c
000001a0: 773f b53e 3b3e f829 06c0 aebc 0bb8 02c0
000001b0: 8125 b0b9 f210 a136 38b4 9732 c4b6 b6b5
000001c0: 77bc 72b9 f030 d437 a4b3 5f3c 3db9 7c3c
000001d0: b33c f7ad 2c39 8930 dcb0 a4b7 b63e 97b0
000001e0: 0db8 bab8 11ae 91b7 df3a 70ba 70ab 1dac
000001f0: 8eb3 753c 2140 3fb4 573a 9ab9 0835 ca37
-0.991 0.3652 1.102 0.954 0.974 -0.03207 0.34 1.116
-0.5337 0.5645 0.4075 -0.9517 0.1157 -1.585 0.4358 -0.755
0.4927 0.1034 -1.2295 -1.379 1.516 -0.6133 1.17 0.505
-1.054 0.1543 -0.1488 0.7104 2.168 -0.2361 -2.373 -1.112
-0.3528 2.645 0.6523 -0.2795 -1.626 0.03952 1.1 0.1215
-0.2786 -0.9775 -1.225 1.742 0.31 1.447 1.269 -0.3389
0.01855 -1.823 0.794 -1.085 0.9033 -0.002197 -1.259 -0.03607
0.525 -0.2479 0.08936 0.6797 -0.4973 1.145 -1.471 1.532
1.377 -0.8735 -1.436 -2.29 -2.027 1.46 -1.308 -1.564
-1.068 0.2542 -0.2185 -0.8794 -0.929 -0.4373 -0.4976 1.037
0.071 0.2512 0.2532 0.73 -0.339 -0.1522 0.533 -1.122
0.0766 -0.2947 -0.5015 1.176 -0.3362 0.01773 -0.9287 1.13
0.436 0.0244 -0.921 1.436 1.351 -0.1814 0.9346 -1.032
-0.936 -1.6 -0.923 -2.494 -1.14 -0.3257 0.6816 0.901
0.936 0.1162 -1.009 0.488 -1.271 -0.0725 0.3984 -1.501
-0.5195 -0.087 -0.5317 0.5625 1.295 0.01433 0.2646 -1.039
1.159 -1.134 1.673 -0.11774 -1.604 -0.3965 0.235 1.046
1.487 -1.169 -0.893 0.3032 -0.534 2.336 2.033 0.5317
0.4224 -1.87 1.02 -0.1661 -0.672 -1.845 -1.507 1.641
0.4512 1.445 1.626 -0.4634 -1.884 0.3286 -0.9717 -0.01156
1.587 -2.617 1.425 -0.05035 2.016 -0.5425 0.357 -2.094
0.887 2.68 -1.911 1.75 0.02284 0.315 0.1155 -2.086
-2.256 1.916 0.8306 -1.954 0.01633 0.05814 -0.709 -1.543
-1.277 -1.028 0.4326 0.2288 0.9 0.587 1.698 1.238
-0.7207 0.575 -0.876 -0.5444 -0.005283 -0.05096 0.5864 1.625
0.09314 -0.0628 -0.9653 -0.603 0.742 0.4795 -0.6396 1.0205
1.866 1.677 1.558 0.04663 -2.012 -1.17 -0.5054 -2.004
0.0215 -0.711 0.0006037 0.4143 -0.2637 0.2059 -0.4229 -0.357
-1.116 -0.6807 0.1543 0.4893 -0.2388 1.093 -0.655 1.121
1.175 -0.0932 0.6465 0.1417 -0.1519 -0.4775 1.678 -0.1434
-0.5063 -0.591 -0.0948 -0.473 0.859 -0.8047 -0.0581 -0.0643
-0.2361 1.114 2.064 -0.2654 0.7925 -0.7 0.3145 0.4868

depthwise_conv2d_4/Bias f2 [36]
00000000: 0000 0000 0000 0000 0000 0000 0000 0000
00000010: 0000 0000 0000 0000 0000 0000 0000 0000
00000020: 0000 0000 0000 0000 0000 0000 0000 0000
00000030: 0000 0000 0000 0000 0000 0000 0000 0000
00000040: 0000 0000 0000 0000
0.0 0.0 0.0 0.0 0.0 0.0 0.0 0.0
0.0 0.0 0.0 0.0 0.0 0.0 0.0 0.0
0.0 0.0 0.0 0.0 0.0 0.0 0.0 0.0
0.0 0.0 0.0 0.0 0.0 0.0 0.0 0.0
0.0 0.0 0.0 0.0

conv2d_5/Kernel f2 [42, 1, 1, 36]
00000000: e6b0 54ac 3228 281c 052c b5aa f62b d0a6
00000010: 082c 3828 eba2 2630 8791 65ac f3ac b0a1
00000020: 9a16 7f29 29a3 5f22 21af d72e aa26 0b9a
00000030: d5a4 97a3 f2a8 75a4 10aa 482c 09a4 b726
00000040: e024 b3ac a528 9e30 83a3 7034 9caa 1f2f
00000050: 7a29 33a5 69ab 9925 fdae 1cb2 4027 11ad
00000060: 132d 312d 0125 f1ae 3b2c 412c 61a9 e3a7
00000070: 36ad d49d 3da3 092f ef9f e92c dfad 312b
00000080: 8428 849f 592d 3131 c522 26b1 dfaf 50a9
00000090: bfae b320 5fb0 17a9 a4a4 2f28 032e 37ae
000000a0: 972d 0da9 57a7 c022 d524 f22b b79c 20ac
000000b0: 65ad b528 bb2c 221d e7ad 08af bfaf 0b30
000000c0: 8028 caa8 292e ffab a128 18b0 26a6 9230
000000d0: 3625 88ae 37a2 162e 40ac a0a6 58a9 9626
000000e0: cb27 8aa9 c3a4 5825 1424 5e25 092a 0829
000000f0: b42a 4b30 862a cdad acae 209a 0725 1a28
00000100: 7fa3 4828 0d24 c42a 18ad 1714 2421 d725
00000110: 0fab 8921 1122 d127 c41b 7fad f028 4623
00000120: 1a34 772c faa9 8727 b522 1e2e 5332 c2a4
00000130: 4f2f 5bac 3eb0 b3b1 c69d c518 02a5 6ea5
00000140: e928 2a2c 01b2 1930 6ea6 ff29 8ba6 762d
00000150: 0a31 2fa9 e82b 47b0 6e9c 4730 8bb1 9e29
00000160: ffad e92b fc2a cd25 65a9 c0ac 59a2 0927
00000170: 9028 4234 b72a baac ebaf 81af 28a5 b12f
00000180: 832c 44b1 40ad e5a2 9ba7 492b 8a2e f127
00000190: 4929 74aa 2d2e 9ca9 209e 8c28 6129 cea7
000001a0: 44a0 ac97 b628 8f2d 3724 5aa9 8dac a4a8
000001b0: ffa9 ce28 bdae 0ab0 c6a8 e425 6530 7fa9
000001c0: 8eae cc24 6aa5 6e26 c228 562b 99a9 512b
000001d0: 2526 c426 bd21 e72d 392c 24a8 0a2e 6a28
000001e0: 5c9e 85b1 bc2b f12d b7a7 cd1e 26ac faa0
000001f0: 30b0 bc29 41af 1c2d 692e f925 39ae b3a9
-0.1531 -0.0676 0.03278 0.00406 0.0628 -0.0524 0.0622 -0.02661
0.063 0.03296 -0.01351 0.1296 -0.0006747 -0.06866 -0.07733 -0.01111
0.001612 0.04294 -0.013985 0.01244 -0.1114 0.1069 0.02603 -0.00295
-0.01888 -0.014824 -0.03864 -0.01741 -0.04736 0.0669 -0.01576 0.02623
0.01904 -0.0734 0.0363 0.1443 -0.01467 0.2773 -0.05164 0.11127
0.0428 -0.02031 -0.0579 0.02187 -0.1092 -0.1909 0.02832 -0.07916
0.0793 0.0811 0.01955 -0.10846 0.0661 0.06647 -0.04202 -0.0308
-0.0814 -0.00569 -0.01414 0.1099 -0.007748 0.0767 -0.09174 0.05618
0.03528 -0.00734 0.08356 0.1622 0.01322 -0.1609 -0.123 -0.0415
-0.1054 0.00918 -0.1366 -0.03976 -0.01813 0.03268 0.09393 -0.0971
0.08734 -0.03946 -0.02867 0.01318 0.01888 0.06207 -0.004604 -0.06445
-0.0843 0.03677 0.0739 0.005013 -0.0922 -0.10986 -0.12103 0.1263
0.03516 -0.0374 0.09625 -0.06247 0.03616 -0.1279 -0.02402 0.1428
0.02036 -0.10205 -0.01214 0.0951 -0.0664 -0.02588 -0.04175 0.02573
0.03044 -0.04327 -0.0186 0.02087 0.01593 0.02097 0.04715 0.0393
0.05237 0.1342 0.05096 -0.09064 -0.10425 -0.00299 0.01964 0.03204
-0.01464 0.03345 0.01582 0.05286 -0.0796 0.0009985 0.01004 0.02281
-0.05515 0.01081 0.01185 0.03053 0.003792 -0.0859 0.03857 0.014206
0.2563 0.06976 -0.0467 0.0294 0.0131 0.0956 0.1976 -0.01859
0.1142 -0.06805 -0.1326 -0.1781 -0.00564 0.002329 -0.01956 -0.02121
0.03836 0.06506 -0.1876 0.128 -0.02512 0.04684 -0.02556 0.0853
0.1575 -0.0405 0.06177 -0.1337 -0.004326 0.1337 -0.1732 0.04388
-0.0937 0.0618 0.05457 0.02266 -0.04214 -0.0742 -0.0124 0.02748
0.03564 0.266 0.05246 -0.07385 -0.1237 -0.11725 -0.02014 0.1202
0.0705 -0.1646 -0.08203 -0.013466 -0.02971 0.05692 0.1022 0.03102
0.0413 -0.0504 0.0965 -0.04382 -0.00598 0.03552 0.04202 -0.03049
-0.00833 -0.001873 0.0368 0.08685 0.01646 -0.0418 -0.0711 -0.03625
-0.04684 0.03754 -0.1053 -0.1262 -0.0373 0.02301 0.1373 -0.04294
-0.1024 0.01874 -0.02115 0.02512 0.03717 0.0573 -0.04373 0.05716
0.024 0.02643 0.01121 0.0922 0.066 -0.03235 0.09436 0.0345
-0.00621 -0.1725 0.06042 0.09283 -0.03014 0.00664 -0.0648 -0.00972
-0.1309 0.0448 -0.11334 0.07983 0.10016 0.02333 -0.0972 -0.04453

conv2d_5/Bias f2 [42]
00000000: cc34 263a 873b b3a6 5c3d 1735 1db8 7cad
00000010: 8cbd 57b1 0e38 fcb5 cdb3 be33 c730 00b9
00000020: 983b fd35 fe35 37b8 c9b1 4c40 253a 4fb5
00000030: 86bb 3e2a 75b1 27bc f43a 9b3d 23bf dc3c
00000040: 3e2a 32af 79b0 3539 06b7 1738 7eb0 8129
00000050: 842e dcb7
0.2998 0.7686 0.941 -0.02617 1.34 0.318 -0.514 -0.0857
-1.387 -0.1669 0.507 -0.374 -0.2438 0.242 0.1493 -0.625
0.949 0.3743 0.3745 -0.527 -0.1808 2.148 0.768 -0.3318
-0.9404 0.04877 -0.1705 -1.038 0.869 1.401 -1.784 1.215
0.04877 -0.1124 -0.1398 0.651 -0.439 0.511 -0.1404 0.043
0.1018 -0.4912

depthwise_conv2d_5/Kernel f2 [1, 3, 3, 42]
00000000: 7dbd ec3a 6b3d a736 12be cb2d b1b5 5135
00000010: a7a7 313d 42b8 9934 48ac cbbc 773b 233c
00000020: f638 4bbf d239 a5b0 2b3d 3e3b 5337 b12e
00000030: 143b 003c 763c 932e e2bf 28b7 e53e 4ebc
00000040: 5a38 7f41 493e 9ebd ea3c 61b7 81bf b8b4
00000050: 0641 5dc1 46bc 5a3c 3b3e 6c32 89bf 8337
00000060: 7eb9 3b3e eb35 413d 74b8 533c 0339 c6bc
00000070: 083f d23b 983f 21bf 803b 92b8 1340 0e3d
00000080: b839 ae3c 663d 603c 5b39 95ae 8ab5 49b9
00000090: 3640 6ebe 793f 5542 5f40 7ebc 1d3f 6db2
000000a0: 24c3 b03c e141 59c0 beb3 7e3c 4139 21aa
000000b0: 0cbb 8d38 bda1 ca3e f237 aa39 1fb8 4538
000000c0: f03a 73b1 2d3c 9b35 133c 07b9 fe3a 5aba
000000d0: 553c 9f39 8c3a ee3c 9239 ed36 342b 66b0
000000e0: d13a 6ab5 d63a 62bb 1040 8840 343c 943a
000000f0: cd3d feba e9c0 9841 fe3a 4fba 7ab9 1c3c
00000100: 503b 113b c8be 7038 0eb5 c53c b436 8f3e
00000110: 82bc 9f3a 3b3c 3dbd 8c3c 163d 083d 15bf
00000120: 8036 15bb 9336 a93c 0234 5434 583e 923f
00000130: 0f39 1d37 28bc 50b8 663f c835 5a3c 2740
00000140: 7d3b 87c1 883f 71bf 82b4 863d 3c41 acc3
00000150: 3cb9 7c3f 083d 0f3c 12bf 0f3c 5a39 8d41
00000160: d43c 5440 bdbd 943d 0740 02bd c23f 043f
00000170: fb3e 2ec0 e6b6 99be 543b d33e a03c ed39
00000180: ee40 bb40 543d fb3c ceb4 d8bc b440 4cb6
00000190: 5f40 3241 fc3f f9bc af40 b3c0 96bf 6042
000001a0: 8543 bdc2 c7ac 3f3d f83b de34 50b9 673b
000001b0: 5f3c 1741 5b3b 2a39 b9b8 0c3b cd3e 00b5
000001c0: 6e3d 3236 7e3c 56b5 7cbb 82bc cc3c 6a3b
000001d0: 323d 8239 c33d 533e c03b f63b 363c 99b8
000001e0: 8e3d 8fba 203f 4b3d 8f3d 023d 763f 6abc
000001f0: 94bd a042 0c3e b9bd a22c 473a 2ea4 5939
-1.372 0.865 1.3545 0.4158 -1.518 0.0905 -0.3557 0.3323
-0.02989 1.298 -0.532 0.2874 -0.0669 -1.198 0.933 1.034
0.62 -1.823 0.7275 -0.1451 1.292 0.9053 0.4578 0.10455
0.885 1.0 1.115 0.1027 -1.971 -0.4473 1.724 -1.076
0.544 2.748 1.571 -1.404 1.229 -0.4612 -1.876 -0.295
2.512 -2.682 -1.068 1.088 1.558 0.2007 -1.884 0.4695
-0.6865 1.558 0.3699 1.313 -0.5566 1.081 0.6265 -1.193
1.758 0.9775 1.898 -1.782 0.9375 -0.5713 2.037 1.264
0.715 1.17 1.35 1.094 0.6694 -0.10284 -0.3462 -0.6606
2.105 -1.607 1.868 3.166 2.186 -1.123 1.778 -0.2008
-3.57 1.172 2.94 -2.174 -0.242 1.123 0.6567 -0.04788
-0.881 0.569 -0.01121 1.697 0.4966 0.708 -0.515 0.5337
0.867 -0.1703 1.044 0.3503 1.019 -0.6284 0.874 -0.794
1.083 0.7026 0.8184 1.232 0.6963 0.4329 0.05627 -0.1375
0.852 -0.3384 0.8545 -0.923 2.031 2.266 1.051 0.8223
1.45 -0.874 -2.455 2.797 0.874 -0.7886 -0.6846 1.027
0.914 0.8833 -1.695 0.5547 -0.316 1.192 0.419 1.64
-1.127 0.8276 1.058 -1.31 1.137 1.271 1.258 -1.7705
0.4062 -0.8853 0.411 1.165 0.2505 0.2705 1.586 1.893
0.6323 0.4446 -1.039 -0.539 1.85 0.3613 1.088 2.076
0.936 -2.764 1.883 -1.86 -0.2817 1.381 2.617 -3.836
-0.6543 1.871 1.258 1.015 -1.768 1.015 0.669 2.775
1.207 2.164 -1.435 1.395 2.014 -1.252 1.939 1.754
1.745 -2.09 -0.4312 -1.649 0.916 1.706 1.156 0.7407
2.465 2.365 1.332 1.245 -0.3003 -1.211 2.352 -0.3936
2.186 2.598 1.996 -1.243 2.342 -2.35 -1.896 3.188
3.76 -3.37 -0.07465 1.312 0.996 0.3042 -0.664 0.9253
1.093 2.545 0.9194 0.6455 -0.5903 0.881 1.7 -0.3125
1.357 0.3872 1.123 -0.3335 -0.9355 -1.127 1.199 0.927
1.299 0.6885 1.44 1.581 0.9688 0.995 1.053 -0.5747
1.389 -0.82 1.781 1.323 1.39 1.252 1.865 -1.104
-1.395 3.312 1.512 -1.431 0.0724 0.7847 -0.01633 0.6685

depthwise_conv2d_5/Bias f2 [42]
00000000: 0000 0000 0000 0000 0000 0000 0000 0000
00000010: 0000 0000 0000 0000 0000 0000 0000 0000
00000020: 0000 0000 0000 0000 0000 0000 0000 0000
00000030: 0000 0000 0000 0000 0000 0000 0000 0000
00000040: 0000 0000 0000 0000 0000 0000 0000 0000
00000050: 0000 0000
0.0 0.0 0.0 0.0 0.0 0.0 0.0 0.0
0.0 0.0 0.0 0.0 0.0 0.0 0.0 0.0
0.0 0.0 0.0 0.0 0.0 0.0 0.0 0.0
0.0 0.0 0.0 0.0 0.0 0.0 0.0 0.0
0.0 0.0 0.0 0.0 0.0 0.0 0.0 0.0
0.0 0.0

conv2d_6/Kernel f2 [48, 1, 1, 42]
00000000: a995 f21c 1e9d b3ab 19ae 1ea7 b9ab 4a29
00000010: 6a24 29ad 75a8 8c28 ec9d fc97 72ac 351e
00000020: 9024 8326 24a9 041c 29aa 371f d2a5 c8a4
00000030: 1b27 a623 7ea3 ab1d 9b90 58a2 5e25 8a28
00000040: 4ea8 5125 292c 9c2f 5820 90a7 c828 9d28
00000050: 9620 f8a8 ed1b 042d 50a8 0c2d 4e2e 7826
00000060: 5b20 e6a8 1722 7027 c9a9 9aaa 6826 1221
00000070: e22a 69a4 2325 742b f3a8 17a2 b2ab ef0d
00000080: 15ac 381c 7e25 5cab 3023 97ac 2f28 07aa
00000090: 472c b726 e4a1 1e26 7631 dba3 b093 5a2a
000000a0: 46aa abaa b3a5 b4a9 0729 88a7 1faa a326
000000b0: 3099 f22e 562e 672f a0a6 bc98 ae20 e3a9
000000c0: 972c 70aa 12a1 5725 a82d c3a5 03a9 86a6
000000d0: ab1f e524 54a5 bba4 12a7 e2ac 32ad b7a0
000000e0: 782d 5aa4 4b31 3c2c 1422 0fad 16a1 2225
000000f0: 7b26 28ab a0a0 772d 58a6 432d 9521 7da4
00000100: 332b 6521 08a9 3d23 0f29 4d26 4525 0021
00000110: 3aa9 53a3 7ba3 73a7 a29b d5ac 2e9e 67a3
00000120: 6827 74a9 aa28 79a0 faa0 3f16 fea8 a528
00000130: 36a9 a79f df12 331c bd27 ce1f ab27 fc24
00000140: 8824 f6a5 60a4 4023 b328 6fa3 282b 6f24
00000150: 4fae a9a8 0e26 f89e f99d 6728 342d 5fac
00000160: 10ac acae 0f2e aaac 8e27 9ba4 7aa9 b028
00000170: 492c 3cac a32c 6ea9 c4aa f127 0c30 f5a0
00000180: cfae 2cac 9aa9 1f2d 86ad 5dab d128 0426
00000190: 549e a69e 6fa6 4024 87b1 472c caad 3628
000001a0: 529f 0aa1 389d c322 e4ad 79af 6a21 4ba0
000001b0: 4e9d ca2e 05ab 57a5 d42d 07aa 57af 77a1
000001c0: 0fa7 2d23 5ab0 382f 66a5 6dae 8e2b 7b2d
000001d0: a72e 29a9 79ac 5930 74a7 7528 b11f 39a6
000001e0: 04a5 6828 36ad a02a 33ad d125 d2ad 632c
000001f0: 6127 48ad ac9f 732f ec9c 39a6 0c2b 10a5
-0.001382 0.00483 -0.004997 -0.06015 -0.0953 -0.0278 -0.06033 0.04132
0.01724 -0.0806 -0.03482 0.03552 -0.005783 -0.001949 -0.06946 0.00606
0.01782 0.02544 -0.04016 0.00392 -0.04813 0.007046 -0.02274 -0.01868
0.02776 0.01494 -0.01463 0.005535 -0.000562 -0.01239 0.02097 0.03546
-0.03363 0.02077 0.065 0.1189 0.008484 -0.02954 0.03735 0.03604
0.00896 -0.03882 0.00387 0.07837 -0.0337 0.07886 0.0985 0.02527
0.00851 -0.03827 0.011894 0.02905 -0.0452 -0.05157 0.02502 0.0099
0.05377 -0.01723 0.02007 0.05823 -0.03867 -0.011894 -0.06012 0.0003622
-0.0638 0.00412 0.02145 -0.0575 0.01404 -0.0717 0.03268 -0.0471
0.06683 0.02623 -0.011505 0.0239 0.1707 -0.01534 -0.0009384 0.04962
-0.049 -0.0521 -0.02226 -0.04456 0.03928 -0.02942 -0.04782 0.02592
-0.002533 0.1085 0.099 0.11566 -0.02588 -0.002312 0.00914 -0.046
0.0717 -0.0503 -0.0099 0.02086 0.0884 -0.0225 -0.03915 -0.02548
0.00749 0.01912 -0.02081 -0.01848 -0.02762 -0.0763 -0.0812 -0.00921
0.08545 -0.017 0.1654 0.06616 0.01187 -0.07904 -0.00993 0.02005
0.02531 -0.0559 -0.00903 0.0854 -0.02478 0.0822 0.0109 -0.01753
0.05624 0.01054 -0.0393 0.01414 0.03952 0.02461 0.02058 0.009766
-0.04083 -0.014305 -0.01461 -0.0291 -0.003727 -0.0755 -0.006035 -0.01446
0.02893 -0.0426 0.03644 -0.008736 -0.00972 0.001525 -0.039 0.0363
-0.0407 -0.007473 0.0008388 0.0041 0.03023 0.00762 0.02995 0.01947
0.0177 -0.02328 -0.01709 0.01416 0.0367 -0.01452 0.0559 0.01732
-0.0986 -0.0364 0.02365 -0.006805 -0.005833 0.0344 0.0813 -0.0683
-0.0635 -0.10425 0.09467 -0.0729 0.02951 -0.01799 -0.0428 0.03662
0.06696 -0.06616 0.07245 -0.04242 -0.05286 0.03102 0.1265 -0.00968
-0.1064 -0.0652 -0.04376 0.08 -0.0863 -0.05753 0.03763 0.0235
-0.00618 -0.006493 -0.02513 0.0166 -0.1727 0.06683 -0.09045 0.0329
-0.00715 -0.00984 -0.005096 0.01321 -0.09204 -0.11676 0.010574 -0.008385
-0.00518 0.1061 -0.05484 -0.02086 0.09106 -0.0471 -0.1147 -0.01067
-0.02757 0.014015 -0.136 0.1128 -0.02109 -0.1004 0.05902 0.08563
0.10394 -0.0403 -0.0699 0.1359 -0.02911 0.03482 0.00751 -0.0243
-0.01959 0.03442 -0.0814 0.05176 -0.08124 0.02272 -0.09094 0.06854
0.02882 -0.0825 -0.007492 0.1164 -0.004807 -0.0243 0.05505 -0.01978
