mediapipe/models/face_detection_front.tflite (tflite, 423256 bytes, 74 tensors)

conv2d/Kernel f4 [24, 5, 5, 3]
000000 20 b9 16 3d 7a d8 6b bd ec 81 8a bd e9 34 4e bd
       0.036797643 -0.057579495 -0.06763062 -0.050343428
000010 5c f6 aa bc fb cc e9 bb 7a e8 a8 bd 79 d0 97 3c
       -0.020869426 -0.0071350313 -0.082474664 0.018532025
000020 f7 e3 01 3d f8 5d d1 bd 89 13 38 3c bc 8f e5 bc
       0.031711545 -0.10223001 0.011235126 -0.02802264
000030 5a fd 24 bd 40 c9 2f 3d 96 3c 45 3c 8c 22 1e bd
       -0.040280677 0.042916536 0.012038371 -0.038607165
000040 ef 73 b3 bd b5 91 21 bd fd 9a 1a 3d 8c ba f4 3d
       -0.08762347 -0.039445598 0.037745465 0.119496435
000050 35 15 0b 3e 25 be a8 3d 9b 4b 52 3e ee 67 3b 3e
       0.13582309 0.08239392 0.20536654 0.18301365
000060 01 20 d3 bb 7c fa f5 3d bd ee 95 3d 45 0a 9c 3b
       -0.006443024 0.12010667 0.07320926 0.0047619664
000070 e9 c7 b9 3d 9b 47 83 3d da d5 f2 3c eb fa 45 bc
       0.09071333 0.06410142 0.029642988 -0.012083749
000080 df 05 a3 3c 13 96 bc 3d cb f4 02 3e 82 4c 05 3e
       0.01990026 0.09208312 0.12788694 0.13017467
000090 be 10 c3 3d 69 ec 07 3e d0 da d9 3d 49 76 da bc
       0.09524678 0.13273777 0.10637438 -0.02666773
0000a0 33 a0 d8 3c 81 b0 de 3b d6 16 83 3b 6e 2d 32 3d
       0.026443576 0.0067959432 0.004000525 0.043500356
0000b0 28 79 80 3c 73 a8 10 3d 33 4d 6c bd 03 1f 26 bd
       0.015682772 0.035316896 -0.05769081 -0.04055692
0000c0 ef 10 b8 bc c7 46 85 bd 9a 22 57 bd 0d d1 6c bd
       -0.022469012 -0.0650764 -0.052523233 -0.057816554
0000d0 78 cd df bd 98 78 86 bd 40 5d 6b bd 90 15 d7 bd
       -0.10927862 -0.0656597 -0.057461977 -0.105021596
0000e0 a0 64 82 bd 07 b0 64 3c a4 8a 8a bc 39 76 aa 3b
       -0.06366849 0.013957984 -0.016911812 0.0052020815
0000f0 ab 8b 39 3d f1 ae 64 bd 96 6c 1e bd 82 c6 b2 3c
       0.045299213 -0.0558309 -0.038677774 0.021823172
000100 8a 05 ca bd 05 ad 8c bd e9 85 44 bb be a0 f7 bd
       -0.09864338 -0.06868938 -0.0029987043 -0.12091206
000110 5b 3d b1 bd fb a7 8d 3c 94 88 ac bd 71 12 6d bd
       -0.08654281 0.017292013 -0.08424488 -0.057878915
000120 04 30 3c 3d 60 8a 0a bd 26 fb 07 bd f2 a7 35 3d
       0.04594423 -0.03382337 -0.0331985 0.04434962
000130 c4 4e 8b 3d 67 58 91 bd bd b4 7b bd 95 7a 3e 3e
       0.06802133 -0.070969395 -0.061451662 0.18601449
000140 ed a5 1c be a1 77 3e bd 81 92 32 3e ba a1 09 be
       -0.1529767 -0.046500806 0.174387 -0.134406
000150 d3 89 99 3c b6 34 87 3d 1c e4 25 be 0c 56 1f 3e
       0.018742478 0.06601851 -0.16200298 0.15560168
000160 cb 52 68 bd b5 b1 58 bd 8f 88 34 bd 8a 2a 3d 3e
       -0.056719583 -0.05290385 -0.044075545 0.18473259
000170 a2 20 1e be 0c b7 3c be 74 f8 d1 3e 93 7c 85 be
       -0.15442136 -0.18429202 0.41009867 -0.26071605
000180 2c c0 3f be 2e f2 f7 3e 5e 71 74 be 32 ba ff bd
       -0.18725652 0.48426956 -0.23871371 -0.12486686
000190 35 79 6e 3e a4 23 3a be 82 ad 85 3d 4c b4 91 bd
       0.23288424 -0.18177658 0.065272346 -0.07114467
0001a0 08 67 cb bb 49 e2 33 3c 21 78 5d 3d 26 00 85 bd
       -0.0062073506 0.010979244 0.054069642 -0.06494169
0001b0 97 b3 22 bd 0f 8e ad 3e b5 92 3b be 11 f3 25 bd
       -0.03972205 0.33897445 -0.18317683 -0.04051501
0001c0 b5 9d b9 3e fa 03 70 be 07 07 a5 bc 44 aa 07 3e
       0.36253133 -0.23439017 -0.020144952 0.13248545
0001d0 59 52 f0 bd 45 d1 53 3d da 9d 68 bd 1b 76 bd 3c
       -0.117344566 0.051713247 -0.056791164 0.023127606
0001e0 10 fd 58 bc 2c 8a 2d bd 40 b9 a6 3c 71 e3 06 3d
       -0.013243929 -0.0423681 0.020352006 0.03293175
0001f0 47 f8 a4 3b f5 52 8b bd 8f 3e c7 3c 0c 68 16 3d
       0.00503448 -0.06802932 0.024321822 0.03672032
000200 8c 2a aa bd 62 26 a2 3c 92 07 b4 bc 7d 41 91 bc
       -0.083088964 0.019793693 -0.021976266 -0.017731423
000210 36 38 16 3c 3d 52 a9 bd 24 5d 84 3d e2 59 6b bd
       0.009168675 -0.08267639 0.06463078 -0.057458766
000220 9e 13 80 bd 5c 37 04 3e 71 d1 72 3b af ab c1 bd
       -0.06253742 0.12911743 0.0037051106 -0.09456574
000230 e6 91 c6 3d e6 bf 82 bb 37 ed 87 bd 84 69 f0 3d
       0.09695797 -0.003990161 -0.06637042 0.117388755
000240 34 26 b2 36 8a b0 be bd 1f 6f c6 3d a0 2c f9 bb
       5.309261e-06 -0.09311016 0.096891634 -0.0076041967
000250 6d d7 a7 bd ad de c2 3d 2a e8 11 bd 77 54 b6 bc
       -0.08195386 0.09515128 -0.0356218 -0.022257073
000260 78 21 87 3d 0e b6 c1 3c 9d a7 bd ba f4 c4 26 3d
       0.065981805 0.02364638 -0.0014469508 0.040715173
000270 46 46 75 3c d0 b6 92 bb f5 ce 79 3c b5 8c bb 3c
       0.014970368 -0.0044773594 0.015247096 0.022894243
000280 7d ce 06 3d 57 0e 09 3d 07 6b aa bd 06 9e 52 bd
       0.032911766 0.03346094 -0.08321195 -0.051420234
000290 05 2f 9b bd bb a4 c7 3d bb d4 62 bc 4b cc 9d 3d
       -0.07577328 0.09748217 -0.013844664 0.077049814
0002a0 2d c2 ff 3d b3 bb b9 bd dd 7c a0 bb 19 f7 8a 3d
       0.12488208 -0.09069004 -0.0048976974 0.067854114
0002b0 89 05 0c be 6a f1 c8 bc 51 e4 20 3e da bb 85 3c
       -0.13673986 -0.024529178 0.15712096 0.016324926
0002c0 28 e6 8b 3d 80 d5 25 3d bf 0e e5 3b 61 6e b5 3c
       0.06831008 0.040486813 0.0069902833 0.02214736
0002d0 50 a9 b4 3c 92 9c 2b bd d5 f5 b7 3c 49 c2 bc 3d
       0.02205339 -0.041897364 0.022456089 0.092167445
0002e0 59 8c dc bd f7 2f 28 bd 16 7c c5 3d 62 4e 1f be
       -0.10768957 -0.041061368 0.09642808 -0.15557244
0002f0 b6 3c a5 bd c1 34 b9 3d 1f b1 83 bd 15 83 96 bb
       -0.0806822 0.09043265 -0.064302675 -0.004593263
000300 89 2d f9 ba 53 c9 aa bd 01 8b bf bc e0 34 ae bc
       -0.0019010763 -0.08339181 -0.023381712 -0.021265447
000310 55 69 8d 3c 1a fe 03 3d 3d a4 04 3e 16 51 e7 3c
       0.01726214 0.032224752 0.12953277 0.028236907
000320 01 24 0c 3c fb 7b 02 3e 04 7f 35 bd e5 28 89 bd
       0.008553506 0.12742607 -0.044310585 -0.06697253
000330 54 50 01 3e 55 a3 57 bd b7 0b 30 bd 97 63 cd 3c
       0.12628299 -0.052646 -0.042979922 0.025071902
000340 5a 47 95 bd cf 61 d9 bc 65 24 1a be 86 88 88 bc
       -0.07289 -0.026535897 -0.15052946 -0.016666662
000350 4a 75 02 3d 5c c4 02 bd 82 bf f3 3b 73 1d b6 3c
       0.031850137 -0.031925544 0.007438601 0.02223084
000360 b4 a4 6a bc 56 bc 9d 3b 2e 8a 3e bc ed f7 77 3d
       -0.014321495 0.004813711 -0.011629624 0.060539175
000370 4e f6 a3 ba 91 44 10 3d 56 d6 09 3c 36 a7 16 3c
       -0.0012509318 0.03522164 0.008412918 0.00919514
000380 d6 49 50 3d a7 74 61 bd 76 75 3d bc 70 1a 1f 3e
       0.050851665 -0.05504289 -0.011563649 0.15537429
000390 c5 a4 89 bd 3a 50 b2 bd ea 5d 38 3d 53 a1 20 3d
       -0.067208804 -0.08706708 0.04501144 0.03921635
0003a0 e0 01 94 bd 99 81 fd 3a e8 29 1d 3d 84 c9 64 bd
       -0.0722692 0.0019340991 0.038370043 -0.055856243
0003b0 26 45 c7 ba 4c 5c 4c bd 73 e9 13 bc 02 c1 b9 3c
       -0.0015203103 -0.04989271 -0.009027827 0.022675041
0003c0 95 f2 12 3d ae f7 87 bc 3b ee ab 3d a0 bb 91 3d
       0.035875876 -0.016597595 0.08395048 0.07115865
0003d0 22 90 bf bd e1 d7 ba 3c 5c 72 57 3e e0 b2 6c 3d
       -0.09353663 0.022808017 0.21039718 0.057787776
0003e0 96 69 bf bc 82 8f 7a 3e 91 67 4f 3e 73 e7 c9 3c
       -0.023365777 0.24468806 0.20254351 0.024646496
0003f0 2b 2e 41 3d 36 2d 87 3d 0b 77 55 bd 76 a4 be 3c
       0.04716317 0.0660042 -0.05211548 0.02327178

conv2d/Bias f4 [24]
000000 a1 66 7a 3e de 7c a6 3e 99 bf bf 3b 20 e8 01 3e
       0.24453212 0.3251714 0.0058516976 0.12686205
000010 c6 a1 0e 3e 9b 31 64 3d e5 7b 38 bf 74 5e de 3d
       0.13928899 0.05571137 -0.7206405 0.10857859
000020 08 dc 2e bf d0 21 ab 3d 63 96 55 3e 9f 2e 5d 3e
       -0.6830449 0.083560586 0.20858149 0.21599816
000030 1a 36 af be 05 02 40 3e e8 09 e7 3d 60 59 57 3e
       -0.34220964 0.1875077 0.11281186 0.21030188
000040 4a 68 33 3e bd 4c aa bf 55 11 82 be 3f 21 e9 3c
       0.17520252 -1.3304669 -0.25403848 0.028458236
000050 f0 ef c7 bd 66 54 0c 3d d7 eb 82 bf 0a f7 9d bf
       -0.09762561 0.034260176 -1.0228223 -1.2341015

depthwise_conv2d/Kernel f4 [1, 3, 3, 24]
000000 d7 99 c8 3d 6b 8f 07 3e 6a 54 64 3e bb 17 b7 3d
       0.097949676 0.13238303 0.22297826 0.08940073
000010 d7 70 c0 bd 6f 86 11 be b4 ee a3 be c7 20 53 bd
       -0.093965225 -0.14211439 -0.32018054 -0.05154493
000020 4c bd 2e 3d a3 0d 45 bd 51 34 e0 bd 1d e5 e9 bc
       0.042660996 -0.048108708 -0.109474786 -0.028551633
000030 21 2b a0 3d a8 ac 9e 3d 5f 50 16 bd b1 13 4c bd
       0.07820726 0.07747775 -0.03669774 -0.049823467
000040 cf 31 3c 3d 6c 5b 11 3f da a7 d7 bc 53 5c bf 3e
       0.04594594 0.56780124 -0.026325155 0.37375125
000050 6d b9 0c bf 18 6b c3 3d 49 08 12 bf 35 b0 b4 3e
       -0.5497044 0.09541911 -0.5704389 0.35290685
000060 de db e6 bd 9a f4 41 3b f9 cb 6e bd 42 1a d1 3e
       -0.11272405 0.0029595257 -0.058299992 0.40840346
000070 10 37 9f 3e 05 bd 59 3e 41 97 67 be 11 c1 ae be
       0.31096697 0.21263511 -0.22616293 -0.34131673
000080 bb cd 97 bf 00 78 4c 3e e6 0a 0e bf 89 d2 66 3f
       -1.1859659 0.19967651 -0.5548538 0.90165
000090 08 3a c3 3e 8a 28 85 bf d3 e5 69 3d 12 e2 90 be
       0.38130212 -1.0402997 0.057103943 -0.28297478
0000a0 c8 0c b1 3d cc a7 7b 3f 33 41 cf bd 18 9b 06 be
       0.08645016 0.9830291 -0.10119858 -0.13145101
0000b0 b4 39 c0 be 3e b4 76 3d 73 45 dc be 3d c7 4a 3f
       -0.37544024 0.060230486 -0.43021736 0.79210263
0000c0 d4 25 f8 3d 83 75 bd 3b 6c f8 00 3e 2a 5d 59 bd
       0.1211659 0.0057818308 0.12594765 -0.053067364
0000d0 a3 96 92 3d ae 86 98 be f1 3f 45 be 62 98 6d bd
       0.07157638 -0.29790252 -0.19262673 -0.05800665
0000e0 8a 96 7e 3e 56 9b c0 3e 2c dc 92 be 48 9e 61 be
       0.24862114 0.37618512 -0.28683603 -0.22033036
0000f0 72 53 85 bd 6d 42 aa 3e 98 5d 76 bb 83 06 ae bc
       -0.065100566 0.33253804 -0.0037592407 -0.02124334
000100 9c b1 1a 3c 6e 65 0d 3f de dc 0e 3d 36 bb dc 3d
       0.009441759 0.55232894 0.034878604 0.10777895
000110 0e d2 a3 3e 0c d4 8e 3d aa 48 0e be 22 84 a4 3e
       0.31996197 0.069740385 -0.13894907 0.3213206
000120 1e 84 89 be 82 2b e1 3d 0d 5d 48 bd de e7 b6 3e
       -0.2685861 0.109946266 -0.048916865 0.35723776
000130 eb 02 75 3e 49 81 82 3f e8 fb 1a bf 82 96 2d bd
       0.23926894 1.0195705 -0.6054063 -0.042379864
000140 eb 03 1d 3e ed 99 ae 3e 36 50 08 be 15 b2 30 be
       0.15333526 0.3410181 -0.13311848 -0.17255433
000150 7c 59 c7 3d 42 d3 1e 3e 48 98 29 3e 08 a4 21 3d
       0.09733865 0.15510276 0.16561997 0.039463073
000160 ab 95 ce 3d 00 4c f6 3c 9d b3 2c be b1 8b e3 3e
       0.10087141 0.030065536 -0.16865392 0.44442514
000170 cc 27 6a bd 35 5e 6f be ba d1 f3 be 21 3f 3f be
       -0.05716686 -0.23375781 -0.47620946 -0.18676426
000180 86 3f 5d bf 57 dd 9a 3e b9 21 76 bf 95 fa a3 bf
       -0.86425054 0.30246994 -0.96145207 -1.2810847
000190 2b 1c e1 bf 59 e4 c0 3e 1e c8 28 bf d5 e7 9d bf
       -1.7586721 0.37674215 -0.65930355 -1.2336375
0001a0 a9 83 2e bf 17 2e 3d 3f 41 a5 87 3e 7b 9d ac 3f
       -0.6816965 0.7389845 0.26493266 1.3485559
0001b0 a3 b7 6a 3f 49 72 dc be f9 47 1c 3e ed 4f 8c bf
       0.9168646 -0.43055943 0.1526183 -1.0961891
0001c0 c8 9b 80 bf a1 29 8b 3f f1 e4 91 bf c9 15 5b bf
       -1.0047541 1.0872079 -1.1397992 -0.85580117
0001d0 21 80 5e bf 77 29 8f be 6a 97 96 be d3 8a 1b 3f
       -0.8691426 -0.27961323 -0.29412395 0.60758704
0001e0 7c a3 da 3e 00 92 a1 3d a9 d5 90 be d5 80 26 bc
       0.42702854 0.078891754 -0.2828801 -0.010162552
0001f0 e9 f1 58 be 42 95 49 be c6 d1 07 be 72 66 ea 3e
       -0.21186031 -0.19685844 -0.13263616 0.45781285
000200 c7 df 6d 3e 01 60 26 3e 4f 14 d4 be 82 ec 13 3f
       0.23229896 0.1624756 -0.41421744 0.5778276
000210 db 70 fe be e8 8d 44 3f 0f 1f 9e 3b 79 a8 2f 3e
       -0.49695477 0.7677903 0.00482548 0.17154111
000220 a3 86 c7 bb e7 0c 73 3f cc 07 3f 3e 55 19 03 bf
       -0.006089048 0.9494156 0.18655318 -0.5121053
000230 d2 ce 30 3f 0a cd 38 3e bc f6 ca 3e eb 4b 48 3f
       0.6906558 0.18046966 0.39641368 0.7824084
000240 0d 6b 78 bd 8e 79 a8 bd a6 89 c2 3d c5 37 6b be
       -0.060648967 -0.0822631 0.094989106 -0.22970493
000250 59 a0 23 3d 78 13 3d 3e 7f 40 b9 3d a6 08 db 3d
       0.03994784 0.18464458 0.09045505 0.10695009
000260 d8 b4 df 3c d4 2e ae 3c 86 82 a2 3e 95 3c a1 be
       0.027307913 0.021262564 0.31740206 -0.31491533
000270 fd 35 10 bf 63 3b af bb 22 28 3e 3f 10 3d b6 bb
       -0.5633238 -0.0053476556 0.7427999 -0.0055614784
000280 4e 63 50 be 27 a7 30 3e 71 ce 98 3d c5 75 c1 3d
       -0.20350382 0.17251264 0.074612506 0.09446291
000290 5b ce bb 3e 12 95 69 3c c0 72 3f 3e 3b 17 06 bf
       0.36680874 0.014256733 0.18696117 -0.52379197
0002a0 83 ee 14 be c3 01 ba bf 26 46 79 3d 54 39 19 3f
       -0.1454411 -1.4531788 0.060857914 0.598531
0002b0 f7 b3 7b bd 80 69 87 3e eb ad 0c bc 3a 5b 6e 3e
       -0.061450925 0.26447678 -0.008586387 0.23276988
0002c0 27 ff 99 3e 93 67 a6 be 85 52 5a 3f 84 d9 c1 be
       0.30077478 -0.32500896 0.85282165 -0.37861264
0002d0 a2 45 01 bf 51 fa a7 3e a5 30 f7 bf 21 73 10 3d
       -0.50496876 0.32808164 -1.931172 0.035266045
0002e0 f0 b3 a2 3f 39 b7 4f 3e 10 85 22 3f db bb 77 3e
       1.2711163 0.20284738 0.6348429 0.24192755
0002f0 bc 19 28 3f 4e d6 03 c0 bb 52 6f 3f 3f b8 da be
       0.6566427 -2.0599551 0.9348561 -0.42718694
000300 b9 7f 25 be dd 76 ee 3e 8a 06 cf bc 9a a9 a6 be
       -0.16162004 0.4657506 -0.025271673 -0.3255127
000310 69 2f 95 bd 3a c0 67 3e ab 71 86 3d 9e 1f 2d bb
       -0.072844334 0.22631922 0.06564649 -0.002641655
000320 2d 69 95 3d b3 5f 7a be 41 c0 77 bd f6 38 bf be
       0.07295451 -0.24450569 -0.060486082 -0.37348145
000330 11 13 9d bd 5b 03 47 be fc 19 9b 3e b2 17 ed bc
       -0.07669652 -0.19434874 0.30293262 -0.028941963
000340 51 40 21 be 56 fd 49 3e 63 96 ff 3e 75 d6 98 be
       -0.15747191 0.19725546 0.49919423 -0.29851118
000350 69 f1 bb 3c fc 74 12 bf ba 88 f1 3e e3 2b 98 bd
       0.022942262 -0.57209754 0.47174627 -0.07430246

depthwise_conv2d/Bias f4 [24]
000000 00 00 00 00 00 00 00 00 00 00 00 00 00 00 00 00
       0.0 0.0 0.0 0.0
000010 00 00 00 00 00 00 00 00 00 00 00 00 00 00 00 00
       0.0 0.0 0.0 0.0
000020 00 00 00 00 00 00 00 00 00 00 00 00 00 00 00 00
       0.0 0.0 0.0 0.0
000030 00 00 00 00 00 00 00 00 00 00 00 00 00 00 00 00
       0.0 0.0 0.0 0.0
000040 00 00 00 00 00 00 00 00 00 00 00 00 00 00 00 00
       0.0 0.0 0.0 0.0
000050 00 00 00 00 00 00 00 00 00 00 00 00 00 00 00 00
       0.0 0.0 0.0 0.0

conv2d_1/Kernel f4 [24, 1, 1, 24]
000000 8d a1 a1 3e f4 87 80 3d 64 6e ce 3e d3 32 05 3f
       0.31568566 0.06275931 0.40318596 0.52030677
000010 2e 82 af 3c 63 7d 27 3f 70 9b 02 bf 7a 2c ed be
       0.02142438 0.654257 -0.5101843 -0.46322995
000020 cc fd 92 3f 31 5b 55 bf 63 ce 04 bb c7 d7 28 3f
       1.1483703 -0.8334227 -0.0020264618 0.6595425
000030 ba d7 7b be 3e f9 37 3f 08 3e 13 3e df 67 db bb
       -0.24594012 0.7186469 0.14379132 -0.006695732
000040 2d 4b cb 3e 7f 9b f7 be 43 c9 a5 be 12 04 50 3f
       0.39705792 -0.48360822 -0.32380113 0.8125621
000050 b7 b9 d9 3e 89 7c c7 bd 36 65 3f 3e 32 ab d8 3e
       0.42524502 -0.0974055 0.18690953 0.42318112
000060 58 03 73 bc b9 ae 21 3f b1 18 87 3d 55 35 85 3c
       -0.01483234 0.6315723 0.065965064 0.016260782
000070 1a 49 8f bd 2b 3a 48 bf c1 21 f0 3d f4 ca 5f 3e
       -0.06996365 -0.7821376 0.11725188 0.21854764
000080 96 3c 75 3e 28 f0 a9 3e f6 b4 f6 3b f7 73 07 bf
       0.23948893 0.33191037 0.0075288964 -0.52911323
000090 d0 27 ff 3e 1c b5 e8 3d 9d 30 f9 bc 9c 55 0a be
       0.49835062 0.11362669 -0.030418688 -0.1350922
0000a0 9c 94 b9 bf 5f c7 c9 3e d0 bf 14 3f 8d 0b 10 bf
       -1.4498477 0.3940992 0.5810518 -0.56267625
0000b0 21 99 ce 3d e3 2b 41 be f7 31 cb 3d 5d 04 1b bf
       0.10087801 -0.18864398 0.099216394 -0.6055353
0000c0 39 bb 0b 3f 8f 1a cc 3d 8a 8e a8 3e b4 0a 70 3b
       0.54582554 0.09966003 0.3292125 0.0036627473
0000d0 ac 82 72 3e f3 68 68 3e eb 16 b4 3e 32 b7 38 3e
       0.2368266 0.22696285 0.35173735 0.18038633
0000e0 41 8d e7 bd ef ae ac be 7b e2 ac 3d 5b 3d ba bd
       -0.11306239 -0.33727214 0.08441635 -0.09093734
0000f0 7b 46 c6 be 53 d0 03 be ec 20 bb be 32 f8 a7 bd
       -0.38725647 -0.12872438 -0.36548555 -0.082016364
000100 4a 62 b1 bd 0a 54 cf bd 47 cc d3 be 98 e8 eb be
       -0.08661325 -0.10123451 -0.4136679 -0.46075892
000110 55 f9 ec be 8f 18 3b 3f aa 35 35 3d 25 0c b5 3e
       -0.46283975 0.7308435 0.04424063 0.35360828
000120 79 c2 f3 3e 19 77 af 3e 04 ea 92 bd 46 4a c9 3e
       0.47609308 0.34270552 -0.07173541 0.3931448
000130 10 40 b2 3e 00 c4 07 3f 42 c8 29 3e 83 d3 a7 be
       0.348145 0.5303345 0.16580299 -0.32778558
000140 53 34 01 3f a1 b0 e9 3e f5 e1 e0 3e d2 2e e5 be
       0.50470465 0.4564257 0.43922392 -0.44762284
000150 07 48 20 be 00 e4 d1 be d5 e5 41 3d ba 8d bb 3d
       -0.15652476 -0.40994263 0.047338326 0.091578916
000160 7a 16 07 3e 33 50 1f 3d d3 70 57 bd 4c b2 ff be
       0.13192168 0.038894843 -0.052597832 -0.49940717
000170 de 2c 5c bf c1 8f 9e bd 70 1a 41 3f 84 65 17 3f
       -0.8600596 -0.07742263 0.75430965 0.59139276
000180 ab bd 8d 3d 87 f4 9b bc d7 68 d8 3d 0d 2a 08 be
       0.06920942 -0.019037498 0.105668716 -0.13297291
000190 20 e0 e1 3e 3f d6 a9 3d a6 2e 3e 3e 39 86 45 be
       0.44116306 0.08292817 0.18572482 -0.19289483
0001a0 08 c2 cd be 7b 85 ef 3d ad e4 43 be b8 3f 40 3e
       -0.40187097 0.11695381 -0.19130202 0.18774307
0001b0 30 b1 74 3e e2 25 a3 bf a6 52 f9 3d 24 3e 31 3e
       0.23895717 -1.2745936 0.12173967 0.17308861
0001c0 36 94 e1 3c 06 8e e4 3b 68 46 f2 3e bb c0 dd 3d
       0.027536493 0.0069749383 0.4731934 0.10827776
0001d0 e9 0b 0c bf 03 e4 a4 bb 46 59 5b bd af a3 4e 3e
       -0.54705673 -0.005032064 -0.053551935 0.20179628
0001e0 4d 3a 46 3e 8a 3f 8c bd 54 82 16 be c0 5b 16 3f
       0.19358177 -0.068480566 -0.14698154 0.5873375
0001f0 67 23 5f 3f 0e 24 0d bb d6 2f f6 3d 33 86 a0 3e
       0.87163395 -0.0021536383 0.12020843 0.31352386
000200 86 64 08 be 44 8b a7 be 33 35 c9 3d f9 f2 7d be
       -0.13319597 -0.3272344 0.098246 -0.24799718
000210 c1 f0 c5 be 51 43 84 3d 91 a1 0a 3e ef d3 47 3d
       -0.38660243 0.06458152 0.13538195 0.0487861
000220 77 1b 8e be 62 ea bb bd bf 07 1d bf 88 c0 ce 3c
       -0.2775533 -0.09175564 -0.61339945 0.02523829
000230 26 54 a3 be ee 0b 14 be ce 62 6b bc 3b e2 43 3e
       -0.31900138 -0.14457676 -0.014366819 0.19129269
000240 0b 59 86 be e1 7e 2b be 03 8f 92 be 9a c7 cc 3e
       -0.2623981 -0.16747619 -0.28624734 0.39996034
000250 26 73 ac bd 80 ba 59 bf ba b2 c4 3e c1 13 e9 3e
       -0.084204 -0.850502 0.38417608 0.45522884
000260 37 f0 06 be 31 5e 2c 3d 1a fe dc 3e 2d 2e 59 3e
       -0.13177572 0.042082015 0.43162614 0.21209021
000270 a3 57 0f 3f 2e c8 f6 bd 76 46 80 3e 18 43 cd be
       0.559931 -0.120499 0.25053757 -0.4009025
000280 84 2a b3 bd 52 83 c5 bc 9a c9 9a be f4 47 33 3f
       -0.087483436 -0.02411047 -0.30231935 0.70031667
000290 73 5b 21 3f f9 53 22 3e 9c 60 57 be bd 9e ba 3e
       0.63030165 0.15852346 -0.21032947 0.36449233
0002a0 d8 36 a0 3e 7d 44 d9 3c 1f bd 16 be 22 1c c4 bd
       0.31291842 0.026521916 -0.14720581 -0.095756784
0002b0 33 86 1a 3e 03 9f cc 3e 15 e3 9a 3e 65 bd 36 be
       0.15090255 0.39965066 0.30251375 -0.17845686
0002c0 31 02 35 be d2 b6 8e 3c 15 50 83 be 21 06 ab bd
       -0.17676617 0.01742116 -0.25647035 -0.08350778
0002d0 ff 8c 93 be a3 f4 b1 3e 31 d9 ec be 15 0b 4e 3f
       -0.2881851 0.34756956 -0.46259454 0.8048566
0002e0 1d 26 0f be 8e 83 e4 bd 98 19 95 3e fc c8 17 be
       -0.13979383 -0.111579046 0.2912109 -0.14822763
0002f0 41 5f 9d 3e 76 3b 26 3f f5 0d c6 3e 18 f0 bb 3e
       0.30736735 0.6493448 0.38682523 0.36706614
000300 7d b4 7b 3e 9f 97 ab bd 0d 76 47 3e de c2 ab 3d
       0.2458057 -0.08378529 0.19478627 0.08386777
000310 be 10 42 3e 97 03 2d be 9e d6 54 bf dd 22 13 be
       0.18951699 -0.168959 -0.8313998 -0.14368768
000320 65 6d 39 3f 1b 12 63 3e c8 0f 4d 3e bf 24 aa 3e
       0.7243255 0.22174875 0.20025551 0.3323116
000330 e3 a3 47 3f c9 5b 82 3f a1 c9 af bd dd db dc bd
       0.77984446 1.0184261 -0.085833795 -0.10784123
000340 55 df c9 3e 73 23 ad 3f 86 b2 32 bf 4a 1a 07 3e
       0.394282 1.3526443 -0.69803655 0.13193622
000350 e5 77 58 bc 1f ea d1 3d db a2 ff 3e cc fd f5 3e
       -0.013212179 0.10249733 0.49928936 0.48045194
000360 40 ae 1e 3e 38 39 96 3e 95 48 a4 be cf c8 62 3c
       0.15496159 0.2934053 -0.32086626 0.013841822
000370 d0 b1 6b 3e 8c f4 25 bf 64 fa dc 3e cb 91 b2 3e
       0.23017049 -0.64826274 0.43159783 0.34876856
000380 e0 d6 d3 be d6 69 a7 3d b0 82 b9 3d 67 1f 9e bf
       -0.41374874 0.081744835 0.0905813 -1.2353333
000390 12 24 95 3e 3b 74 f6 be cb 96 71 3e 7a 84 5e 3e
       0.29129082 -0.48135552 0.23592679 0.21730223
0003a0 be 04 36 bf fe 9f be 3e 9b f7 27 3f 17 bc d8 be
       -0.71100986 0.3723144 0.6561219 -0.42331
0003b0 04 35 59 bf ae 7d 5f be 3e d3 57 3e 6d e3 0c bf
       -0.8484652 -0.21825287 0.21076676 -0.55034524
0003c0 57 a9 16 3d f5 be 98 3f 88 0c 7c 3e 8e d0 e5 bc
       0.03678259 1.1933275 0.24614155 -0.028053548
0003d0 37 9b 0c 3d f2 7c d4 3a d0 77 83 3d fd 08 56 bd
       0.034327712 0.0016211553 0.06419337 -0.052254666
0003e0 c8 f7 6d bf 14 c3 61 be 79 f3 b1 bd 14 c7 74 bf
       -0.9295621 -0.22047073 -0.08689017 -0.9561627
0003f0 72 2e 58 bc 25 e6 7b bc 8d 6a c0 bd e2 28 05 3d
       -0.013194667 -0.015374695 -0.09395323 0.032509692

conv2d_1/Bias f4 [24]
000000 d6 60 9e 3e 38 13 42 3e e6 98 dc 3e 13 6e 59 3e
       0.30933255 0.18952644 0.43085402 0.21233396
000010 24 8b 62 3e e8 55 51 3f 5f 25 91 be 58 75 21 3e
       0.2212339 0.8177171 -0.28348824 0.1576742
000020 a2 f4 9d bf 0d 74 8a 3f 51 ab f7 3e d6 a9 a0 3e
       -1.2340281 1.0816666 0.48372892 0.31379575
000030 d7 10 ce 3e 71 aa 37 3f e6 58 2f 3f 29 f8 88 3f
       0.40247223 0.7174445 0.68495023 1.0700732
000040 5a e7 94 3f 24 01 fe bf c4 16 4b 3f ca 59 c8 3e
       1.1633103 -1.9844098 0.7933161 0.39131004
000050 42 69 8f 3e 25 a7 87 3e ef e7 4c 3f ee 6e 92 3e
       0.28009993 0.2649471 0.800414 0.28600258

depthwise_conv2d_1/Kernel f4 [1, 3, 3, 24]
000000 0e 59 07 3e d6 3f 57 3e bb 5c 41 bc 81 be 53 be
       0.13217565 0.21020445 -0.011801894 -0.2067814
000010 1b ec 2c bf 2f 73 f3 3d 91 84 62 bd c4 9e 3c 3e
       -0.6754777 0.11887204 -0.055302206 0.1841994
000020 90 90 1c 3e 63 3a 4a bc 7f a7 e4 be 63 b7 a4 be
       0.15289521 -0.012343022 -0.4465904 -0.32171163
000030 ae 0e 5d be 0d 6d 08 bd 3b e6 a9 bc 76 1b 46 3d
       -0.21587631 -0.033307124 -0.020739665 0.048366033
000040 1a fc 8f 3d 5a f0 59 3f 42 a8 98 bc 54 62 c1 3e
       0.070305064 0.8513237 -0.01863492 0.3777033
000050 56 80 77 bd 89 e0 97 3e 7e b4 af be 2b 85 9d 3e
       -0.060425125 0.29663494 -0.34317392 0.30765662
000060 90 bb e3 3e d1 de 0a 3f c9 23 a0 bf 09 4f e3 3d
       0.44479036 0.5424624 -1.2510921 0.11099059
000070 c6 5a 26 bf f1 a3 15 3e 89 82 eb bd 9a 21 9e 3e
       -0.6498226 0.1461332 -0.11499507 0.3088501
000080 f8 00 c7 3e e1 67 77 3f bb 9f d1 be 21 5e fb be
       0.38867927 0.9664288 -0.40942177 -0.49095252
000090 13 b8 3b be d6 c5 17 3e 22 1f 6f 3e d5 19 0d 3e
       -0.18331937 0.14821562 0.2335172 0.13779385
0000a0 64 6f 22 3e 54 1a eb be 5d 7a 32 bf d4 a5 45 3c
       0.15862805 -0.45918524 -0.6971796 0.012063462
0000b0 3d 58 05 bd 32 fa 11 3f a0 65 16 3d 90 1c ff bd
       -0.032554854 0.5702239 0.03671801 -0.1245662
0000c0 c6 81 c6 3d 9c 17 a6 3e 28 f4 24 bf 44 dd 97 3e
       0.09692721 0.32439888 -0.6443505 0.29661
0000d0 84 d5 d7 bd 9e 46 23 be ea 41 2d ba e0 f8 b8 3d
       -0.10538772 -0.15944907 -0.0006609248 0.09031844
0000e0 8c 03 8a be a1 28 f3 3e 53 9c 7b bc 91 57 ab 3e
       -0.2695583 0.47491935 -0.015357095 0.33465245
0000f0 04 1b 23 be 8c ee 0d be 77 7f 94 3e bf 07 a4 bd
       -0.15928274 -0.1386053 0.29003498 -0.0800929
000100 f1 e9 03 bd 0f 28 6f 3d 11 60 1a 3e 3f 84 34 be
       -0.032205526 0.058387812 0.15075709 -0.17628573
000110 92 5f 27 be 2c 0e 64 3e 9d b8 91 3d 0f 64 e4 be
       -0.16345051 0.22271031 0.0711529 -0.4460759
000120 a5 42 e7 3e 0e 3f c5 3e d7 56 06 3e 66 50 34 bf
       0.45168033 0.3852467 0.13119064 -0.7043518
000130 06 49 30 3f 03 f7 9f bf 1f 4f 99 be d6 a7 a2 3e
       0.68861425 -1.2497257 -0.29943177 0.31768674
000140 ed 83 cb 3e 8c 81 3b bf 9d 2b ed be 05 97 93 be
       0.3974909 -0.7324455 -0.46322337 -0.28826156
000150 31 55 5e be 65 80 b6 3e c1 08 16 bf 23 2a 37 bd
       -0.21712185 0.35644832 -0.5860711 -0.04471792
000160 fe 12 5f 3e d9 b5 e5 3e 46 71 80 3f c6 0e 5e 3f
       0.21784589 0.448653 1.0034568 0.8674129
000170 77 2d 7a 3e 5c aa 8c 3e ba a5 53 bf 8c 8e c8 3e
       0.24431406 0.27473724 -0.82674754 0.39171255
000180 2f b4 33 3f 9d 72 76 bf 9e a2 d2 be 37 5a 38 bf
       0.70196813 -0.96268636 -0.41139692 -0.72012657
000190 34 20 12 bf 8c 56 17 bf 2e 6c ff be f3 db a2 3f
       -0.5708039 -0.59116435 -0.49887222 1.2723373
0001a0 fe 92 05 3f 60 a3 3a bf 21 8a 62 3f 07 1b 42 bf
       0.5217742 -0.7290554 0.8849202 -0.7582249
0001b0 2e d5 71 bf 4a bb e1 3e 63 4c 2c 3f ef 5c cf be
       -0.9446591 0.44088203 0.67304057 -0.4050059
0001c0 1b e7 7a bf 11 48 49 be b7 77 a4 be ba cc 8c bf
       -0.9800889 -0.19656397 -0.32122585 -1.0999978
0001d0 34 4d 73 3f 5e 94 44 3f 3c ba 9b 3f 72 7b ad 3f
       0.9503968 0.7678889 1.2166209 1.3553298
0001e0 b2 a3 36 bf d1 dc 0a bf dc a5 a4 3e 21 ca cf bd
       -0.7134353 -0.5424319 0.3215779 -0.10145975
0001f0 28 cc 7a 3e 9d b6 b5 3d a7 c3 ce 3d 20 ee 56 3d
       0.24491942 0.08872721 0.100959115 0.052473187
000200 b1 77 1b 3f 68 23 1b 3f 1c bd 62 3f 96 b4 9d 3f
       0.6072951 0.606009 0.8856981 1.2320735
000210 9b 73 f6 be 46 83 38 3e fa 97 0c 3f b7 ed dc bd
       -0.48135075 0.18018827 0.549194 -0.10787528
000220 c2 1a de 3d d5 74 14 bf cc 42 8f be 2c 56 08 be
       0.108449474 -0.5799077 -0.2798065 -0.13314122
000230 f2 ee 50 3f 9f 53 23 3f f2 44 dd be ff 83 32 be
       0.816146 0.6379947 -0.43216664 -0.17433165
000240 d1 23 a1 3e b9 51 86 3d 69 e8 cf bc b2 48 e5 bc
       0.31472638 0.06558556 -0.025379376 -0.027988765
000250 b0 77 24 3f 97 27 0b 3f 19 96 3e be 7c 0d 40 3e
       0.6424513 0.54357284 -0.18611945 0.18755144
000260 ad 37 d6 3e 4f 9d 89 bc 30 ef 09 be 86 78 8c 3c
       0.41839352 -0.016798643 -0.13470149 0.017147314
000270 c9 f4 d1 3e ad a8 03 3d 40 80 bf bd 8e 29 c5 bc
       0.4100707 0.032143284 -0.093506336 -0.024067666
000280 da fa b3 bc cf ad 03 3f e2 63 22 3d b9 3e 02 3f
       -0.021970201 0.51437086 0.039646037 0.5087696
000290 5d 4e 1b 3e c8 35 4f 3e 3c 26 cc 3e 20 19 40 3e
       0.15166612 0.2023536 0.3987292 0.18759584
0002a0 44 70 fa be c8 16 0c 3e 2e 45 84 be 57 41 ad be
       -0.48913777 0.13680565 -0.2583403 -0.33838913
0002b0 1e 96 0d bf ef e7 e8 3e e4 5d 5e bf b3 51 65 3e
       -0.55307186 0.4548945 -0.86862016 0.22394447
0002c0 e1 45 22 3e d4 1b f5 be b5 e7 1d 3d 2d 3c 7b 3d
       0.15846969 -0.47872794 0.03855105 0.061336685
0002d0 81 9b a1 3d 81 f8 98 3d c6 47 26 bf eb c9 be bf
       0.07890988 0.07469273 -0.6495327 -1.490537
0002e0 ec 25 34 3f 98 73 5f 3e 45 9f b3 3e 4b 01 8d be
       0.70370364 0.2182144 0.3508245 -0.2754005
0002f0 a1 df fc 3e fe 0d d8 3d f0 64 17 bb 4c b2 50 3e
       0.49389365 0.10549544 -0.0023100935 0.20380515
000300 1e 75 4e bf 43 68 38 be 46 72 39 3e 80 db 17 3d
       -0.80647457 -0.18008523 0.18109998 0.037074566
000310 70 72 55 be 03 a8 c2 3e 14 48 b6 be 84 2a a6 bd
       -0.20844436 0.38018808 -0.35601866 -0.08113578
000320 ec 9a 31 3f ff f6 97 bc d3 56 f9 3d ef b9 53 3e
       0.6937702 -0.018550394 0.121747635 0.20676397
000330 2e ca a2 3d cc 19 9c bd c2 aa 57 be 54 15 94 3e
       0.07948719 -0.07622108 -0.21061233 0.28922522
000340 82 70 a3 3e 1f c3 9f be f0 df 25 be c8 d9 e1 bd
       0.31921774 -0.31203553 -0.16198707 -0.110278666
000350 32 78 82 3e db 55 e1 3d ff d7 cb bd 3c 09 d1 3d
       0.25482327 0.11002704 -0.09953307 0.102068394

depthwise_conv2d_1/Bias f4 [24]
000000 00 00 00 00 00 00 00 00 00 00 00 00 00 00 00 00
       0.0 0.0 0.0 0.0
000010 00 00 00 00 00 00 00 00 00 00 00 00 00 00 00 00
       0.0 0.0 0.0 0.0
000020 00 00 00 00 00 00 00 00 00 00 00 00 00 00 00 00
       0.0 0.0 0.0 0.0
000030 00 00 00 00 00 00 00 00 00 00 00 00 00 00 00 00
       0.0 0.0 0.0 0.0
000040 00 00 00 00 00 00 00 00 00 00 00 00 00 00 00 00
       0.0 0.0 0.0 0.0
000050 00 00 00 00 00 00 00 00 00 00 00 00 00 00 00 00
       0.0 0.0 0.0 0.0

conv2d_2/Kernel f4 [28, 1, 1, 24]
000000 5c 9b 27 be bb f1 fc 3d b6 5d 35 be 71 a2 8e 3e
       -0.16367859 0.12350794 -0.17711529 0.27858308
000010 1b f7 5c 3d 5e d5 32 3e f9 24 a9 3e dd 70 41 3c
       0.053946596 0.17464206 0.3303602 0.011806694
000020 61 52 09 bf 49 0b b6 3e 44 48 15 be fa 53 93 bd
       -0.53641325 0.35555485 -0.14578348 -0.07193752
000030 28 ce b3 3c 1d e0 a2 be 73 f5 b0 be 5f d0 1c bc
       0.021948889 -0.3181161 -0.34562263 -0.009571164
000040 dd 7d 0b 3e e6 d6 9f 3d 5d e9 57 3b a5 12 d1 3d
       0.13622232 0.078046605 0.0032945492 0.10208634
000050 74 d3 d9 be 34 a2 5d 3e 66 34 94 3d cd 67 a6 3e
       -0.42544138 0.21643907 0.07236557 0.3250107
000060 9f 22 20 3e be d4 80 3e 07 46 80 3d 08 ca 6c be
       0.15638207 0.2516231 0.06263357 -0.23123944
000070 c4 2f a2 bd 8b 65 84 be 77 50 4e be e1 80 a5 3d
       -0.07919267 -0.2585872 -0.20147882 0.08081222
000080 03 80 47 be 16 23 dc bd b3 28 48 3d 54 5b a2 bd
       -0.19482426 -0.107488796 0.04886694 -0.07927576
000090 91 5d 32 be 81 08 d4 bd d4 7c 27 be 46 14 59 3d
       -0.17418505 -0.103531845 -0.16356212 0.05299785
0000a0 60 e1 9d 3e f5 81 53 bc bf 51 10 be 6b bc 88 be
       0.3083601 -0.012909402 -0.14093684 -0.26706252
0000b0 0a f0 87 3a 7f e9 e6 3c 6f fd fc bc a9 a1 1c bd
       0.001037122 0.028187511 -0.030882565 -0.03824011
0000c0 26 af a7 3c 31 84 81 3e d6 2e fc 3e 52 c3 a5 3c
       0.02046926 0.25296167 0.49254483 0.020234738
0000d0 b5 fb 60 bd 72 aa cc bd 6e 6b 22 bd 78 e9 8e bd
       -0.054927547 -0.09993447 -0.039653234 -0.069781244
0000e0 47 11 bc bd a2 93 2f 3d 5f 38 23 bd 02 dc 12 bd
       -0.09182983 0.042865403 -0.03984868 -0.035854347
0000f0 59 6f 98 3d b7 93 53 bd b3 9a 58 3c 29 93 35 3d
       0.07443113 -0.051654544 0.013220477 0.044329796
000100 c3 d6 00 3d ca 28 55 3d ac f3 42 3d 3f f8 7e bc
       0.031454813 0.052040853 0.047595665 -0.015562116
000110 9c 2a ab 3d 94 6e 9a 3d 1c 02 5c bc 37 98 8b be
       0.083577365 0.07540622 -0.013428237 -0.27264568
000120 2e ca 67 bd bc fb 6b bd fe 7f 7b bd 75 59 ff 3e
       -0.056589298 -0.05761312 -0.06140136 0.49872938
000130 e4 38 63 ba e3 ed 1e 3d eb cc e0 3b 2b de 71 be
       -0.000866784 0.038801085 0.0068603656 -0.23619907
000140 ee e5 9d be ed 85 96 bc 50 2c 8f 3d 9a 3e f7 3e
       -0.30839485 -0.018374408 0.06990874 0.4828995
000150 a9 01 1c 3e 41 9f 53 3e 1b 18 18 bd a9 a6 0f 3d
       0.15235008 0.2066622 -0.037132364 0.03507105
000160 e8 93 3d 3d 9b a3 2c be ae d5 30 3d 86 88 93 3e
       0.046283633 -0.16859286 0.04317253 0.28815097
000170 30 2c 26 3e 1c 93 24 bf 29 5d 8c 3e 40 5f 38 3d
       0.16227794 -0.6428697 0.27414826 0.045012712
000180 0a 7d a6 be 58 e7 a2 bd ec 18 6f bd b2 ab e4 bc
       -0.32517272 -0.079542816 -0.058373377 -0.027913902
000190 4d fd da 3e 8e 76 da bd 9c 61 69 3c 52 8b 40 bd
       0.42771378 -0.10667144 0.014244463 -0.047007866
0001a0 ca 73 d7 bc 5e d5 f6 3d 1d c7 7d bd 73 6d 14 3c
       -0.02630033 0.12052415 -0.061957467 0.009059298
0001b0 0b ce 80 bd 5a bd 28 bd 58 4a 65 bd e3 a7 fd 3b
       -0.062892996 -0.041196205 -0.055979103 0.007740961
0001c0 f7 cd df 3c 37 3c 5c 3c e0 18 97 bc 77 f1 d5 bd
       0.027319891 0.013442091 -0.018444479 -0.104464464
0001d0 67 10 83 3c 8e e5 ed bb dc 12 91 3c 18 f8 f2 3c
       0.015999032 -0.007260031 0.017709188 0.029659316
0001e0 dc f8 97 3e a5 81 95 be 69 06 7c bd 7c 85 ba 3c
       0.29682052 -0.29200473 -0.06152955 0.022768728
0001f0 12 34 22 bd e6 65 93 be f4 66 49 bd 84 0c 58 bb
       -0.03960044 -0.2878868 -0.04917045 -0.0032966444
000200 91 ff a9 be 1e 58 5a bf a3 91 f7 3d 02 9d 29 be
       -0.33202794 -0.85290706 0.12088325 -0.165638
000210 a0 40 32 3e 57 88 65 3d 33 fb 7e 3e e2 d2 87 3e
       0.17407465 0.056038227 0.24900512 0.26528078
000220 0f 05 8b bc a8 10 8d bc d4 f8 20 be 65 23 63 bc
       -0.016970186 -0.017219856 -0.1571992 -0.013863419
000230 a2 aa f8 bd b9 c5 3f be a8 a8 3f be 9c 39 0c 3d
       -0.121419206 -0.18727769 -0.18716681 0.034234628
000240 96 24 e3 3e 0c a4 f7 bd 37 02 1e bd a4 7e 3c bd
       0.4436385 -0.12091836 -0.03857633 -0.04601921
000250 ff 52 b8 3d 67 91 08 be 04 94 80 3e b3 35 1d bd
       0.09000205 -0.13336717 0.25112927 -0.03838129
000260 02 49 2b be f0 96 c7 3d 0e 3b c7 3d 3a d9 a5 3e
       -0.16727069 0.09745586 0.09728061 0.32392293
000270 ca 39 65 bd f4 a6 70 bd 89 85 95 3c af 21 2a 3e
       -0.055963315 -0.05875297 0.018252151 0.16614412
000280 49 a3 62 3d 65 6d 45 bc 62 5d 98 3b 81 56 3f be
       0.055331502 -0.0120500075 0.004649804 -0.18685342
000290 c5 b3 1b bd 56 e0 72 be 44 3c b4 3d 5f ef 9c bb
       -0.03801324 -0.2371839 0.08800557 -0.0047892774
0002a0 20 35 6f be 62 41 17 3e 8c 96 57 bc 8d 26 45 3c
       -0.2336011 0.14771035 -0.013158452 0.012033117
0002b0 d5 d9 46 3d a6 4c b2 3a 50 1a ce bd b1 e3 ad be
       0.048547585 0.0013603165 -0.100636125 -0.33962777
0002c0 d2 4a c1 bb c0 ba 3f be 92 9b 0f bc b2 08 08 3e
       -0.005898812 -0.18723583 -0.008765118 0.13284567
0002d0 fc e3 81 3d f8 35 8e 3d bd b8 1e 3e 66 f0 20 3d
       0.06342313 0.069438875 0.1550016 0.03929176
0002e0 8a 2c 0e 3d a2 32 24 be f2 fa 8e be 8d 37 ac be
       0.034710445 -0.1603494 -0.2792583 -0.33636132
0002f0 70 16 85 bd 6e b6 16 3e f6 9b be 3c ac bd 6a 3d
       -0.0649842 0.14718029 0.023267727 0.05730979
000300 7e 2f ba bd 25 b4 8f bb 46 8d 14 be 63 ba 37 3e
       -0.0909109 -0.0043854886 -0.14507017 0.17942195
000310 e7 9d eb bd 9f 57 0c bd b7 07 b3 bd 5c 92 54 3c
       -0.11504727 -0.03426325 -0.08741706 0.012974348
000320 96 80 81 bd ff b8 77 3e 18 99 3a 3d 4d be 19 3d
       -0.06323354 0.24191664 0.045556158 0.037535
000330 9a 4a 1a be 34 40 e5 3d ec 20 cf bd a9 a6 10 3c
       -0.1506752 0.111938864 -0.10113701 0.008828797
000340 24 4f 03 bd 79 63 6d 3e c1 c1 44 bd 56 14 66 bd
       -0.032057896 0.23182477 -0.04803634 -0.056171738
000350 0a 55 e7 bd b3 8d 2d 3b 12 fb 09 3d 0a ab 84 3e
       -0.11295517 0.0026482164 0.033686705 0.25911742
000360 ee 7f 92 3d c4 d9 73 3e d2 e5 8e 3e 1e 9a 29 3e
       0.07153307 0.2381354 0.27909714 0.16562697
000370 1b 75 32 be 17 f5 03 3f f6 bf a0 3e 7a 5d 2b bf
       -0.17427485 0.5154585 0.31396455 -0.6693951
000380 09 20 fc bc d4 55 21 be 01 65 2a be 79 45 92 be
       -0.030776994 -0.15755397 -0.16640092 -0.28568628
000390 17 c5 cb bd b4 95 95 bc 1b 20 08 3d ca b3 52 bd
       -0.09949701 -0.01825986 0.033233743 -0.05144099
0003a0 8f 36 28 bf a9 a9 40 3e c8 23 fa 3e 58 3e 32 3e
       -0.6570825 0.1881472 0.48855424 0.17406595
0003b0 12 c7 2d 3e ed 40 cb 3d f2 64 b5 3d 48 e9 92 3e
       0.1697047 0.09924493 0.088571444 0.28693604
0003c0 49 fa 4b 3e ba 72 e9 3d e2 72 83 3d 77 1c 1c 3f
       0.19919695 0.113988355 0.064183965 0.60980934
0003d0 95 d6 eb bd c9 03 e2 bc 56 03 d2 bd 5a f3 90 bd
       -0.11515538 -0.027589696 -0.102545425 -0.070776656
0003e0 2f 98 48 bf 27 53 b3 3c 64 06 ad 3f 48 c1 cc bd
       -0.78357214 0.021890236 1.3517575 -0.09997803
0003f0 2b a6 cb 3e 09 6b fe 3d ea 28 ca 3f 3c 18 c1 bd
       0.39775214 0.12422759 1.5793736 -0.094284505

conv2d_2/Bias f4 [28]
000000 3d 54 43 3e b2 88 05 3e 26 a8 eb 3d e2 bf 35 3f
       0.19075103 0.13040426 0.11506681 0.70995915
000010 6c 5b 33 be 7b 3c 2c bd f4 03 2a 3e 7b dc 0f 3e
       -0.17515343 -0.042049866 0.1660307 0.1404895
000020 f6 4c 9a be c7 ce 13 bd bb f0 87 bf 4f 31 28 bf
       -0.30136842 -0.03608587 -1.062034 -0.6570024
000030 ec b9 16 be 39 28 89 3f b8 40 28 bf 75 f4 30 3e
       -0.14719361 1.07154 -0.6572375 0.17280753
000040 6a 67 42 3e a7 90 05 bf f0 c0 20 3d 31 0d 7e 3f
       0.18984762 -0.52173847 0.0392465 0.9923888
000050 85 ed 2c 3e e1 dc ba bd 78 67 e4 be c4 f2 3f bc
       0.16887482 -0.091241606 -0.4461019 -0.011715595
000060 bc f4 d3 bd c5 fb de 3d 79 a1 75 3c 86 87 d0 bd
       -0.10349414 0.10887865 0.014992111 -0.10182099

depthwise_conv2d_2/Kernel f4 [1, 3, 3, 28]
000000 a0 05 8a be f1 e3 52 3e ed 32 ec be 8c 84 10 bf
       -0.26957417 0.20594765 -0.46132603 -0.5645225
000010 f9 f1 a1 be 35 93 8c 3e ed 72 4e 3e c0 7f 8e 3e
       -0.31629923 0.2745606 0.20161028 0.2783184
000020 92 bb 97 be 81 14 51 be fe a5 01 bd d2 2e 8e be
       -0.29635292 -0.20417978 -0.031652443 -0.27770096
000030 4f d0 73 be cc f6 1e bf 80 70 b7 3e e1 7d 01 3f
       -0.23809932 -0.6209533 0.35828018 0.505827
000040 95 9b 07 3f 7a 1e ab be 58 bf c4 3e 61 35 0f be
       0.52971774 -0.3342169 0.38427234 -0.13985206
000050 bf ea bc 3e 8d 8a b3 3e 8f 76 8e 3e ce af 23 3f
       0.36897847 0.35066643 0.27824828 0.6394013
000060 1f 12 fe be 7d 43 2e bf b1 ff c6 3e 59 dc 07 bf
       -0.496232 -0.6807173 0.38866952 -0.530706
000070 2e 29 a4 be 0f 0b e5 3e 92 d9 62 bf 74 94 2b bf
       -0.32062668 0.44735 -0.88613236 -0.67023396
000080 3c 7d 63 bf 67 fe c6 3e d0 2e 16 3f 7a ba 16 3f
       -0.8886297 0.3886597 0.5866518 0.5887829
000090 c5 58 38 bf 87 cc 5d be f7 19 ba 3c 1a 8f cb be
       -0.7201045 -0.21660052 0.02271746 -0.39757615
0000a0 4f 45 37 bf 75 a5 22 bf ed 39 d0 3e 40 31 4d 3f
       -0.7159013 -0.6353372 0.40669194 0.80153275
0000b0 02 97 32 3f 94 59 f9 bd b6 fe a1 3e 60 70 09 bf
       0.6976167 -0.12175289 0.31639642 -0.53687096
0000c0 45 32 c8 3e 5b f9 f0 3e dd fe cc 3e cc c2 0e 3f
       0.39100853 0.47065243 0.40038195 0.55765986
0000d0 df 60 55 bf d0 d4 b2 bf 44 25 68 3f 8f 31 a6 be
       -0.8335094 -1.3971195 0.9068186 -0.32459685
0000e0 2a da 3f bd 3b 9d 90 3e dc 20 0c bf 3c 7a 37 be
       -0.046838917 0.28244957 -0.5473764 -0.17917722
0000f0 07 69 f9 be 54 66 91 3e ec cd e2 3e b1 01 03 3f
       -0.48712942 0.28398383 0.4429773 0.51174456
000100 2b 1a 09 bf f0 c7 84 bc ff d9 7d be 6b f5 4e be
       -0.53555554 -0.016208619 -0.2479019 -0.20210807
000110 1b 38 ff be 19 93 9c bd 47 92 9f 3d 9b d4 f1 3e
       -0.49847493 -0.07645244 0.07791572 0.47232518
000120 4a 3d a4 3d 80 6b 66 3e ae ee 7c bd a0 24 4c be
       0.080195025 0.22501945 -0.06175106 -0.19935846
000130 b3 a1 70 3e e2 ca 1b 3e d3 5e 40 3e a1 2f 0f 3e
       0.23499183 0.15214112 0.18786173 0.13983013
000140 4d d8 fa be dc 2d 84 bf 06 dc 49 3f f0 3e ac be
       -0.4899315 -1.0326495 0.78851354 -0.33641768
000150 56 d5 ef be d5 78 63 3e 2c 2f 70 bf 10 78 d4 be
       -0.4684245 0.22214063 -0.9382198 -0.4149785
000160 b1 7c 54 bf 48 22 13 3f 89 c6 10 3f c9 1e cd 3e
       -0.83002764 0.57474184 0.5655294 0.4006255
000170 37 6c 23 bf 69 63 dd be a8 11 a3 3c e5 d4 ef be
       -0.63837 -0.43239906 0.01990588 -0.46842113
000180 48 d6 ed be fa 7c 11 bf 83 13 eb 3e c6 2c 43 3f
       -0.46452546 -0.56831324 0.45913324 0.76240194
000190 41 3c 8d 3e ca 1f 83 be fd a8 bc 3e 7e e5 91 be
       0.27585033 -0.2561019 0.36847678 -0.284954
0001a0 75 2c 1c 3f de 94 1f 3f b4 fb c0 3e 46 0c 0f 3f
       0.61005336 0.6233653 0.37692034 0.558781
0001b0 b5 e3 3f bf 44 60 40 bf d4 e0 34 3f 1d b9 80 bf
       -0.7495683 -0.7514689 0.7065556 -1.0056492
0001c0 02 1c 13 bf c5 93 dd 3e 98 ba c7 bf 94 5f 12 bf
       -0.5746461 0.43276802 -1.5603819 -0.5717709
0001d0 30 49 8d bf 05 b7 50 3f f0 b5 84 3f 30 35 5f 3f
       -1.103796 0.81529266 1.0368023 0.8719053
0001e0 83 39 83 bf db cb 07 bf 69 8c 85 3d 46 76 37 bf
       -1.0251926 -0.53045434 0.06520922 -0.71664846
0001f0 7d df 69 bf 4d aa 20 bf cb 0c 15 3f 2a 9e a7 3f
       -0.9135664 -0.6275986 0.58222646 1.3095143
000200 02 d8 de 3d 08 80 b5 3e 7e 0d 92 3e 34 c1 11 bf
       0.10881044 0.35449243 0.2852592 -0.5693543
000210 e3 84 56 3f df da 69 3f 89 d9 3f 3f 9c b7 ed 3e
       0.8379652 0.91349596 0.7494131 0.46429145
000220 f7 de b6 bf 8c f3 b4 bf bb 0d bc 3f dd bf 09 bf
       -1.4286793 -1.4136825 1.469169 -0.53808385
000230 fb 8f f8 bd 5c c8 9a 3e b2 0e 3b bf 18 a1 38 be
       -0.12136837 0.30230987 -0.730693 -0.18030202
000240 e0 24 1f bf e9 c2 eb 3e 8f 65 0e 3f b6 33 f5 3e
       -0.6216564 0.46047142 0.55623716 0.47891015
000250 f9 4c 4e bf 83 c6 2e be 5c 00 a4 be 30 e3 b7 be
       -0.805862 -0.17067914 -0.32031524 -0.35915518
000260 ab d6 10 bf 94 a1 dc bd 2b ee 42 3e 6d c3 50 3f
       -0.5657756 -0.10773006 0.19036166 0.81548196
000270 03 3f 8e be f8 1c 3d 3f 2a 16 ae bd 09 81 41 be
       -0.2778245 0.7387233 -0.08500321 -0.1889688
000280 20 c8 d3 3e 4d 54 d2 3e da 0b 16 3f 42 e6 91 3d
       0.4136362 0.4107994 0.58611834 0.07123996
000290 01 3b 6a bf cc 16 84 bf c2 8d 67 3f a0 60 f0 3d
       -0.9149628 -1.0319457 0.9045068 0.1173718
0002a0 fa 09 ab be 19 44 4e 3d 6a d9 08 bf 4e 94 4d 3d
       -0.3340605 0.05035791 -0.5345675 0.050190262
0002b0 13 6b a9 be 4d 60 ac 3e 96 80 d8 3e 75 97 56 3e
       -0.33089504 0.33667222 0.42285603 0.20956214
0002c0 c8 c8 5f be 5f 34 6c be 76 ae 52 be a1 b9 67 be
       -0.21853936 -0.23066853 -0.20574364 -0.22629406
0002d0 c6 84 47 be 0f fc 13 be a6 3f 6a 3d a5 e5 b7 3e
       -0.19484243 -0.14451621 0.057189606 0.35917392
0002e0 fb 5f 53 be a7 4c 78 3d fa aa 71 39 0a f6 92 bd
       -0.20642082 0.060619976 0.00023047245 -0.071758345
0002f0 45 01 aa 3e 7e 59 ab 3e 03 13 b7 3e 94 8d 99 3d
       0.33204094 0.33466715 0.35756692 0.07497707
000300 62 a6 dc be c8 b0 09 be c4 97 0b 3f c4 4b 06 bf
       -0.4309569 -0.13446343 0.5452845 -0.5245936
000310 76 82 af be 14 1f 98 3d 44 19 31 bf 18 63 fd 3c
       -0.3427922 0.07427803 -0.6917918 0.03093104
000320 d9 24 12 bf 73 09 e2 3e 2d 36 12 3f 62 2d e3 3e
       -0.57087475 0.44147834 0.57113916 0.44370562
000330 f5 ea f1 be a8 e9 a8 be ee 87 9c be 54 a9 b3 be
       -0.4724957 -0.32990766 -0.30572456 -0.35090125
000340 7b 75 e8 be 74 b4 c2 bd 51 22 81 3e 2a bf 33 3f
       -0.4540213 -0.09507075 0.25221494 0.7021357
000350 83 0e ca be 2c 6a 05 3f e1 70 15 bd 18 80 82 bd
       -0.39464197 0.5211513 -0.036484603 -0.06372088
000360 b5 69 0c 3f c3 89 0b 3f 31 f6 26 3f ff 9c cd 3d
       0.54848796 0.5450708 0.6521941 0.1003971
000370 38 44 3d bf 82 f9 b7 be c4 87 2e 3f 72 1a d1 be
       -0.7393222 -0.35932547 0.6817591 -0.4084049
000380 1b e4 e0 bd 7e d5 8c 3d 95 d2 8e be fc 7b 59 bc
       -0.10981008 0.06876658 -0.27895036 -0.013274189
000390 fd 16 85 be 04 82 37 3e 65 1c 6d 3e 2c 15 2e 3e
       -0.259941 0.17920691 0.23155363 0.17000264
0003a0 3c e6 93 be 27 16 11 be 32 5f 0b be 8d 9c 33 be
       -0.28886592 -0.14168607 -0.13610533 -0.17540188
0003b0 e2 f6 71 be ba b1 88 ba 52 13 4b 3e 2a 56 e7 3e
       -0.23629335 -0.0010428943 0.19831589 0.45182925
0003c0 c8 1b d2 be 2d 45 0d 3f 84 0c 31 bd 01 40 92 bd
       -0.4103682 0.5518368 -0.043224826 -0.07141114
0003d0 f9 48 82 3e 24 64 94 3e c0 b2 23 3f 99 9d 17 be
       0.254463 0.2898265 0.63944626 -0.14806212
0003e0 a7 34 b5 be f5 83 7a be e6 e7 7f 3e 94 4d b5 3e
       -0.35391733 -0.244644 0.24990806 0.3541075

depthwise_conv2d_2/Bias f4 [28]
000000 00 00 00 00 00 00 00 00 00 00 00 00 00 00 00 00
       0.0 0.0 0.0 0.0
000010 00 00 00 00 00 00 00 00 00 00 00 00 00 00 00 00
       0.0 0.0 0.0 0.0
000020 00 00 00 00 00 00 00 00 00 00 00 00 00 00 00 00
       0.0 0.0 0.0 0.0
000030 00 00 00 00 00 00 00 00 00 00 00 00 00 00 00 00
       0.0 0.0 0.0 0.0
000040 00 00 00 00 00 00 00 00 00 00 00 00 00 00 00 00
       0.0 0.0 0.0 0.0
000050 00 00 00 00 00 00 00 00 00 00 00 00 00 00 00 00
       0.0 0.0 0.0 0.0
000060 00 00 00 00 00 00 00 00 00 00 00 00 00 00 00 00
       0.0 0.0 0.0 0.0

conv2d_3/Kernel f4 [32, 1, 1, 28]
000000 93 db f2 3d 76 05 3a 3e 48 e8 42 3c 9b 50 dc 3c
       0.11858287 0.18166146 0.0118962005 0.026893904
000010 01 6a 93 bc 27 65 44 be c5 93 65 3c 52 b6 5d be
       -0.017994883 -0.19179212 0.014012282 -0.21651581
000020 93 2b 16 3f bf 96 30 3d 77 e3 5f 3d db f6 a3 bc
       0.5866024 0.043112513 0.054660287 -0.02001517
000030 66 12 14 bd b9 08 7d 3d aa 5b 03 be c1 3f 8c 3e
       -0.03615036 0.061775897 -0.12827936 0.2739239
000040 92 09 a2 3d 26 a5 00 3e c0 ca 8d 3d 82 e7 9b 3d
       0.07911982 0.12562999 0.06923437 0.07612516
000050 a0 e4 86 3d a9 f8 92 3e 1e 90 9e bd ff 26 8a 3e
       0.065865755 0.28705338 -0.07742332 0.26982877
000060 e6 e3 36 3e 18 36 fa bd b1 61 11 3e 4e fa 5c bd
       0.17860374 -0.12217349 0.14197423 -0.053949647
000070 9d 43 88 be c4 07 69 be 36 84 8e 3e dc c6 7d bd
       -0.26614085 -0.22756869 0.27835244 -0.061957225
000080 97 a7 05 3e 48 9b 6e 3c 09 1d 7f be a4 22 a7 bc
       0.13052212 0.014563389 -0.2491342 -0.02040226
000090 0f bc 91 3d 0d 3f 0a bc ad 4a a6 bb f9 d3 b5 3e
       0.071159475 -0.008437884 -0.00507482 0.35513285
0000a0 e0 56 7f be 15 7f 98 bd 19 51 1c 3e 3a 9d f9 bd
       -0.24935484 -0.07446114 0.15265311 -0.12188192
0000b0 a9 03 15 be 3a 0f 13 3e ca fc 58 3d 09 a3 84 3c
       -0.14552177 0.14361277 0.052975453 0.016191022
0000c0 aa 40 0f 3d 1c 07 35 3e 0b e9 40 3e ab 17 de bd
       0.034973778 0.17678493 0.18838899 -0.10844358
0000d0 cc d7 25 3e 71 56 d6 3d a3 22 69 3d fc c3 cc bd
       0.16195601 0.10465706 0.056917798 -0.099983186
0000e0 b6 b4 87 3e 7a 92 12 be ae f7 2c be f7 a4 7c 3d
       0.2650506 -0.14313689 -0.16891357 0.06168076
0000f0 b2 1c 8b be 9e b9 ba 3e 32 2d 7b be 13 90 1c be
       -0.2717033 0.3646974 -0.2452896 -0.15289335
000100 f7 49 98 3d ec a8 12 3f 30 7a 43 3e c6 83 05 3d
       0.07435983 0.57289004 0.1908958 0.032596372
000110 2e a0 f5 3e 8a 71 6d 3e d0 81 66 be c3 57 69 bd
       0.4797377 0.23187843 -0.22510457 -0.05696846
000120 e4 41 9e 3e 23 50 56 3b 0b 9f 8b 3d 5a 5d 52 3d
       0.30909646 0.0032701574 0.068174444 0.05135856
000130 97 d6 d3 3e 1c ab 35 bd fb ad 40 3e 0b 26 ab be
       0.41374657 -0.044352636 0.18816368 -0.33427462
000140 83 15 3c 3d b8 3f 84 3d bb da c6 3b 8b 74 2b bd
       0.045918953 0.06457466 0.006068555 -0.04185919
000150 46 f3 18 3e 39 13 4c be 97 4d e7 3c 15 fd 32 3f
       0.14936551 -0.19929208 0.02823524 0.6991742
000160 8c ad 09 be f9 30 1e be 77 e9 98 3d 02 f1 19 3c
       -0.13445109 -0.15448369 0.07466405 0.00939584
000170 d7 ac e3 3d fe 56 f0 3c 9d af 2d be 92 40 d7 3a
       0.11116951 0.029338356 -0.16961522 0.0016422442
000180 52 36 32 be e0 09 8f 3e 02 c4 17 bd 16 af d8 3d
       -0.17403534 0.27937222 -0.037052162 0.1058027
000190 e4 91 5f bd 7a 47 f8 3d b5 4f 8d 3d 04 f2 cf bc
       -0.05458249 0.12123008 0.068999685 -0.025383957
0001a0 f3 a3 cd 3d 5e c5 cd 3e 78 d9 81 3d 31 dd a1 3e
       0.100410365 0.40189642 0.06340307 0.31614068
0001b0 a5 ff ba be e3 0a 6d 3c f2 ec 8b 3d 80 98 c7 bd
       -0.36523166 0.014467928 0.06832303 -0.09745884
0001c0 15 eb 5c 3c 76 b2 00 bd d0 7b 53 be 11 72 01 be
       0.013483782 -0.031420194 -0.206527 -0.12641169
0001d0 6c 2a 7f be 5b 28 8c 3e bd 23 51 bd 73 2f f1 be
       -0.24918526 0.2737454 -0.051059473 -0.47106513
0001e0 47 d3 24 3c 32 b0 00 3b 2e c5 1c be 3b 5a fb be
       0.010060138 0.001963627 -0.15309593 -0.49092278
0001f0 b8 be 2c 3e 07 08 0e 3d fd b3 5c bc 2a 98 e3 3e
       0.16869628 0.034675624 -0.013470647 0.4445203
000200 55 ec 84 3e 91 70 20 be 7f 69 c5 bd de f1 f5 3c
       0.25961557 -0.1566794 -0.096392624 0.030022558
000210 b4 96 ee be 52 eb de be 6f 4d b2 bc da 9b 17 bd
       -0.46599352 -0.4353891 -0.021765439 -0.037013866
000220 13 fc 88 3e 8c bd e1 3e c9 ec 32 bf 2c 16 e5 be
       0.26754817 0.44089925 -0.69892555 -0.44743478
000230 8a d2 fe 3c c1 eb 85 be 56 92 d7 be 15 80 aa be
       0.031106252 -0.26156428 -0.42103833 -0.33300844
000240 6f 0d 39 be da 6b ac 3c 2e 2f 13 3e 59 03 18 bd
       -0.18071531 0.021047521 0.14373466 -0.037112568
000250 1e 98 81 3c 68 9f 38 bd 59 75 7c 3d 7a e4 95 bd
       0.015819605 -0.045073897 0.06163535 -0.07318969
000260 de 43 19 3e 5a e7 b9 3d f0 ea b5 be aa 35 0c 3e
       0.14967296 0.0907733 -0.35530806 0.13692346
000270 67 7c 28 bd 4e 23 8a 3e ac 64 28 bd 09 1f 08 3e
       -0.041134264 0.2698006 -0.041111633 0.13293089
000280 8d 79 8b be b5 c9 71 bd b2 b3 c6 3d 94 10 a6 bd
       -0.27241173 -0.059030253 0.09702243 -0.08108631
000290 d5 f1 96 be 13 33 2c bf 7b ce 03 be 46 3b 3a 3e
       -0.29481378 -0.67265433 -0.12871735 0.18186674
0002a0 ca 64 2a 3e 9d bf 27 3e 08 d2 38 3e 25 13 3d 3e
       0.1664001 0.16381688 0.1804887 0.18464334
0002b0 89 be d4 3c e5 13 0d be f0 86 26 3a ba 4b a7 3e
       0.02596976 -0.1377712 0.0006352505 0.32674962
0002c0 5d ee 85 bd ba 32 ce 3b 96 36 44 3d 21 b9 05 3e
       -0.06539605 0.006292668 0.04790362 0.13058902
0002d0 ec d2 65 3d f8 30 98 3e 20 9a aa 3c 12 db ad be
       0.056109354 0.2972486 0.020825446 -0.339562
0002e0 c8 8c ca bd 3e 27 aa be 8c 05 e3 bd 70 38 81 3e
       -0.09890133 -0.33233064 -0.11085042 0.2523837
0002f0 f7 0e cb 3e 8c a4 22 bd 2a 8a 67 be 86 fc 21 3c
       0.39659855 -0.039707705 -0.22611299 0.009886866
000300 f9 2a 74 be 36 41 45 bf 88 dc 52 3e 81 cb 9e be
       -0.23844518 -0.7705263 0.20591938 -0.31014636
000310 64 8e 9c 3e e2 0c d0 bd 2b 44 d0 bd 41 2b 9f bd
       0.30577385 -0.10158707 -0.10169252 -0.07771922
000320 a3 cf 96 bd f8 14 39 3e c4 7e f2 bc 28 50 26 3e
       -0.07363822 0.18074405 -0.029601462 0.16241515
000330 50 3a 7f 3d 05 9a b7 3d 11 75 9b 3d 7a 53 cb bd
       0.06231147 0.08964924 0.07590688 -0.09928031
000340 50 9c 13 bb 25 4e ae 3d c1 4b 8c be 09 d5 03 be
       -0.002252359 0.08510999 -0.27401546 -0.12874235
000350 0f ce 7b 3e c0 3c 77 3c 72 3c 0b be 23 42 29 3d
       0.24590324 0.0150901675 -0.13597277 0.04132284
000360 dd 96 70 3e 53 3b 81 3e 2b 8d 42 be e2 b9 17 3d
       0.2349505 0.25240573 -0.18999164 0.037042506
000370 25 5e 3a bb d2 f5 56 bd a1 04 4c 3e 01 5f 3d 3e
       -0.0028437462 -0.052480526 0.19923641 0.18493272
000380 fe b1 c5 bc b7 61 d9 bb da 14 d1 be 95 60 07 3e
       -0.024132725 -0.006633963 -0.4083622 0.13220437
000390 70 a8 fa 3d fe a1 5b 3e 65 7a 04 be 2e f3 06 be
       0.12239158 0.21448514 -0.12937315 -0.13178703
0003a0 a0 df 93 3d be 29 4b be 81 fb 93 bc d2 5d 56 3d
       0.072203875 -0.19840142 -0.018064262 0.052335568
0003b0 8a 97 d1 3d e2 b1 29 3e 8f c5 44 3c 00 2d a1 be
       0.10233982 0.16571763 0.012009992 -0.31479645
0003c0 06 dd f1 bd 5a 4b a2 bd a5 26 54 3d 92 f9 71 3e
       -0.11809735 -0.079245284 0.051794667 0.2363036
0003d0 5a db 15 3d 29 a1 76 bd 51 00 89 be 82 f1 17 be
       0.036586143 -0.060212288 -0.26758054 -0.14838222
0003e0 b0 92 2a 3e 21 45 e9 be 31 80 5a 3e 84 da 26 3d
       0.1665752 -0.45560554 0.21337964 0.040735736
0003f0 66 89 5a bd 46 04 7a bc 87 e6 0f be 95 f8 69 be
       -0.05335369 -0.015259808 -0.14052783 -0.22848733
