mediapipe/models/knift_float.tflite (tflite, 233292 bytes, 30 tensors)

siamese_neural_congas/Mixed7a/Branch_0/Conv2d_0a_1x1/weights f4 [32, 1, 1, 64]
000000 81 ad 74 be 1a 84 c8 3d 9a 8c 0f 3e d5 b4 d0 bd
       -0.23894311 0.097908214 0.14018479 -0.10190741
000010 06 de 00 be 0e 70 82 bd 11 bc cc bd 4e 96 5b bc
       -0.12584695 -0.06369029 -0.09996808 -0.013402535
000020 b5 16 9d 3d 9c d5 72 3e ae d6 b6 bd d0 a3 79 3d
       0.07670347 0.23714298 -0.08927666 0.06094724
000030 d2 e5 68 3e 8c c1 eb bd 9f 76 0f be f1 d1 2b bd
       0.2274392 -0.115115255 -0.14010094 -0.041948263
000040 04 2f 6f 3d 22 67 e9 3c e3 5a 82 3d 94 ab dc 3c
       0.058394447 0.02849156 0.063649915 0.026937284
000050 2e c3 56 3e 1e ab f8 3e e1 3a 4c 3e 51 63 cd bd
       0.20972893 0.48568052 0.19944336 -0.10028709
000060 a5 ec 81 3c 98 ae 00 bd 01 3e c5 bd 5b 78 00 bd
       0.015859911 -0.031416506 -0.09630967 -0.03136478
000070 ba 93 0a be 29 b8 c5 3d 7d 83 ad bd 3e 65 8e be
       -0.13532916 0.096542664 -0.08472345 -0.27811617
000080 69 03 8a bd 59 1f a5 bd f0 45 0c 3d 75 e0 28 bd
       -0.06738932 -0.0806262 0.034246385 -0.041229684
000090 81 20 6e bd 95 89 2f be 33 6a a8 3c 1f 7c 75 be
       -0.058136467 -0.17142327 0.020558452 -0.2397313
0000a0 22 81 f4 bc f1 e4 23 be 3b 99 b1 3d 62 6e bd bd
       -0.029846732 -0.16005303 0.086718045 -0.092495695
0000b0 1d 7c bc 3c e3 6d 32 3d 96 4a a8 3d 4e f7 f2 bc
       0.0230084 0.043561827 0.08217351 -0.02965894
0000c0 52 17 a0 bd 68 1a 37 be 11 cb ca 3d 6f 5d 86 bd
       -0.07816948 -0.17881167 0.09902013 -0.0656079
0000d0 bc 29 5d be 19 ac fd bc 52 c8 82 be 58 b0 28 3d
       -0.21597952 -0.030965852 -0.25543457 0.0411838
0000e0 fd 66 a8 3d b0 16 9b 3b 4e 96 88 3e 53 e2 d8 bd
       0.082227685 0.004732929 0.26677173 -0.10590043
0000f0 c5 38 3e be 08 b5 1e be 81 73 1a bd 86 18 c6 3d
       -0.18576343 -0.15498745 -0.03770781 0.09672646
000100 5c a8 9d be 2d be e3 bd 95 ee 31 ba e4 d1 c3 be
       -0.3079251 -0.111202575 -0.00067875657 -0.3824607
000110 87 26 84 be 3c 2d b3 3d 9c 43 70 be 6a 2e 16 bc
       -0.25810644 0.08748862 -0.23463291 -0.009166339
000120 b9 54 86 bd e6 41 98 3d 09 45 ff bd 1d a8 31 bd
       -0.06559128 0.07434444 -0.12464339 -0.043373216
000130 b8 4d 36 bd fd 82 99 be 96 c4 45 3e da 45 1c 3e
       -0.044507712 -0.2998275 0.19313273 0.15261021
000140 9d 3a d1 be 5b 37 a7 3d 3e 81 a9 3c b6 2d 72 3a
       -0.4086503 0.08164855 0.02069151 0.0009238379
000150 10 59 04 3f 07 0b 70 3d b7 aa f9 3d ed 00 9b 3e
       0.516984 0.058604266 0.121907644 0.30274144
000160 4c 71 00 bf d1 0c 95 bd 28 ed 62 3e 8c b1 ec 3c
       -0.5017288 -0.07277835 0.2216078 0.028893255
000170 11 9f d8 bd c8 12 e0 be f9 99 28 3f f2 35 27 bf
       -0.105772145 -0.4376433 0.65859944 -0.6531669
000180 2e 1a 8c bd bd ab 34 bd c0 7b 8b 3e 51 26 38 3e
       -0.06840931 -0.044109095 0.2724285 0.17983367
000190 f5 1c 50 3e b1 2f dd 3c fc 5d 6d 3e 47 6b d9 bd
       0.20323546 0.02700028 0.23180383 -0.10616165
0001a0 53 8b 59 3e 78 30 93 3e 81 6d a7 be d0 20 53 3e
       0.21244554 0.28747916 -0.32700732 0.20617986
0001b0 48 cc 17 3d 5a 3c 67 be 3e f5 2c 3e 0d 58 1b 3e
       0.037060052 -0.22581616 0.16890427 0.15170307
0001c0 25 19 7e bd 55 04 2e 3c 9b 9e 8e 3d d4 1d f6 bc
       -0.0620357 0.01062115 0.06963845 -0.03004352
0001d0 93 62 61 3c 37 cc 95 bb d6 4b 53 3d b5 e1 38 be
       0.013756412 -0.0045714634 0.051585995 -0.1805485
0001e0 3f cf cb 3e ab b1 d6 3e cf c9 36 3c b1 c9 4e be
       0.39806554 0.41932425 0.011156513 -0.20194127
0001f0 e9 cd f7 3d de e1 9a 3d 3f 22 e2 bd fa 95 2f 3e
       0.12099821 0.07562612 -0.11041688 0.17147055
000200 9c 0b ca bd 5b 8d c1 3d 91 4f e3 3d e8 66 f5 bd
       -0.098654956 0.094507895 0.110991605 -0.119825184
000210 f1 fd 9a 3d e8 82 4d be 92 fa 0f be 95 07 b8 3d
       0.07567967 -0.20069468 -0.14060429 0.08985821
000220 dd f7 05 be 2a 20 19 be c4 83 35 3d 5c 24 29 3d
       -0.13082834 -0.14953676 0.044315115 0.04129444
000230 0d c2 be bd d9 73 64 3d 4e 90 bf 3d 15 9f 90 3e
       -0.09314356 0.055774543 0.09353696 0.2824637
000240 c2 03 05 3f a1 fd fc 3d f8 ec 0b 3e 72 c5 8a 3e
       0.5195886 0.123530634 0.13664615 0.27103764
000250 78 d5 8b 3e 69 11 5d be 72 d0 c9 bd 18 18 96 be
       0.273113 -0.21588673 -0.09854211 -0.29315257
000260 c7 a7 c7 3e 54 11 86 bd f9 85 06 be 40 20 d6 3c
       0.3899519 -0.06546274 -0.13137044 0.026138425
000270 0b 6f c1 bd c9 49 d8 be 95 46 47 3e 01 44 4c be
       -0.09445008 -0.42243794 0.19460519 -0.19947816
000280 ff 75 17 3d 5d e4 e2 3c fc e1 51 bd ba d0 0b 3b
       0.036977764 0.027696783 -0.051240906 0.0021334128
000290 34 8e 21 bd eb 6b 85 3c ab bc e3 3d cd d3 8c bd
       -0.039442256 0.01628681 0.1111997 -0.06876335
0002a0 00 a7 36 bd be c5 a6 3c db 8e ef 3d bd 87 83 3c
       -0.044592857 0.020357963 0.116971694 0.016055936
0002b0 a4 f8 90 3c 93 42 f0 bd 7e c4 96 3e 6c 14 79 bd
       0.017696686 -0.11731448 0.29446787 -0.06081049
0002c0 33 9d 13 bd 61 b0 e2 3a 56 a5 12 bd 45 88 a1 bb
       -0.03603859 0.0017294997 -0.035802208 -0.0049295747
0002d0 4a 1b ae bc 00 cd aa 3d a0 a3 20 be b8 66 df 3d
       -0.021253247 0.08339882 -0.15687418 0.10908264
0002e0 40 41 21 3e 27 28 26 3e fa 7a 0e 3e 1e 67 45 3d
       0.15747547 0.16226254 0.139141 0.048194043
0002f0 b5 b7 d2 bd 5d a4 85 bd 28 c5 8c bd f6 36 05 3e
       -0.102889456 -0.065254904 -0.06873542 0.13009247
000300 f0 f5 bf be 42 92 49 3e 27 b1 6d be b5 5e 0d be
       -0.37492323 0.19684699 -0.2321211 -0.13805659
000310 fe a9 d0 be c7 f0 ad be 26 42 00 bf b5 04 39 3e
       -0.40754694 -0.3397276 -0.50100935 0.18068202
000320 3f 9c 37 bc ee 36 91 3d b3 d2 c3 bd 1d 18 9d 3e
       -0.011206686 0.07090555 -0.09561672 0.3068246
000330 5a a3 df bd d4 b5 1f be 75 54 52 bd f7 e8 9b be
       -0.10919829 -0.15596706 -0.051350076 -0.30451176
000340 b7 b6 94 bd 9d d4 31 be 57 e3 88 3d 2a e0 9e be
       -0.072614126 -0.17366262 0.06683987 -0.310304
000350 6a d4 ae 3e e6 67 6f be dd 89 5d 3d c3 45 94 3d
       0.34146434 -0.23379478 0.054086555 0.072398685
000360 f6 22 a3 3e 20 d4 f0 3e 03 7c d0 bb 2a a8 51 be
       0.3186261 0.4703684 -0.0063624396 -0.20474306
000370 16 bb 1b 3f 5a 97 da be 5c c3 b1 3d 06 ad 07 3e
       0.60832345 -0.42693597 0.0867984 0.13249597
000380 3f 7c 16 3d 82 08 44 bd 98 f3 2f be 0e fd 86 3e
       0.036739584 -0.047859676 -0.17182767 0.2636494
000390 bb 59 8f 3d 37 17 3b 3d f6 82 ec bd b7 67 94 bd
       0.069995366 0.045676436 -0.11548416 -0.072463445
0003a0 ab 3a 39 bd 89 af 16 3d 6c 9f 92 3e 69 79 0d 3d
       -0.045221966 0.036788497 0.28637254 0.034539614
0003b0 98 1c 89 be 2c 66 68 3d 64 9f 12 3e 98 22 93 be
       -0.26779628 0.056738064 0.14318615 -0.2873733
0003c0 71 84 b6 3e d7 f8 8e be 4a b0 fd 3d b5 3f 2c be
       0.3564792 -0.27924225 0.1238714 -0.16821177
0003d0 cc 79 1f 3d 35 e5 86 bc 1a 97 b7 3d df 7e c2 bd
       0.038934514 -0.016466716 0.08964367 -0.09496855
0003e0 01 30 a5 3b 25 c9 30 3d 4e 37 0e bc 23 14 90 be
       0.005041123 0.043160576 -0.008680178 -0.28140363
0003f0 a6 3e b9 be 63 7c 4b 3d a9 b6 0d be da 7f aa 3d
       -0.3618061 0.04967917 -0.1383921 0.08325167

siamese_neural_congas/Mixed7a/Branch_0/Conv2d_0b_3x3/weights f4 [32, 3, 3, 32]
000000 d8 6a 3b 3d ae 4b a7 bd 3b d4 30 3d 35 34 e0 bd
       0.04575619 -0.08168732 0.04317115 -0.10947458
000010 f8 0e 14 3d 85 a5 f1 bd 34 9c 8e bd 6a db 63 bd
       0.036147088 -0.117991485 -0.06963387 -0.05562917
000020 f2 4b f8 3c 67 5e d7 3a 88 54 a5 bc 1d 7e 56 3d
       0.030309651 0.0016431332 -0.02018191 0.052366365
000030 53 94 37 bd d9 6a f3 3c 8d d6 5b 3d 23 0e 5d bd
       -0.044819187 0.029714035 0.05367141 -0.05396856
000040 24 e4 56 3d b5 27 8e 3c 73 02 9d 3c 10 45 73 3d
       0.052463666 0.017352918 0.019166207 0.059392035
000050 1e da 1c bd 8e 53 03 bd 2d bc 7d bd d1 1e 6f 3c
       -0.03829395 -0.032062106 -0.061947037 0.01459475
000060 4a c3 0f bc 0b bb 30 3d b7 05 8d 3d 3c e6 c2 bc
       -0.008774588 0.043147128 0.06885856 -0.023791425
000070 f4 e4 90 bd a0 6f af bd 8f 3e a8 3c e7 c0 72 bd
       -0.07074919 -0.08566213 0.020537643 -0.059265997
000080 77 4f 3b bd c2 f5 94 bd 35 e9 c6 3d 1f 24 e7 bd
       -0.04573008 -0.07273437 0.097124495 -0.112861864
000090 e7 67 7f 3d 86 6f ed bd 67 6c 91 bd aa c6 7a bd
       0.06235495 -0.11593537 -0.07100754 -0.061224617
0000a0 42 cd 68 bd 51 a8 a1 bc fc 7d d5 3c 55 b1 75 3a
       -0.056836374 -0.01973358 0.02606105 0.0009372433
0000b0 bf 75 99 bd 19 8c 97 bc 2e dd 00 3d 72 0d 15 bd
       -0.074931614 -0.018499421 0.031460933 -0.036389776
0000c0 d1 32 43 bc 8d 81 28 bd 9e 29 c7 3d 8c b7 1d ba
       -0.011913971 -0.041139174 0.09724735 -0.00060164253
0000d0 2f d8 6d bd 94 44 f3 bd 2d 21 52 bd f0 ab 89 3c
       -0.058067497 -0.118783146 -0.05130117 0.016805619
0000e0 1d 58 27 3d 9b 9b 3e 3d b5 71 d2 3c c1 16 98 bd
       0.040855516 0.046535116 0.025688985 -0.07426215
0000f0 fa ae 45 bc e0 7a b9 bd 9c 77 37 3d 04 ab bc bd
       -0.012065643 -0.0905664 0.044791803 -0.09212306
000100 31 25 d3 bc ab b8 cf 3c 0c 1c 57 3d ec 06 ad bd
       -0.02577457 0.025356611 0.052516982 -0.08448586
000110 67 da da 3b 6f 81 e9 bc 01 12 85 bc c2 08 14 3c
       0.0066788676 -0.028504102 -0.016243936 0.009035291
000120 c4 25 6e bd 25 ef a1 bd d5 2d 52 ba 84 12 31 bb
       -0.058141485 -0.07906941 -0.0008017694 -0.0027019093
000130 55 43 83 bc 3d 18 b1 3c a3 73 44 bd ff 10 a7 3b
       -0.016023317 0.021618003 -0.047961842 0.0050984616
000140 6c 16 bb 3d 09 d3 94 bd d7 ca b1 bc e2 e3 7c 3d
       0.09135136 -0.07266814 -0.021703167 0.061740763
000150 fd 1c 89 3c f7 8a 97 bd 98 b9 98 bd 97 92 ee 3c
       0.016737456 -0.07399552 -0.07457274 0.029122634
000160 ff 7b a1 3d ec 6b 98 3b 78 9b d8 3c d7 d8 2a bd
       0.078849785 0.004651537 0.02644132 -0.0417107
000170 35 08 c2 3c 57 af 4f bd 7b d6 7b 3d 74 a7 15 bd
       0.023685554 -0.050704326 0.06148384 -0.03653665
000180 55 7e 4f bd 49 99 ec ba d9 46 2a 3d bb b7 01 be
       -0.05065759 -0.0018051054 0.04157147 -0.12667744
000190 2b fc 91 3c d1 ec 18 be 20 22 af 3b d4 43 39 bd
       0.017820438 -0.14934088 0.005344644 -0.0452307
0001a0 fc 66 bd ba a4 c7 63 bc 95 13 1c 3d 35 f9 4b 3c
       -0.0014450247 -0.0139025785 0.038104612 0.012449552
0001b0 a8 26 ab bd c5 3e 3e 3c 54 99 91 3c 63 b8 21 bd
       -0.083569825 0.011611645 0.017773308 -0.039482486
0001c0 bb 37 a8 3d f2 ec 80 bd 5d f0 b3 3d e4 42 cc 3d
       0.08213755 -0.06295194 0.0878608 0.09973696
0001d0 85 b8 1b 3d 7d 88 53 bd 16 23 ac bd 91 aa 5b bd
       0.03801777 -0.051643837 -0.084051296 -0.05362946
0001e0 f1 83 66 3d 02 bf 9e 3d 76 18 8b 3d 79 5a b3 bc
       0.056278173 0.077512756 0.06791775 -0.021893727
0001f0 a7 66 1c bc fa c5 c0 bd 45 08 1e 3d cd f9 7a bc
       -0.009545959 -0.09412761 0.038582105 -0.015318346
000200 95 4f ce bd 8b 3e 19 bd b1 aa e2 3d a0 6e 23 be
       -0.10073773 -0.03741316 0.11067713 -0.15960169
000210 a4 d6 97 3a 7c b4 b3 bd 18 ef d2 bd 03 d5 d2 bd
       0.0011584354 -0.08774659 -0.1029951 -0.10294535
000220 d9 af 31 bd 41 c6 22 bd da 1b 90 3d 79 f4 08 3d
       -0.043380592 -0.03973985 0.07036562 0.033436272
000230 df 22 82 bd fd 9a 40 3d ea 8c f0 3c 90 5c 80 bd
       -0.063543074 0.04702281 0.029364068 -0.06267655
000240 a7 8e f0 bb 6b 1b f9 bd a0 bc 11 3e 88 b0 cd 3d
       -0.0073412242 -0.12163433 0.14232111 0.10043436
000250 68 63 08 bd 3b b3 25 be b3 77 f9 bd f1 50 72 3c
       -0.033297926 -0.16181652 -0.12181034 0.014789806
000260 4c f3 a3 3d fa 75 a0 3d b5 28 a9 3d ac 6a 92 bd
       0.080053896 0.07835002 0.082597174 -0.07149252
000270 eb b7 b6 3d 41 5f 22 bd 9e d3 82 3d 36 65 24 bd
       0.08921798 -0.039641622 0.06388019 -0.040135585
000280 d7 b8 6b 3d 61 8c 1c bd ef be b3 3d 3c fe 94 bd
       0.057549324 -0.038219813 0.08776652 -0.07275054
000290 8c 5f 68 bd c5 f5 93 bd aa df 96 bc 5b 1a 02 bd
       -0.056731746 -0.07224611 -0.018417198 -0.031763416
0002a0 ac 49 58 3d 89 00 c0 bc a5 b8 0c 3d 15 6d 2f 3d
       0.052804634 -0.023437755 0.03435578 0.042828638
0002b0 9e a5 8a 3c dc 26 c8 bb 1f 01 8b bc f5 6e 8d bc
       0.016924676 -0.006108148 -0.016968308 -0.017264822
0002c0 8d af 10 bb c8 d0 1a bd 9b 33 3b 3c 88 01 08 3d
       -0.0022077293 -0.037796766 0.011425878 0.033204585
0002d0 46 72 34 bd 78 ac b6 bd 8a 55 00 bd 52 4f 73 3d
       -0.044054292 -0.089196146 -0.031331576 0.059401818
0002e0 72 e3 7c 3d c6 f5 21 3c aa ad a9 3d f4 29 00 bd
       0.061740346 0.009885257 0.08285077 -0.03129001
0002f0 07 ae b6 3b 8f 62 60 bd 22 9c 89 3d fc 6a 6e bd
       0.005574945 -0.054781493 0.06719233 -0.058207497
000300 26 f0 34 3b 97 2d 53 b9 46 7e 09 3d 5d 2b df bc
       0.002760896 -0.00020139512 0.03356769 -0.027242357
000310 ed 17 fa 3a cb 89 f1 bd c7 ed db bc 38 7d a7 bc
       0.0019080617 -0.1179386 -0.02684678 -0.020445451
000320 7c de 25 3d 3c ca 79 bc cf 78 51 3d 46 c3 06 bc
       0.04049538 -0.01524597 0.051140603 -0.008225268
000330 71 8e 9c 3c 9c b7 4c bd 0a 50 66 3c 8e c0 b6 bc
       0.01911089 -0.04997979 0.014057169 -0.022308614
000340 c0 ce 3c 3c 53 00 b7 bd 4b 23 37 3d 2f 71 5c 3d
       0.011523902 -0.08935609 0.044711392 0.053818878
000350 01 d2 84 3d 18 45 8f bd 82 c8 02 bb 09 50 59 bc
       0.064853676 -0.069956005 -0.0019955938 -0.013263711
000360 2a 0c f7 3b da e1 44 3d ad ff 16 3d 64 4e 39 bc
       0.007539292 0.04806695 0.036864925 -0.011310194
000370 73 1b 8d 3d 39 b1 e1 bc 8d 16 29 3b d1 cb 3a bd
       0.06890001 -0.027550327 0.0025800795 -0.04560453
000380 c2 cd 3f bd ac 60 8c bc ca 2c c5 3d 61 e1 b2 bd
       -0.046827085 -0.01713594 0.096276835 -0.08734394
000390 f9 a5 05 bd a8 48 ae bd 3d 00 6b bc f7 d6 85 bc
       -0.032628987 -0.08509952 -0.0143433185 -0.016337855
0003a0 79 68 54 3c 4c ab 06 bb ab 9c 1c 3d b2 1f b0 3d
       0.012964361 -0.0020548878 0.038235348 0.085997954
0003b0 ae 13 27 3c 30 a9 10 bd c5 c1 1f bc 7c 07 9b bd
       0.010197563 -0.0353176 -0.009750788 -0.07569787
0003c0 0e 74 a1 3d 3a a8 96 bd 69 f7 37 3d 7e 9d 87 3d
       0.07883464 -0.073563054 0.044913683 0.06621836
0003d0 fb 1f 0f 3c 95 4a c0 bd b1 69 79 bd 76 22 2c bd
       0.008735652 -0.093892254 -0.06089181 -0.042025052
0003e0 34 8b 5e 3b b1 0b 07 3d 14 a2 ba 3d 9d 33 90 3c
       0.0033957483 0.032970134 0.09112945 0.017602736
0003f0 7a 4e 46 3d 1a ec 43 bd a9 29 45 3d 28 4d cc bc
       0.048414685 -0.047832586 0.048135433 -0.024939135

siamese_neural_congas/Mixed7a/Branch_1/Conv2d_1a_1x1/weights f4 [32, 1, 1, 64]
000000 6a 59 8e 3d fa 38 b5 3d c2 9b d6 bc 8b e5 ec bd
       0.06950648 0.08848758 -0.026197318 -0.11567219
000010 8a de 02 bd 6b 95 9a 3c e9 43 0f be cc 1c 08 bd
       -0.03195051 0.018870076 -0.1399075 -0.033230588
000020 55 08 a9 bd ee 31 32 3d 86 0a 04 3e 4d f0 a3 bb
       -0.08253542 0.043504648 0.1289464 -0.0050030113
000030 be f2 b7 3b 4d ab 8a bd ea 02 ad bc b7 1f f6 3c
       0.005613654 -0.06770954 -0.021119554 0.03004442
000040 8d 16 cc bd 76 13 b7 3e 3c 36 91 bd 5a 97 d0 bd
       -0.09965239 0.35757035 -0.070904225 -0.10185118
000050 4a 0f 44 bc 6d 26 c3 3d 23 36 35 be f8 d2 a7 3e
       -0.011966536 0.095288135 -0.17696433 0.32778144
000060 4d a2 0c be 1b 30 37 3e 1f 72 32 3e 90 f8 da 3c
       -0.13733788 0.17889445 0.17426346 0.026729852
000070 9a af 2f be 3d 94 e1 be c6 29 c1 bd b6 e5 05 3f
       -0.1715683 -0.4405841 -0.09431796 0.52303636
000080 d6 57 b2 3c 86 3e db bd c8 51 d8 bd a1 3a 12 bd
       0.021770399 -0.10705285 -0.105624735 -0.035700444
000090 9b 6a 05 be 25 12 59 3e 4a 46 2c 3e ee 2e 72 3e
       -0.13028948 0.21198328 0.16823688 0.23650715
0000a0 4d 11 05 be 8e 99 29 3d 46 1e c3 3e 59 b3 27 3d
       -0.12994881 0.041406207 0.38109034 0.040942524
0000b0 01 6a 4b bd d4 62 85 bc de ac 38 3e 63 d1 f2 3d
       -0.04966164 -0.016282476 0.18034694 0.118563436
0000c0 c3 77 3e bd 1c bd 0b be 12 f5 19 be e9 61 66 3d
       -0.046500932 -0.13646358 -0.15034893 0.05624572
0000d0 e8 0e ea 3d 1a 86 f2 bc c4 c4 4f be 1a 26 59 3e
       0.114286244 -0.02960496 -0.20289904 0.21205941
0000e0 1f 61 fa 3c fa 29 92 bd 69 9e 6c 3e 1b cf 5c bc
       0.03056389 -0.07136913 0.23107304 -0.013477112
0000f0 6d cc 1c be f1 bc 70 be 3a 12 ca bd 41 b5 0f 3e
       -0.15312357 -0.23509575 -0.09866758 0.14033987
000100 bb fd 41 3e c7 94 c4 bd 7f b8 03 3d 16 4c a3 3d
       0.18944447 -0.095986895 0.03215837 0.079734966
000110 5e ce 92 bd ff 74 09 3d 10 28 d5 3d dc a7 8c bd
       -0.07168268 0.03355884 0.10408032 -0.06867954
000120 7c c6 e3 bd 93 74 cb 3c 65 12 67 3b 33 96 d6 3d
       -0.11121842 0.02483586 0.0035258767 0.10477867
000130 0a 0d 0a bd 1a 12 dd 3d aa 5c 28 bc 8c b8 69 3d
       -0.03370384 0.10794468 -0.010275999 0.057060763
000140 ee 97 54 3e 28 ab 17 be 43 72 91 3e 9d 5d af 3e
       0.20761082 -0.14811385 0.28407487 0.3425111
000150 b0 0e 79 3d 54 7d f8 3c 7a 7d 52 3e 76 95 69 3d
       0.060805023 0.030333199 0.20555678 0.057027303
000160 0d c5 76 3e e3 58 27 be 24 6f 3e 3d 05 ae 6f bd
       0.24098606 -0.16342501 0.04649271 -0.058515567
000170 8b a6 98 bd 33 a2 1e be 94 09 59 be 9c 3a c4 be
       -0.074536406 -0.15491562 -0.2119506 -0.38325965
000180 37 35 a4 bd a3 66 bc bd 4a fc b2 bc cc 95 70 bc
       -0.080179624 -0.09199264 -0.021848816 -0.014684152
000190 64 b6 6a 3d 99 ff 89 3c ce 14 e7 3d aa dc ad bd
       0.057302848 0.016845511 0.11283265 -0.08489354
0001a0 9c ac 3e 3e 75 dc 8c 3d b8 7d 81 be 20 69 d5 bd
       0.18620533 0.06877986 -0.25291228 -0.10420442
0001b0 45 48 b8 3c db aa 03 be f0 a3 19 bc 9f 1e 87 3c
       0.022495398 -0.12858145 -0.009377465 0.016494093
0001c0 ac 3a 0b 3d 31 29 7c 3d 51 9a 23 bb b5 a3 52 3d
       0.0339915 0.06156272 -0.0024963806 0.051425654
0001d0 a6 d3 19 3e 1d fe 14 bd 4e 35 ed bc a1 b8 11 3d
       0.15022144 -0.036375154 -0.028956082 0.035576466
0001e0 dd 69 1a 3c b4 8b c9 3d 01 af b6 bd 25 76 b2 3c
       0.009424654 0.098410994 -0.08920098 0.021784851
0001f0 77 25 94 bb 06 c1 f6 3d 6e 7e f0 bc 92 d9 b6 3d
       -0.0045210677 0.12048535 -0.029357161 0.08928217
000200 65 43 fa bd 3b ec 96 3d eb 77 ca bd 3d a9 5c 3e
       -0.12219886 0.07369276 -0.09886154 0.21548934
000210 e5 e8 af bc 41 30 a1 3e f2 72 4d 3d 3c 80 80 bd
       -0.021473357 0.31482127 0.05015845 -0.06274459
000220 b1 7a b6 3d b0 e7 0d be a7 cd 1c 3e ec 0e 6e 3e
       0.0891012 -0.13857913 0.15312825 0.2324788
000230 75 9e 8f bd a6 f3 08 bd 74 bd dc 3c 8f 24 5d 3d
       -0.07012645 -0.033435486 0.026945807 0.053989943
000240 a4 e1 02 3d f0 13 91 bd 5f 28 40 3d 13 77 90 bd
       0.03195347 -0.07083881 0.0469135 -0.070539616
000250 63 f2 36 3e 27 49 a5 3c 81 23 5c be 42 23 b2 bd
       0.178659 0.020176483 -0.21497919 -0.08698131
000260 a0 de 02 3d 94 63 2a 3d fc 2c a4 bd c5 80 e7 bb
       0.031950593 0.04159887 -0.080163926 -0.007064911
000270 c2 92 28 3d 76 2c c2 be c3 1b 9b bd 07 4b b6 3d
       0.041155584 -0.37924546 -0.075736545 0.08901029
000280 ee 33 a8 bd 13 2d 03 3d b5 7b d5 3d d9 c1 2e bd
       -0.0821303 0.032025408 0.10423986 -0.042665336
000290 b1 55 aa 3c a8 65 38 bd 43 1f 2d 3e 09 36 06 3e
       0.020792814 -0.045018822 0.16906457 0.1310655
0002a0 78 ac a6 3d cc 8e 48 bd ad 02 01 3e d6 39 16 3d
       0.081383646 -0.048964307 0.12598677 0.03667625
0002b0 47 b4 c1 3d 19 f3 8b 3d 99 af b9 3c 9f 17 25 be
       0.09458213 0.068334766 0.02266674 -0.16122292
0002c0 63 f1 d6 bc 8e 75 0e 3e 6e 8e a2 bc 53 03 1f bd
       -0.026238149 0.13912031 -0.019843306 -0.03882153
0002d0 ec 00 93 bc d3 93 fd bc 86 aa b7 3d b2 fa 3d be
       -0.017944776 -0.030954277 0.08968072 -0.18552664
0002e0 b7 d2 9e 3e 17 59 36 3c a3 da ef bb fa 2b e2 3d
       0.31020138 0.011129639 -0.0073197647 0.11043544
0002f0 b7 7c 1c 3e 06 3f 9c 3d 66 04 7c 3b a5 bd af 3a
       0.1528195 0.07629208 0.003845477 0.0013407959
000300 b4 e6 d1 3d ca ec ec 3d 9e 3c 44 3e d3 a8 cd bd
       0.10249081 0.115686014 0.19163749 -0.10041966
000310 33 71 7a bb d7 77 8c be 60 39 1d 3d 4c 26 0e be
       -0.0038214445 -0.2743518 0.038384795 -0.13881797
000320 12 f0 08 3f 94 d5 1a 3e 53 f3 8e be 21 96 ba 3d
       0.5349132 0.15120536 -0.27920017 0.09110666
000330 a9 5a 85 3e 25 9b 81 bd da 15 89 3e 5a 3f a4 bb
       0.2604573 -0.063284196 0.26774484 -0.005012435
000340 5a 09 c7 bb 17 41 88 3d 4f 99 6c 3e 50 8d 1b be
       -0.006074113 0.0665304 0.23105358 -0.15190625
000350 77 69 5d 3e 43 94 b7 3e f2 29 59 3b c6 16 3d 3d
       0.21622263 0.35855302 0.0033136574 0.046164297
000360 c2 c6 a9 3e 38 e4 da 3d ea ee d2 3c 78 0b 88 be
       0.33159453 0.106880605 0.025748689 -0.2657125
000370 ac 5c 90 be 6d 91 0e 3e 59 c7 41 3e 22 32 01 3e
       -0.28195703 0.13922663 0.18923701 0.1261678
000380 b0 cb 55 be 75 b7 07 be ad b4 71 3e 1d d4 80 3d
       -0.20878482 -0.13253577 0.23604079 0.062904574
000390 9d 46 fe bc 84 40 2b 3e 07 a8 9f be 60 5a 00 bd
       -0.03103953 0.1672383 -0.31182882 -0.03133619
0003a0 62 a8 3f bd 65 5c 3b be 23 00 ed 3d f2 b7 01 3e
       -0.04679144 -0.18296964 0.11572292 0.12667826
0003b0 4d e6 1f be ce db 3b 3c c9 e9 2c bc df d4 2a 3e
       -0.15615197 0.01146598 -0.010553786 0.16682766
0003c0 52 a3 c7 bd 90 50 54 be ba 57 fe bb 1b 1d 84 be
       -0.09747948 -0.20733857 -0.0077619227 -0.25803456
0003d0 f4 5e 94 bd eb 8b 87 be 9f 92 54 be 8b a8 f3 3d
       -0.07244673 -0.26473936 -0.20759057 0.118973814
0003e0 c2 d2 dc 3d 80 f1 5d 3d 7c 0e dc 3d 3f 2d 37 be
       0.10782386 0.05418539 0.1074495 -0.17888354
0003f0 ee 85 e8 bd b6 30 0b be a9 93 11 be 1d 8a b6 3d
       -0.1135367 -0.135928 -0.14216484 0.08913062

siamese_neural_congas/Mixed7a/Branch_1/Conv2d_1b_1x7/weights f4 [32, 1, 7, 32]
000000 8d e6 d1 bd f8 67 3a bd 18 1d 40 3d 63 81 cc 3c
       -0.10249052 -0.04550931 0.046902746 0.02496404
000010 55 e4 9e 3d 13 58 48 3d 5c e6 a2 3d 07 ea 9b bc
       0.07758395 0.04891212 0.07954094 -0.019032491
000020 29 08 21 3d 35 30 21 bd e2 44 a9 bc 30 0d 39 be
       0.039314423 -0.039352614 -0.020662729 -0.18071437
000030 d5 d8 14 3c d8 77 0d 3d 82 06 81 3d f9 11 31 bd
       0.0090849 0.03453812 0.063000694 -0.04323003
000040 11 57 8a bd 3a 4b 19 3e 68 11 a4 bd 99 b9 64 3c
       -0.06754888 0.14970103 -0.080111325 0.013960266
000050 74 3f 0e 3e d2 76 04 3e 77 51 bf bd ef 86 de bc
       0.13891393 0.12935951 -0.0934171 -0.02716395
000060 66 73 26 3d 58 c3 98 3d 8f 10 67 3d 62 8d 3c 3d
       0.040637396 0.07459134 0.056412276 0.04603327
000070 ee f2 99 bd 54 93 08 bd 4f 83 e7 3d 23 f0 16 3e
       -0.07517038 -0.033343628 0.11304342 0.14740042
000080 c0 fb 58 3c a6 9e 12 3a e8 77 36 3d e9 01 af 3d
       0.013243616 0.00055930985 0.044547945 0.08545286
000090 67 75 21 bc 1a af 49 3b f0 58 02 bd 90 13 e2 3c
       -0.009854651 0.0030774535 -0.0318231 0.027597219
0000a0 71 a0 c4 3c 57 1a fd bd 1b b9 1e 3d bd eb cc 3c
       0.024002286 -0.123585396 0.03875075 0.025014753
0000b0 d2 e6 ee bd ef 54 38 bc 89 65 1b 3e 3c ba be bc
       -0.11665119 -0.0112507185 0.15175451 -0.023282163
0000c0 36 6f fb bd b1 28 f2 3d c0 e1 21 be ad fa 02 bd
       -0.12277071 0.118241675 -0.15808773 -0.031977344
0000d0 d6 47 b3 bc 23 d1 29 bd bd 0a 93 3c 82 a4 dd bc
       -0.02188484 -0.041459214 0.017949456 -0.027055983
0000e0 f8 53 1e bd cf 36 af 3d 34 ff a9 bc ca 53 18 bd
       -0.038654298 0.08555376 -0.020751573 -0.037189282
0000f0 39 2d 29 bd 3d a4 8b 3c 45 d4 4d 3b f2 74 16 3e
       -0.041302893 0.017046088 0.003140704 0.14693049
000100 32 e8 90 bd 1c fa 06 bd 69 85 25 bd 17 43 cb 3d
       -0.07075538 -0.032953367 -0.040410433 0.09924906
000110 47 fe 4a 3b b6 06 a8 3d c8 54 51 bd 09 a3 84 bd
       0.0030974315 0.08204405 -0.051106244 -0.06476409
000120 65 97 4d 3c e7 d2 7b bd 90 b8 26 3c 40 c6 14 bd
       0.012548302 -0.06148043 0.010175839 -0.03632188
000130 79 96 b1 bc cf 5e b7 3d 68 05 47 3c d1 ee bb bd
       -0.021678196 0.0895363 0.012147285 -0.0917641
000140 58 b7 08 3c d2 66 00 3c f9 09 17 bc e0 18 bc bd
       0.008344494 0.007837014 -0.009218686 -0.09184432
000150 d7 ce 0b bd cd 9a 76 3d a1 db d7 3d fd 79 9d bd
       -0.034132805 0.060206223 0.10539938 -0.07689283
000160 cf 7c f3 bc ec ba a1 3d 37 be 62 bd ad 82 06 be
       -0.0297226 0.07896981 -0.055357184 -0.13135786
000170 39 0f d0 bc e3 fa 05 bd 72 de c1 bc fc c8 e8 3b
       -0.025397884 -0.032709967 -0.02366564 0.0071040373
000180 71 80 9c bd d3 73 0d 3d 8f dd af 3d 46 f7 46 bd
       -0.07641686 0.034534287 0.08587181 -0.048575662
000190 28 a6 38 3c 78 46 5c bc 82 14 10 3d 8c 84 36 3b
       0.0112700835 -0.013444535 0.035175808 0.002785
0001a0 33 4d de 3d aa 60 92 bd d0 2e 75 bb 1b c1 97 bd
       0.10854568 -0.071473435 -0.0037411936 -0.07409879
0001b0 0f ee 4f bc a1 23 f9 3c 64 74 67 3d 6d 5c 8a bd
       -0.012691035 0.030412497 0.056507483 -0.0675591
0001c0 ac ef a6 3d 0a 68 27 3d 2a fd 40 bd a2 6c b2 3c
       0.081511825 0.040870704 -0.047116436 0.021780316
0001d0 d9 1a 37 3d ec 24 ff 3d 48 de 1a bc cb df 05 bd
       0.04470334 0.12458214 -0.00945241 -0.03268413
0001e0 44 3c a9 3d ba 2f 1a bd 24 4b d1 3d 3b 99 a2 3d
       0.08263448 -0.03764317 0.1021941 0.07939383
0001f0 c5 eb 58 3d b4 8d 96 3c 55 37 76 3d 1d b7 df 3d
       0.052959222 0.018378116 0.060111362 0.10923598
000200 cc 07 b8 bb 31 95 61 3c 3e 8d 8a bd 63 dc c0 3c
       -0.005616164 0.01376848 -0.06765221 0.023542589
000210 be fd 91 3c ef 65 a2 3c bb 85 d3 bc d0 f6 27 3d
       0.017821189 0.019823996 -0.025820604 0.041006863
000220 73 00 c6 bc 53 15 55 bd 76 77 f4 bb cf 19 b1 bc
       -0.024170136 -0.05202229 -0.00746053 -0.021618752
000230 0d f1 16 3d 4e 45 61 bb 37 3a bf bd e7 52 2e bc
       0.036850978 -0.0034373584 -0.093372755 -0.010639883
000240 c3 5e 11 bd 65 db eb b9 7d 14 8b bd b9 c1 15 be
       -0.035490762 -0.00044986155 -0.06791017 -0.1462468
000250 fa 74 97 bc 97 19 cc 3c 7b fd 8d bc 9f 09 b4 bc
       -0.018488396 0.024914546 -0.017332783 -0.021977244
000260 29 f6 6a bd 46 df 89 ba 69 08 b0 bd b6 5c 0a 3c
       -0.057363663 -0.0010518811 -0.08595354 0.008444956
000270 38 80 fc bb 09 0d d0 3a 2d 6f 5c 3d 26 08 84 bd
       -0.0077057146 0.0015873025 0.053816963 -0.06446867
000280 d7 21 b9 bd ab 5d d9 bd f0 b2 fc 3c da 6b 83 3d
       -0.090396576 -0.10613569 0.030847043 0.064170554
000290 0a f9 2e bd 40 73 8e bd 0f ae 34 bd 6a 6c 48 3d
       -0.04271797 -0.06955576 -0.044111308 0.048931517
0002a0 b1 06 37 bc c2 27 8d bd 79 a2 74 3d b7 fc 33 bc
       -0.011171029 -0.06892349 0.05972526 -0.010985545
0002b0 6d fa e2 bc d0 db ca 3c 38 34 2b 3d e4 db ea bd
       -0.027707303 0.024763018 0.041797847 -0.11467722
0002c0 28 a2 5d bd cb 79 14 3c 5d 1c d7 bd 59 05 48 bd
       -0.054109722 0.009062241 -0.10503457 -0.048833225
0002d0 52 51 d1 bd 37 b1 5d bd a2 bf ed bd 7f 80 2e be
       -0.10220589 -0.054124083 -0.11608817 -0.17041205
0002e0 93 90 d9 bd 20 a5 dc 3d 66 9d 40 bd b8 7c f4 bd
       -0.106232785 0.107736826 -0.047025107 -0.11937851
0002f0 d7 26 a0 bc 21 ed 57 bd b1 b8 8a 3d 98 6e 8f bd
       -0.01954977 -0.052716378 0.06773508 -0.07003516
000300 e0 71 3d bb ed 8e 88 3c f0 26 0d bd 06 21 13 be
       -0.0028906986 0.016669715 -0.03446096 -0.14368066
000310 00 5e f8 bb e6 e6 0a be b9 bc 38 be ec e7 79 be
       -0.007579565 -0.13564643 -0.18040742 -0.24404877
000320 bd c9 13 be d7 34 a1 3d a2 c6 2a bd cc 9f 11 bd
       -0.14432426 0.078714065 -0.041693337 -0.035552785
000330 6b 32 2a bd 2d 4f 3b be b8 61 32 bd 80 44 ef bd
       -0.04155199 -0.18291922 -0.043550223 -0.11682987
000340 1c d3 f4 bd 37 c4 56 be 72 ea 1c bd ba e7 47 bd
       -0.119543284 -0.20973288 -0.038309522 -0.048804976
000350 a1 92 05 3d e6 2b 21 be 1a ef 82 bd 4d d9 f3 bd
       0.03261054 -0.15739402 -0.06393261 -0.11906681
000360 78 bd b4 bd 37 bd 7e 3c 33 e3 b1 bd eb cf 90 3d
       -0.08825201 0.015548042 -0.08685913 0.07070907
000370 f2 9f 06 be 26 62 ee bd 25 5f 0d 3c 3e a4 e8 bd
       -0.13146952 -0.11639814 0.008628641 -0.11359452
000380 0d 68 2e bb 6d d7 cb bd 75 8d 64 bc 77 fc 38 3e
       -0.0026612312 -0.099531986 -0.013949742 0.18065058
000390 40 bc cc bc 9f ce 03 bd b1 ed 01 3c 23 58 70 3d
       -0.024992108 -0.03217947 0.007930205 0.058677804
0003a0 32 74 fc bd 6e ff 9a bd 6c ef 53 bd a7 36 d1 bd
       -0.1232685 -0.075682506 -0.051742002 -0.10215502
0003b0 a7 d1 2c 3d 36 5e e8 bc 16 69 87 bd ce 9f 00 3c
       0.042192128 -0.028365236 -0.066118404 0.0078506
0003c0 bf 11 2e bd e9 d0 aa 3d 56 0d 85 3d f4 6e 72 3d
       -0.042497393 0.08340628 0.06496684 0.059187844
0003d0 28 71 05 be f9 06 13 bd 86 4c 34 bc b3 15 05 3d
       -0.13031447 -0.03589532 -0.011004573 0.032491397
0003e0 2d c8 a7 bc ae f9 77 3c 86 76 c9 bc a8 b1 2d bd
       -0.020481193 0.015135212 -0.02459265 -0.042405754
0003f0 13 1c 8a bc 8f 18 32 bd 58 d2 ec bb f4 78 9a 3c
       -0.01685909 -0.043480452 -0.0072272234 0.018856503

siamese_neural_congas/Mixed7a/Branch_1/Conv2d_1c_7x1/weights f4 [32, 7, 1, 32]
000000 a3 06 0d bd 47 a1 21 bd 9d 99 db 3c fb 58 c7 bb
       -0.034430157 -0.039460447 0.026806647 -0.0060836053
000010 0a 5a 26 bd d4 d7 5c 3d 72 13 11 bd ce 23 10 bc
       -0.04061321 0.053916767 -0.035418935 -0.008797599
000020 5a 88 9b 3d e5 51 8a bd 92 39 8c bd f0 c8 a2 3c
       0.07594366 -0.067539014 -0.06846918 0.019871205
000030 0b c1 ac bc 0c 22 10 bd 67 55 55 bb 6e 53 32 3a
       -0.021088144 -0.03518872 -0.0032552124 0.0006802593
000040 de 92 01 3d 74 42 a8 bb 9a 25 9c 3d b0 f5 5b bc
       0.031634204 -0.005134875 0.076243594 -0.013425276
000050 fb fd 8e 3a ad 3c b8 3c a8 46 00 be c9 ce 96 bd
       0.0010909432 0.02248987 -0.12526953 -0.0736366
000060 9d 26 bb bd f4 39 96 bd 00 47 ae 3d 16 99 22 3d
       -0.09138224 -0.073352724 0.08509636 0.039696775
000070 5a af 24 bc de d0 73 bd 45 50 94 bc f2 40 1e 3c
       -0.010051573 -0.059525363 -0.018104682 0.009659039
000080 dd d0 0b 3d 2e e8 55 3d c0 eb 84 3d 19 c9 38 bb
       0.034134734 0.052223377 0.06490278 -0.0028196035
000090 77 fc cd 3c fa f7 7f bd ec 9d 77 3c 28 a4 64 bd
       0.025144799 -0.06249235 0.015113335 -0.055820614
0000a0 5f aa 3b bd d5 64 d5 3b 04 43 19 bd ba 19 91 bd
       -0.045816775 0.0065122643 -0.037417427 -0.07084985
0000b0 a8 55 40 3b b0 e4 82 bd 4e 7c 38 bd 09 bb 02 3d
       0.002934793 -0.06391275 -0.04504042 0.031916652
0000c0 57 f5 e7 bc c8 49 29 3d cb 2c 7e bb a7 b4 ca bc
       -0.02831523 0.04133013 -0.0038784023 -0.024744345
0000d0 e9 db 3e 3d b2 4c 46 3d 2c 27 9c 3b f2 b8 b8 bd
       0.04659644 0.048412986 0.004765412 -0.090196505
0000e0 f1 31 03 3d 24 51 4f bc 6b 19 19 bd 0a 17 97 bd
       0.03203005 -0.012653623 -0.037377756 -0.07377441
0000f0 d8 84 e0 bd c7 12 d3 bd 59 69 df 3b ee e7 0b bd
       -0.10962838 -0.10306316 0.0068179783 -0.034156732
000100 78 d8 d2 3a 83 d7 07 bd ab c3 12 3c 41 e5 f6 3c
       0.0016086241 -0.033164512 0.008957784 0.030138614
000110 33 57 a0 3d f6 87 0f bd 72 56 00 bd 5b 3d 6a bd
       0.07829132 -0.03504177 -0.03133244 -0.05718742
000120 0d 7a 1c bd 0f 60 8f 3b 8b 04 12 bb be bf 6f bc
       -0.038202334 0.0043754647 -0.002228054 -0.014633117
000130 75 ac 2d bd 14 e8 a1 3b 02 db 30 bd 10 5f 1f 3c
       -0.042400796 0.004940996 -0.043177612 0.0097272545
000140 65 80 cb bd 0b e5 03 bd ae 8f ae bc 1b b1 34 3d
       -0.09936599 -0.032200854 -0.021308746 0.044114213
000150 b8 12 ae 3d 89 42 4b bb 8d aa a9 3c ce 64 e1 bc
       0.08499664 -0.0031015 0.020711208 -0.027513888
000160 ca 6f 3b bd 6c d3 4f 3d 8a 62 83 bc 95 79 90 bd
       -0.045760907 0.050738737 -0.016038198 -0.0705444
000170 56 5d 16 3d 1e 7f cd bc 8b 2b ba 39 11 79 c5 bb
       0.036710106 -0.025085028 0.00035509127 -0.006026395
000180 31 98 69 3c e1 f1 8a 3c ef 0c 90 3d e6 cd cd 3b
       0.014257477 0.01696104 0.07033717 0.0062806485
000190 5a 17 1a 3d 7d 4d bb bc b7 85 96 bd 9d de 8d bd
       0.037619926 -0.022864098 -0.07349723 -0.06927226
0001a0 a4 30 cd 3a 26 7f 34 3b 3b fe 02 bd 29 4b d4 bc
       0.0015654755 0.0027541607 -0.031980734 -0.025914745
0001b0 a3 66 a1 bd f2 6d 13 bd 83 3b 78 3d 31 90 21 3e
       -0.078809045 -0.035993524 0.06060363 0.15777661
0001c0 73 ec a5 bd dc 2d 57 3d b9 4c 83 bd 3f d6 b4 bb
       -0.0810174 0.05253397 -0.06411118 -0.005518704
0001d0 cf 35 90 3c d3 a3 22 3d e2 7a 00 bd f9 ac 10 3d
       0.017603783 0.039707016 -0.03136719 0.03532121
0001e0 11 b8 a2 3d 00 c2 45 bd 6a 74 70 bc 59 bf f5 bc
       0.07945264 -0.048280716 -0.014676193 -0.029998468
0001f0 82 68 c1 3c 99 90 36 3d fe b3 cb 3d 50 52 9b 3d
       0.023609404 0.044571493 0.0994644 0.07584059
000200 51 83 b6 3c fe de 73 bd 72 c2 3e bd 7c 79 4b bd
       0.022279413 -0.059538834 -0.046572156 -0.049676403
000210 d9 50 2e bd 61 36 e7 bd d6 3f c4 3c f9 8b 8c bd
       -0.04255757 -0.11289669 0.02395622 -0.06862635
000220 74 c0 20 bd f4 38 98 bc 0e f2 fa 3d b0 75 c1 3d
       -0.039246038 -0.018581845 0.122531995 0.09446275
000230 de a1 80 3d ea a2 8f 3c c8 28 92 3b 5d 41 82 3d
       0.06280874 0.017533738 0.004460428 0.06360123
000240 bb 64 c9 3b d8 f5 25 3d bc ee a1 bd e8 dc b3 39
       0.006146041 0.040517658 -0.07906863 0.00034306129
000250 f9 d9 b9 3d f2 ab 79 bd 5c d0 f7 bc b1 08 c7 3c
       0.09074778 -0.060954995 -0.03025072 0.024296137
000260 6b 6a a3 3c e6 22 dc 3d 48 33 48 3d 1f 0b 7a bd
       0.019948205 0.10748844 0.04887703 -0.061045762
000270 c4 ce f7 bc 87 3f 49 bd 8a 4b ba 3d f0 60 82 3d
       -0.03024996 -0.04913285 0.09096439 0.063661456
000280 4a fa d0 3c 6f 4f 64 bd a6 68 25 bd 89 6c e4 3c
       0.025509972 -0.055739816 -0.040383004 0.027883785
000290 4c 0b 24 3c 97 3f 04 bd 41 25 2c bd ed 10 44 bd
       0.010012459 -0.032287207 -0.042027716 -0.047867704
0002a0 19 63 23 bb 1c d3 af bc bf 8b a4 3d 00 ca ee 3d
       -0.0024930893 -0.02146297 0.08034467 0.11659622
0002b0 f3 45 90 bc 2b 03 8b 3c 87 2e 39 3d 52 e2 09 3a
       -0.01761148 0.016969284 0.045210388 0.00052598596
0002c0 ab ad e9 bb 2e 6e 05 3d 44 e4 a4 bd 55 f9 74 3d
       -0.0071312985 0.03257578 -0.08051351 0.059808094
0002d0 04 0f a1 3d 74 1f 5b 3c c2 b1 72 bd cd 4d ef bc
       0.07864192 0.013374198 -0.059251554 -0.029211903
0002e0 ca 9b c5 39 c2 12 6a 3d dd a6 d6 3c 39 07 97 3c
       0.0003769084 0.057146795 0.026202613 0.018436061
0002f0 66 e8 68 3d 4b 5b c8 3d 28 cb 87 3d a5 5f f5 bb
       0.056862257 0.09783038 0.06630546 -0.0074882084
000300 63 3b 93 bd 94 f4 a1 3d f4 8b cb bc 74 6f c3 3d
       -0.071890615 0.07907978 -0.024847008 0.09542742
000310 3d f4 f8 3b 49 28 0f bc 92 c8 a9 bd 6e 2f 8d 3d
       0.007597475 -0.008737632 -0.08290209 0.06893812
000320 4f 6b 1d 3d 0c eb cc bc 8e cd 7c 3c 55 40 84 3d
       0.038432416 -0.025014423 0.015429867 0.06457583
000330 bd 43 9b 3d 9a f1 3a bd 2f 46 08 3d ab d8 54 bd
       0.075812794 -0.045640565 0.033270057 -0.051964443
000340 91 df 3f 3d 62 fe 8f 3d 8c 70 71 bd 68 53 07 3d
       0.04684407 0.070309415 -0.058945224 0.033038527
000350 fd be 8c bc 48 86 eb 3c 73 54 d2 bc fc e9 ae 3c
       -0.017180914 0.028750554 -0.025675034 0.021351807
000360 16 71 a6 3c af 42 f3 bc 00 ca 62 bc 2e fa d3 3c
       0.020317595 -0.029694883 -0.013842106 0.02587613
000370 17 57 b4 3d 5f f7 8d 3d ef 80 63 3d 1f 43 56 bc
       0.088056736 0.06931948 0.055542883 -0.013077526
000380 b4 a6 46 bc 3b aa 32 bd bd 5e f2 bb 80 8f 09 bd
       -0.012124706 -0.043619376 -0.0073965476 -0.033584118
000390 df b0 87 3b a9 71 0f 3d 66 91 7c bd 9e 28 37 bd
       0.0041409577 0.035020504 -0.0616621 -0.04471647
0003a0 45 13 86 3c 43 18 23 bd 05 92 cd bd c6 6c 09 3d
       0.01636661 -0.03981806 -0.10037617 0.033551
0003b0 ea e8 5c 3d 24 1b 1d bd b4 0b 0e ba 6b c9 75 bd
       0.05393306 -0.03835596 -0.0005418614 -0.06000654
0003c0 0b 51 72 bd b0 e2 07 3e 55 00 9d 3c bb 55 cd bd
       -0.05915932 0.13270068 0.019165197 -0.100261174
0003d0 47 b9 12 bb 6c b8 83 3d 7d b6 03 bd 06 40 98 3c
       -0.0022388266 0.0643166 -0.032156456 0.018585216
0003e0 fc c9 07 bd 89 2e 04 3c 92 9c e8 bc b9 cb 75 bd
       -0.03315161 0.0080677355 -0.028394971 -0.06000874
0003f0 bf c6 bf 3d a9 88 7d 3c 4c 31 6d 3c 87 74 e9 bd
       0.0936408 0.015474477 0.014477085 -0.11399179

siamese_neural_congas/Mixed7a/Branch_1/Conv2d_1d_3x3/weights f4 [32, 3, 3, 32]
000000 d7 2b a5 bd 9c 99 89 3c 49 50 f7 3c 5e a8 b6 bc
       -0.080650024 0.01679688 0.03018965 -0.02229708
000010 b6 7e 15 be 7d 35 a3 b9 62 b1 c7 3c 8d ac e4 3d
       -0.14599118 -0.00031129635 0.024376575 0.11165724
000020 2b 2e 91 bd dc b3 58 bd 94 c8 b4 bc 99 12 a5 3c
       -0.07088884 -0.052905902 -0.0220683 0.02015047
000030 cf 1e 49 bc 11 ef f6 bd 79 9f 54 be 9c 50 3d 3d
       -0.012275412 -0.12057317 -0.20763959 0.046219453
000040 a8 f9 7a 3d f6 37 0f 3d d2 94 e1 bc 6d 9a 0f bd
       0.061273247 0.034965478 -0.027536783 -0.03505938
000050 1d 5f aa bc d8 fd 82 3d 2c 91 d3 bd 79 f6 78 3c
       -0.020797307 0.06396073 -0.10330424 0.015195482
000060 0a d9 1c bd 60 71 bd bd c3 40 d9 bc 99 d7 f0 3d
       -0.038292922 -0.0925014 -0.026520139 0.11759872
000070 dc 0d 14 3e 7f bd 63 3c b9 38 18 bc a2 4b c7 3d
       0.14458412 0.01390016 -0.0092908675 0.09731223
000080 e2 9e a3 3d 1a c6 91 3d 03 de aa bd 08 a7 d1 3d
       0.07989289 0.07117863 -0.083431266 0.10236937
000090 8d 7d ef bc b5 91 ea bd f5 9c 0b 3e c9 d7 78 3b
       -0.029234672 -0.11453573 0.13634093 0.0037970415
0000a0 5e 37 9b bd 11 3b b6 bc 18 2f 11 bc 40 2d 2c 3d
       -0.0757892 -0.022244962 -0.008861326 0.04203534
0000b0 a3 35 25 3d 31 f4 52 3c 2e 9b ff bd 79 57 1d bd
       0.040334355 0.012875603 -0.1248077 -0.0384135
0000c0 e1 11 a1 3d 71 1b 22 3e 64 15 52 bb 16 54 9b bd
       0.07864738 0.1583078 -0.0032056207 -0.075843975
0000d0 89 36 52 bc 6f 9a 98 3d 2e ee 66 be 23 c7 f7 bd
       -0.012830385 0.07451331 -0.22551796 -0.12098529
0000e0 5c 21 82 3d a8 f7 0d be c4 d9 e7 ba 3a c7 9e ba
       0.06354019 -0.13864005 -0.00176888 -0.0012113818
0000f0 06 13 b2 3d ce fc 76 bd 4f 65 b2 bd d4 fe 46 3d
       0.08695035 -0.060299687 -0.08710729 0.048582867
000100 02 32 c1 3d cc 6a 12 3e ad ea 28 3d 4e 8d 2c 3d
       0.09433366 0.14298552 0.04123943 0.042126946
000110 22 e3 8c bc 9c 3f d5 3d 10 69 6b 3c 1d 4b d3 3d
       -0.01719815 0.10412523 0.014368311 0.10317061
000120 04 91 ef bd 6b 7f 0d bd ad 24 c3 3c a7 31 93 3d
       -0.116975814 -0.034545343 0.0238212 0.07187205
000130 da 54 cc bd 1d be 94 bd 67 8d 0f bd fb 45 b4 3c
       -0.09977122 -0.07262824 -0.03504696 0.022006026
000140 30 cc 69 bd f5 b2 ea 3c 13 fc 00 3c 49 e3 aa bd
       -0.057079494 0.028649786 0.007872599 -0.083441325
000150 a3 a1 56 3d 55 f1 47 3d 2e 70 f4 bd e1 62 15 be
       0.052400243 0.048814137 -0.11935459 -0.145885
000160 ac f4 51 3d c9 fe 3d bd f7 f3 96 3d 3e c8 66 bd
       0.051258728 -0.04638556 0.07370751 -0.05634331
000170 89 b6 d8 3c eb be a3 bc c8 90 90 bd 38 f9 94 ba
       0.026454227 -0.019988498 -0.07058865 -0.0011365777
000180 d0 2e 07 3d 1f e0 ba 3c 07 b3 fa 3c 0a dc a4 bd
       0.03300363 0.022811947 0.030602945 -0.080497816
000190 1b 1d 84 bd 6c 24 b0 3c 63 f1 84 bc 61 15 b2 3d
       -0.06450864 0.021501742 -0.016228383 0.08695484
0001a0 8f 6e b0 3c a7 16 f6 bc ba 3f 4c bc 3d 20 a3 3c
       0.021537093 -0.030040098 -0.0124663655 0.019912833
0001b0 49 94 a0 3c b2 04 c4 3c 99 ef 84 be 64 d8 60 3d
       0.019601958 0.02392802 -0.25964049 0.054893866
0001c0 92 8e f3 bc 4d d5 1b 3e 01 a0 87 bd bf 41 14 3d
       -0.029731069 0.15218087 -0.06622315 0.036195513
0001d0 c5 39 4b 3b 99 8c e2 bc 5a 26 17 be 89 0d 20 be
       0.0031009775 -0.027654933 -0.14760724 -0.15630163
0001e0 05 31 f7 bd 71 a2 92 bd d0 a7 3e bd 3f 52 9c 3c
       -0.120698966 -0.071598895 -0.046546757 0.019082187
0001f0 40 fc 2e 3e 72 41 e7 bb dd f7 98 ba 52 b4 db 3d
       0.17088413 -0.0070573622 -0.0011670549 0.10727753
000200 7d ac 02 3d 22 d0 de bd b9 7d ba bd b3 66 5b bc
       0.03190278 -0.10879542 -0.09106011 -0.013391185
000210 41 42 ca 3c e5 53 0e 3e 20 8c 97 bc f9 ce 7a 3e
       0.024689795 0.1389919 -0.018499434 0.24493016
000220 a8 09 10 3b f6 10 97 bc c8 70 fc bc fa 31 f0 bb
       0.0021978412 -0.018440705 -0.030815497 -0.0073301764
000230 cd 8f 0f bc e2 ed 9a 3b a4 cf 83 be 2b 70 d9 3d
       -0.008762312 0.004728065 -0.25744355 0.106170975
000240 4b db b6 bd 31 b8 c8 3d 2b c3 d5 bd 00 41 cc 3d
       -0.089285456 0.09800757 -0.10437616 0.09973335
000250 18 c6 9e 3d 62 0f b9 bd 91 eb fc bd 00 04 2d be
       0.07752627 -0.09036137 -0.12349618 -0.16896057
000260 7c 98 ac 3d e2 27 40 bd 85 1e 72 3d 34 3a 48 bd
       0.084275216 -0.046913035 0.059111137 -0.04888363
000270 b6 d1 c1 3d 1d 8c 10 3c d6 03 04 be 2a 22 28 3d
       0.09463827 0.008822468 -0.12892088 0.041048206
000280 1e c7 49 3a 63 43 f8 bc 80 17 99 bd bf ea 8c bc
       0.0007697212 -0.03030557 -0.074751854 -0.01720178
000290 a9 2c ee 3b 93 09 ff 3b 36 ae 36 3d 50 3f ea bc
       0.0072685075 0.0077831238 0.044599734 -0.028594643
0002a0 64 55 75 bc 8a aa 8b 3d 54 95 49 bb 40 39 ca 3d
       -0.014973972 0.06819637 -0.0030759173 0.09874201
0002b0 69 96 9d bd d8 45 59 3d 67 a2 fb bd 6f 81 0a 3d
       -0.07694704 0.053045124 -0.12286835 0.033814844
0002c0 f5 db 9b bd 1d 55 98 3d 85 4b 89 bd a6 50 b5 bd
       -0.07610313 0.07438109 -0.06703857 -0.08853273
0002d0 13 03 14 3d 47 32 44 bd da b0 70 bb 1f 27 46 bd
       0.036135744 -0.04789951 -0.0036726505 -0.048377153
0002e0 d8 99 2b 3e 30 67 c5 bd 25 7a 48 3d 33 e8 0a bd
       0.16757905 -0.09638822 0.04894461 -0.03391285
0002f0 24 58 33 bd f1 70 07 3d 12 de 85 3c 6a d0 87 bc
       -0.04378523 0.033066694 0.016341243 -0.016578872
000300 60 f8 6b bd 80 a5 b4 3d c7 84 fa bd b7 c9 c6 bd
       -0.057609916 0.08820629 -0.122323565 -0.09706443
000310 12 97 67 3d 87 26 04 be ae 57 32 3d 45 78 38 3c
       0.056540556 -0.12905322 0.04354065 0.011259143
000320 e7 b7 c8 3c 03 2f e0 3c 95 ed 14 bd 63 70 82 3d
       0.024501754 0.027366167 -0.03635939 0.06369092
000330 33 9b 76 3d 2f 17 c5 3c 73 0b 37 bd 1e d5 a2 bc
       0.060206603 0.024058906 -0.044688653 -0.019877013
000340 f0 7a 43 bd 9e 2f 5d 3e b8 8f b3 bd 62 a2 cf bc
       -0.047724664 0.21600196 -0.087676466 -0.025345985
000350 bc 20 89 3d 9c 97 97 bd a9 ab 2d bd 1a a9 02 be
       0.06695697 -0.07401964 -0.042400036 -0.1275982
000360 8a 50 9b bd 87 7c 22 be 2d e7 88 3c c6 d2 c4 3d
       -0.07583721 -0.15867816 0.016711796 0.09610514
000370 02 59 ca bd 7f ba 43 3e 97 ba 6f bd b6 a9 72 3c
       -0.09880258 0.19114111 -0.058527555 0.01481097
000380 9d 32 98 3c c9 fe 84 3d 9e 20 c7 bd cd 5b eb bd
       0.018578822 0.06493909 -0.09723018 -0.11492119
000390 04 7b 87 3d d0 0c 01 3d cb 76 a2 3d 96 44 c1 3d
       0.0661526 0.03150636 0.07932814 0.0943691
0003a0 b5 cb 0f bd 4d 1b 46 bc 09 cf 04 3d 79 c3 38 3e
       -0.03510638 -0.01209147 0.032424007 0.18043317
0003b0 7f 77 c6 3c c5 c8 ab 3d e4 a8 48 be ae c9 a6 bc
       0.024226902 0.08387903 -0.19595677 -0.02035984
0003c0 89 bf 25 be ad 0c e2 3d 6a 7c 1b bd 32 4c f9 3c
       -0.16186346 0.11037574 -0.037960447 0.03043184
0003d0 f3 89 1e 3e b0 b9 b4 bc b3 10 fc bd f5 b1 41 bd
       0.15482311 -0.022061199 -0.123078726 -0.047288854
0003e0 cf 5a 2a bc 89 2f 1c be 99 21 a6 3d b9 01 50 bc
       -0.010397627 -0.15252508 0.08111877 -0.012695723
0003f0 c3 a7 a7 bd 2a 85 25 be 63 52 12 bd 52 b3 cb 3d
       -0.08186295 -0.1616408 -0.0357231 0.09946312

siamese_neural_congas/Mixed_6a/Branch_0/Conv2d_0a_1x1/weights f4 [16, 1, 1, 32]
000000 e3 48 87 bd 04 86 89 3e 2f 41 83 be 02 6e 73 be
       -0.06605699 0.26860058 -0.2563567 -0.23772433
000010 f6 72 a7 3e 32 93 ad 3e 0a 58 c0 bd e6 ac 9f 3d
       0.32704896 0.33901364 -0.09391792 0.0779665
000020 87 ce 81 3f 43 3c 3d 3e 2d 6a 02 bf 1f 35 1e 3e
       1.0141152 0.1848002 -0.5094326 0.15449952
000030 dc 6a 8f bc 88 56 f0 be 42 ce 36 3f 11 ed 95 bd
       -0.01750701 -0.46941018 0.71408474 -0.073206075
000040 1d 76 5e 3d 62 a8 e5 3e ef 61 5b bf f5 7b 1f 3e
       0.05431186 0.44855028 -0.8569631 0.1557463
000050 27 ea 6e be 96 51 b1 bd da bd 96 be 43 24 10 3e
       -0.2333151 -0.086581394 -0.2944172 0.14076333
000060 e9 12 5f 3f e1 27 3d 3e 83 59 f9 bd 42 de 06 3f
       0.8713823 0.18472244 -0.12175276 0.5268289
000070 7a 15 13 be 60 b7 cf 3e d7 99 b0 3e a1 60 ab 3d
       -0.14363661 0.40569592 0.3449237 0.0836804
000080 0b 34 0f 3f a5 12 bf 3e 98 bf 12 3f f8 30 61 3f
       0.55938786 0.37318912 0.573236 0.87965345
000090 21 88 15 3f 48 c8 bb be dd 19 7f bd 59 13 bc be
       0.5841084 -0.3667624 -0.062280525 -0.3673351
0000a0 bc d9 dd 3e 2a 71 8e bf a5 a8 83 bd 11 ba 88 3e
       0.4333018 -1.1128285 -0.06428651 0.26704457
0000b0 be e4 6f be 0c 81 2d bf 69 8b 73 be 7b ed d4 bd
       -0.23427102 -0.67775035 -0.2378365 -0.10396858
0000c0 5e 8f 58 be db a2 07 bf e0 63 fb 3e c0 5b 3e bf
       -0.2114844 -0.5298287 0.49099636 -0.7435875
0000d0 81 88 ff bc a3 4e 3d 3f 98 c7 99 3e 69 65 6f be
       -0.03119302 0.73948115 0.3003509 -0.23378529
0000e0 62 d5 9d be 31 52 bd bd 68 78 67 3f 76 2d 51 bf
       -0.3082686 -0.092441924 0.904181 -0.8170999
0000f0 39 ea 7f bf 6d 1c e5 3e 18 7c b2 be 47 ec 4b 3f
       -0.9996677 0.4474825 -0.348603 0.79657406
000100 d0 26 9a 3f fa 7c 8f bd b5 d1 c1 bd d1 85 b6 be
       1.2043095 -0.07006259 -0.094638266 -0.3564897
000110 af ca 3f 3f a0 e5 de be 23 83 bd 3e 83 1a 41 3f
       0.74918646 -0.43534565 0.37014112 0.7543108
000120 1b b8 4a 3f 2e 46 55 3e f8 e2 76 bd 28 eb 9a b9
       0.7918717 0.20827553 -0.060275048 -0.00029548374
000130 8f 8e d4 be 46 ed 01 be 1b de 06 3f df 5c 9b bd
       -0.41515014 -0.12688169 0.52682656 -0.07586073
000140 29 7d 3b 3e 2f fc 18 3e c0 46 80 bf c6 56 2d 3f
       0.18309464 0.1493995 -1.0021591 0.6771053
000150 fc d7 c8 3f 75 39 18 3e 09 26 45 be 78 4f e4 3c
       1.5690913 0.14865668 -0.1925279 0.027869925
000160 7c 19 d2 be 6f 74 3f bf 61 fd 45 3e e1 68 a8 3e
       -0.41035068 -0.7478704 0.19334938 0.32892516
000170 c9 84 25 bf b2 06 7a bf cc 59 9f be 68 56 b6 be
       -0.6465574 -0.97666466 -0.31123197 -0.35612798
000180 6e 1d b9 be a0 52 45 bf 10 9d 83 3f 60 a3 81 3e
       -0.36155266 -0.770792 1.0282307 0.25319958
000190 1b cb 18 3e d0 04 ab be 2d 57 9b be 0d 56 d8 bd
       0.14921229 -0.3340211 -0.30339947 -0.10563288
0001a0 f5 00 a3 bc 48 6b c0 be 07 0d 21 3f 2b dc d9 be
       -0.019897917 -0.3758185 0.62910503 -0.42550787
0001b0 a8 f0 8d 3e 53 eb 43 bd e6 77 1c 3f e7 a8 00 be
       0.2772267 -0.047831845 0.6112045 -0.12564431
0001c0 cf de 16 bf c4 5a fd 3e 18 56 09 3e 11 f3 17 3f
       -0.5893373 0.4948331 0.13411748 0.59355265
0001d0 be 22 58 be e5 1e 01 3e cd fd 26 3e d6 29 b7 be
       -0.21107003 0.12609442 0.16307755 -0.35774106
0001e0 7c 02 ed 3f 12 f1 ef 3d 87 5d 3e 3f 3c 76 d9 3e
       1.8516383 0.117159024 0.7436146 0.42473018
0001f0 ef 6f c7 3e e3 a4 2e bd 44 91 a8 be e1 00 80 3e
       0.38952586 -0.042637717 -0.3292333 0.2500067
000200 09 d5 37 3f b0 95 89 3e 88 ab 89 bd 97 96 a4 3d
       0.7180944 0.26872015 -0.0672217 0.08036535
000210 e2 06 9a be 75 cc 28 bd 58 3d f7 be ee 5a ef bd
       -0.30083376 -0.04121061 -0.4828899 -0.11687265
000220 3b d1 09 be 63 4c a4 be 92 2d 98 3f 09 28 a9 be
       -0.13458721 -0.32089528 1.1888907 -0.33038357
000230 c6 9e 23 bf ae 70 70 3f 7e 24 c6 3e 5b 83 b7 3e
       -0.63914144 0.93921936 0.38699716 0.35842404
000240 4a d2 1a 3f da 76 df 3e c0 99 bf 3e 64 35 1c bc
       0.60477126 0.43645364 0.3742199 -0.009534214
000250 bd c3 eb bd f6 82 33 3f a2 61 3d 3f fc da 0e be
       -0.115119435 0.70121706 0.739771 -0.13950723
000260 e3 63 71 be 49 12 46 bf 2e 3a 6b 3e 4a bb c3 bd
       -0.2357326 -0.7737165 0.22971413 -0.09557207
000270 f8 01 f7 bd b6 69 c0 bc 99 39 38 3e 0d 88 7d be
       -0.120609224 -0.023487907 0.17990722 -0.2475893
000280 27 bd 0a 3f f5 42 4e bf 92 b5 a2 3f 7b 86 ae 3e
       0.54194874 -0.8057092 1.2711661 0.34086975
000290 b1 30 15 bf eb e3 47 bd 4b f4 60 3c 17 51 4f 3f
       -0.5827742 -0.048801344 0.013730119 0.8098311
0002a0 ca f5 08 3f a2 ed 6b 3f c5 a3 aa bf f1 a1 63 3f
       0.53500044 0.92159474 -1.3331228 0.8891898
0002b0 b9 1f cf 3e fb 3a 3a 3f fd 14 0f bf a7 dd d1 bf
       0.4045389 0.7274625 -0.558914 -1.6395768
0002c0 77 58 5e 3d 97 c9 7f 3f e6 79 41 3e 58 8a 5f bd
       0.054283585 0.99916977 0.18894157 -0.054575294
0002d0 1e 28 d9 be de c9 3b 3e a3 61 e2 bf 38 93 37 3f
       -0.4241342 0.18338725 -1.7686046 0.71709013
0002e0 5d 30 ca be a1 6b 77 3e d2 07 ab be 04 aa fa bd
       -0.39490023 0.24162151 -0.33404404 -0.12239459
0002f0 41 4d 89 3f 5c 2f 18 3e b0 ae a2 be d4 90 03 bf
       1.0726701 0.14861816 -0.317739 -0.51392865
000300 22 ec 2f bf 4b d6 1f be ea a6 7a bf a6 4c a4 bf
       -0.68719685 -0.1560909 -0.9791094 -1.2835891
000310 70 99 6f be 27 b9 5e be d5 6d ac bd 39 97 38 bd
       -0.23398376 -0.21750318 -0.08419386 -0.045066092
000320 cf f8 72 3f 00 84 e7 3e 9f d1 04 3e 00 a9 2a 3f
       0.949109 0.45217896 0.12970589 0.66664124
000330 af ec 4a bf 0e 09 a8 be 53 02 46 be b8 32 1e bf
       -0.792674 -0.32819408 -0.19336824 -0.6179614
000340 2d 50 4e bf 5a 16 86 bc f9 c7 97 bd fd a7 a3 bf
       -0.8059109 -0.01636808 -0.07411189 -1.2785641
000350 99 48 b6 bf c8 51 a8 3e e8 e5 92 be f1 c1 16 be
       -1.4240905 0.32874894 -0.2869103 -0.1472242
000360 1a 9d 09 3f 23 51 91 3e 82 53 af 3e 7c 6c c8 bf
       0.5375534 0.28382215 0.342434 -1.5658107
000370 28 d4 48 be b3 69 75 3b 4a d2 ac 3f 43 4c 27 3f
       -0.19612181 0.0037447035 1.3501675 0.6535074
000380 27 ba 98 3d 14 20 65 be f5 a0 31 bf b0 41 28 bf
       0.07457381 -0.22375518 -0.69386226 -0.6572523
000390 51 bb 62 bf 57 00 5f 3f bf fb 8e 3f 2b 37 fe be
       -0.8856707 0.87109894 1.1170577 -0.49651465
0003a0 ab 33 3c be 23 e4 c7 3d ea 32 c5 bf 65 75 fd be
       -0.18379085 0.097603105 -1.5406163 -0.49503627
0003b0 75 42 14 bd 59 1b 25 bc 48 45 11 bd 35 4b 4a 3e
       -0.03619619 -0.010077321 -0.035466462 0.19755252
0003c0 09 24 05 3f 37 07 4c bf 12 3b b3 bd b3 56 8a bf
       0.5200811 -0.7969851 -0.08751501 -1.0807709
0003d0 9e 2d fd 3e 79 72 b9 be 2a 8d 5c 3e db 33 0d 3e
       0.49448866 -0.36220148 0.21538225 0.13789313
0003e0 04 b6 82 bf 9d 24 0a be 9b 6b 2b 3f 60 f9 ca bf
       -1.0211797 -0.1349053 0.6696107 -1.5857353
0003f0 cd c2 e3 be 5a 0c 4d bf ce 4c 5b 3e c7 ff 47 3f
       -0.4448456 -0.8009697 0.21416017 0.7812466
